mcao/neural/docs/matrices/transformationMatrices_19234e26-b7e7-43ba-b419-775a87bf4679.npz (npz, 152610 bytes, 4 tensors)

arr_0 f8 [30, 30, 3, 7]
1.0 1.0 1.0 1.0 1.0 1.0 1.0 0.7734090163575744
0.7734232581787873 0.7734527590941563 0.7734670009153691 0.7733905924142596 0.7734232581787873 0.7734374999999999 0.6249267527049135 0.6249641555790003
0.6250374028740867 0.6250748057481734 0.6250374028740867 0.6249641555790003 0.625 -4.1624892027121503e-19 -4.1624892027121503e-19 -4.1624892027121503e-19
-4.1624892027121503e-19 -4.1624892027121503e-19 -4.1624892027121503e-19 -4.1624892027121503e-19 -1.3878065289176102e-18 -2.4414550650373793e-05 -2.441455065037657e-05 2.3130108815293507e-19
-8.45466846596333e-05 2.5431823594143765e-05 -1.6191076170705453e-18 -1.2402292223470454e-18 -6.233812347786205e-05 -6.23381234778617e-05 8.858780159621752e-20 6.389657656480505e-05
6.389657656480728e-05 -1.7717560319243504e-19 -6.740776211038923e-05 -6.740776211038923e-05 -6.740776211038923e-05 -6.740776211038923e-05 -6.740776211038923e-05 -6.740776211038923e-05
-6.740776211038923e-05 0.5860565172842883 0.29301195355153514 -0.3140096698302568 -0.6070549493626821 -0.3139007445307287 0.29301127904799795 -2.2148493701884264e-05
0.7949754635020438 0.3890277425530433 -0.4059575059837389 -0.8119096133276222 -0.40595921414713076 0.3890260343896515 3.779047898925394e-05 7.079122879059414e-17
7.079122879059414e-17 7.079122879059414e-17 7.079122879059414e-17 7.079122879059414e-17 7.079122879059414e-17 7.079122879059414e-17 0.0 0.3552173133260409
0.35523086248659086 -5.921307856715138e-17 -0.3698995230168628 -0.3700180347146259 -2.2204904462681764e-17 7.441375334082272e-18 0.4783885277180973 0.4784445959987226
3.543512063848701e-19 -0.4904057108986906 -0.4903482409110497 -2.1969774795861946e-17 -9.532897138572936e-05 -9.532897138572936e-05 -9.532897138572936e-05 -9.532897138572936e-05
-9.532897138572936e-05 -9.532897138572936e-05 -9.532897138572936e-05 0.4143247999417677 0.20712221483487067 -0.222106891385261 -0.4293324088357325 -0.22218624218638766
0.2071226917808958 -9.539893861334035e-05 0.5620103838439794 0.27500971523935525 -0.2871297449442764 -0.5742289505697442 -0.2871285370903587 0.2750109230932729
-9.543537127710383e-05 1.0148268552731753e-19 1.0148268552731753e-19 1.0148268552731753e-19 1.0148268552731753e-19 1.0148268552731753e-19 1.0148268552731753e-19 1.0148268552731753e-19
0.0 0.13459159645757696 -0.14420088606516546 1.4803269641787844e-17 0.1500535123005455 -0.14019925695004842 -1.3878065289176102e-18 -9.921833778776363e-18
0.2978314125353922 -0.31070240370047786 5.598749060880947e-17 0.3184713040217163 -0.3052758576200505 -2.6576340478865257e-19 -0.0022372681824769382 -0.0022372681824769382
-0.0022372681824769382 -0.0022372681824769382 -0.0022372681824769382 -0.0022372681824769382 -0.0022372681824769382 -0.4095607681726518 -0.6474244855989817 -0.6298527785573131
-0.3750228846287963 -0.620126998900786 -0.637610856925143 -0.8804815277564924 -0.005819975408872008 -0.5624606777401958 -0.5394428517316734 0.04070940477762807
-0.5263327114467123 -0.5493520738149943 -1.078160590797147 -1.048886105458149e-18 -1.048886105458149e-18 -1.048886105458149e-18 -1.048886105458149e-18 -1.048886105458149e-18
-1.048886105458149e-18 -1.048886105458149e-18 0.0 0.13452739709430772 -0.1442650854284347 2.960653928357569e-17 0.15028090719782977 -0.14013281287099086
-8.0955380853527265e-19 -1.5591453080934284e-17 0.29768953096935236 -0.31084428526651764 -1.7363209112858635e-17 0.31861494565527176 -0.3051322159864949 -6.42261561572577e-19
-0.001069563764416855 -0.001069563764416855 -0.001069563764416855 -0.001069563764416855 -0.001069563764416855 -0.001069563764416855 -0.001069563764416855 0.15675641507380597
-0.07633167201936665 -0.07045248956768359 0.16832371128711873 -0.08008774702417427 -0.0861453006932052 -0.00019031681852500887 0.35632233966195603 -0.174436478916372
-0.1667352758309256 0.3719717188052753 -0.17984541611588667 -0.18754508284157345 -0.0010554739220566733 -8.702304668621808e-05 -8.702304668621808e-05 -8.702304668621808e-05
-8.702304668621808e-05 -8.702304668621808e-05 -8.702304668621808e-05 -8.702304668621808e-05 -0.24431278086333927 -0.12376665752500587 0.12835897725076795 0.2365785562317549
0.12122675199887821 -0.11697873926346516 6.436597965526331e-05 -0.6474088104322858 -0.331403947471344 0.3368750195752122 0.6243593203570788 0.3213288931847391
-0.31650620974156013 9.55054929991075e-05 -0.00012306917286267595 -0.00012306917286267595 -0.00012306917286267595 -0.00012306917286267595 -0.00012306917286267595 -0.00012306917286267595
-0.00012306917286267595 -0.12174450132495668 -0.13763196775239278 0.14345390742826555 0.11058210460054956 0.14334872075879876 -0.13763363441506235 7.47797062770091e-05
-0.2638239197202935 -0.4203422407583419 0.43016979517758724 0.23480725688568732 0.43016636624456644 -0.4203456696913626 0.0001771093933894385 -1.3273355398236402e-17
-1.3273355398236402e-17 -1.3273355398236402e-17 -1.3273355398236402e-17 -1.3273355398236402e-17 -1.3273355398236402e-17 -1.3273355398236402e-17 2.960653928357569e-17 -0.14926893439799951
-0.1394518821718806 -1.8504087052234806e-17 0.13971960288441795 0.1497739054092068 4.440980892536353e-17 3.809275468637353e-18 -0.4071809741980802 -0.3857595089572099
1.9489316351167854e-18 0.3828834783505048 0.4048419474265562 -1.9134965144782984e-17 -0.00012306917286267964 -0.00012306917286267964 -0.00012306917286267964 -0.00012306917286267964
00000000: 0000 0000 0000 f03f 0000 0000 0000 f03f
00000010: 0000 0000 0000 f03f 0000 0000 0000 f03f
00000020: 0000 0000 0000 f03f 0000 0000 0000 f03f
00000030: 0000 0000 0000 f03f 74fe f543 c4bf e83f
00000040: 3bff fa21 e2bf e83f 89ee 2900 20c0 e83f
00000050: 4fef 2ede 3dc0 e83f 8581 aea0 9dbf e83f
00000060: 3bff fa21 e2bf e83f ffff ffff ffbf e83f
00000070: 2d6b a863 66ff e33f 3d4a 2cd4 b4ff e33f
00000080: 0fdf 8370 4e00 e43f 1ebe 07e1 9c00 e43f
00000090: 0fdf 8370 4e00 e43f 3d4a 2cd4 b4ff e33f
000000a0: 0000 0000 0000 e43f 1f8a b644 b8b6 1ebc
000000b0: 1f8a b644 b8b6 1ebc 1f8a b644 b8b6 1ebc
000000c0: 1f8a b644 b8b6 1ebc 1f8a b644 b8b6 1ebc
000000d0: 1f8a b644 b8b6 1ebc 1f8a b644 b8b6 1ebc
000000e0: 0771 3b25 bb99 39bc 0771 3b25 bb99 f9be
000000f0: 3b74 3b25 bb99 f9be b0a0 276e 2711 113c
00000100: 4322 7efb d429 16bf 24f0 1d9c cdaa fa3e
00000110: 3359 c500 05de 3dbc 280d 0f21 d1e0 36bc
00000120: 0878 78ce 7057 10bf ee77 78ce 7057 10bf
00000130: 2d58 5a4a 8125 fa3b 69e0 a1d3 06c0 103f
00000140: 0de1 a1d3 06c0 103f 2d58 5a4a 8125 0abc
00000150: 978e f888 a8ab 11bf 978e f888 a8ab 11bf
00000160: 978e f888 a8ab 11bf 978e f888 a8ab 11bf
00000170: 978e f888 a8ab 11bf 978e f888 a8ab 11bf
00000180: 978e f888 a8ab 11bf 67ff ea98 f9c0 e23f
00000190: 8bd1 7535 b5c0 d23f 141e a303 bc18 d4bf
000001a0: ad67 4c80 fe6c e3bf 1cc5 fc25 f316 d4bf
000001b0: b0b2 3761 b2c0 d23f ae9f cee5 7039 f7be
000001c0: 98a3 1b62 7070 e93f 3c21 e09d d4e5 d83f
000001d0: 3a04 f130 35fb d9bf c69a 91de 29fb e9bf
000001e0: f664 115b 3cfb d9bf 81c0 bf73 cde5 d83f
000001f0: 0c14 8bf8 26d0 033f a516 2681 7867 943c
00000200: a516 2681 7867 943c a516 2681 7867 943c
00000210: a516 2681 7867 943c a516 2681 7867 943c
00000220: a516 2681 7867 943c a516 2681 7867 943c
00000230: 0000 0000 0000 0000 4a55 ed65 e1bb d63f
00000240: da39 3a3a 1abc d63f b0a0 276e 2711 91bc
00000250: 8e75 8a0c 6fac d7bf 82e3 811f 60ae d7bf
00000260: 0771 3b25 bb99 79bc de49 cbd8 9c28 613c
00000270: 1d2c 55ea ea9d de3f eacb 3015 d69e de3f
00000280: 2d58 5a4a 8125 1a3c 6937 85a2 ce62 dfbf
00000290: 374d 9796 dd61 dfbf 6c85 0740 5554 79bc
000002a0: 8a98 0242 6bfd 18bf 8a98 0242 6bfd 18bf
000002b0: 8a98 0242 6bfd 18bf 8a98 0242 6bfd 18bf
000002c0: 8a98 0242 6bfd 18bf 8a98 0242 6bfd 18bf
000002d0: 8a98 0242 6bfd 18bf 11fc 6a2a 4c84 da3f
000002e0: 5bd4 7e11 fb82 ca3f 45a3 5ba5 ff6d ccbf
000002f0: e9fd c3a3 2e7a dbbf d2e4 e749 9970 ccbf
00000300: 03ae ba11 ff82 ca3f 26a5 2149 1d02 19bf
00000310: dee9 5333 fdfb e13f 6a42 4259 c299 d13f
00000320: b3a5 0f70 5560 d2bf 66a1 6364 1560 e2bf
00000330: 5c4a 235f 5060 d2bf c09d 2e6a c799 d13f
00000340: e761 ae31 8f04 19bf 0a7a d59e d0f3 fd3b
00000350: 0a7a d59e d0f3 fd3b 0a7a d59e d0f3 fd3b
00000360: 0a7a d59e d0f3 fd3b 0a7a d59e d0f3 fd3b
00000370: 0a7a d59e d0f3 fd3b 0a7a d59e d0f3 fd3b
00000380: 0000 0000 0000 0000 3e05 8d24 4c3a c13f
00000390: 3420 dab4 2c75 c2bf b0a0 276e 2711 713c
000003a0: 178a fd17 f434 c33f 1411 c39b 0cf2 c1bf
000003b0: 0771 3b25 bb99 39bc 280d 0f21 d1e0 66bc
000003c0: 53e7 237c ab0f d33f 36a8 ab55 8ce2 d3bf
000003d0: 6cc2 e3cb 2523 903c 3637 df76 d561 d43f
000003e0: 5022 2fc0 a389 d3bf 22c2 c3f7 209c 13bc
000003f0: 03c6 a235 e453 62bf 03c6 a235 e453 62bf
00000400: 03c6 a235 e453 62bf 03c6 a235 e453 62bf
00000410: 03c6 a235 e453 62bf 03c6 a235 e453 62bf
00000420: 03c6 a235 e453 62bf e3ac 415e 3e36 dabf
00000430: 3adf 088e b3b7 e4bf 3659 a603 c127 e4bf
00000440: 5edd 2efc 5f00 d8bf f8a7 7493 14d8 e3bf
00000450: 412d 42e2 4e67 e4bf b047 ce98 e72c ecbf
00000460: 6dcd b6c0 afd6 77bf adc3 0589 adff e1bf
00000470: d4f3 c7a7 1d43 e1bf 0faf 51f4 dcd7 a43f
00000480: f950 cfb2 b7d7 e0bf 43ce e0cc 4a94 e1bf
00000490: e1f4 d451 2540 f1bf 2931 a67e 3959 33bc
000004a0: 2931 a67e 3959 33bc 2931 a67e 3959 33bc
000004b0: 2931 a67e 3959 33bc 2931 a67e 3959 33bc
000004c0: 2931 a67e 3959 33bc 2931 a67e 3959 33bc
000004d0: 0000 0000 0000 0000 b8d0 7799 3138 c13f
000004e0: ba54 ef3f 4777 c2bf b0a0 276e 2711 813c
000004f0: b25e d09e 673c c33f 6f4e 303c dfef c1bf
00000500: 3359 c500 05de 2dbc 9f1c 1ee3 c8f9 71bc
00000510: 24ff f763 580d d33f 6490 d76d dfe4 d3bf
00000520: 832b edfc b604 74bc 23cc e6f0 2f64 d43f
00000530: 618d 2746 4987 d3bf e9df 612b fdb1 27bc
00000540: eff2 e758 1386 51bf eff2 e758 1386 51bf
00000550: eff2 e758 1386 51bf eff2 e758 1386 51bf
00000560: eff2 e758 1386 51bf eff2 e758 1386 51bf
00000570: eff2 e758 1386 51bf bb10 171e 9810 c43f
00000580: a9e0 f8f2 788a b3bf 796f 9da2 2c09 b2bf
00000590: 774c 8fa1 a18b c53f 5d76 476e a180 b4bf
000005a0: 6470 2e51 9e0d b6bf 2ff2 db05 f9f1 28bf
000005b0: e2aa eb36 fccd d63f 536d 163e ef53 c6bf
000005c0: 4b45 64de 9457 c5bf 638e d377 62ce d73f
000005d0: b8d0 46b2 2c05 c7bf f842 aa2e 7a01 c8bf
000005e0: d766 877e fa4a 51bf 9c2c dd8e 04d0 16bf
000005f0: 9c2c dd8e 04d0 16bf 9c2c dd8e 04d0 16bf
00000600: 9c2c dd8e 04d0 16bf 9c2c dd8e 04d0 16bf
00000610: 9c2c dd8e 04d0 16bf 9c2c dd8e 04d0 16bf
00000620: 03c4 e625 a445 cfbf c4b6 67f2 2baf bfbf
00000630: c453 b824 116e c03f eaa2 f9c4 3448 ce3f
00000640: b748 3c67 b708 bf3f c2c1 7693 51f2 bdbf
00000650: f8b1 411c 87df 103f a55d 7eae 92b7 e4bf
00000660: 01e7 09e7 b835 d5bf a98d fa3d 5c8f d53f
00000670: b85d bc65 c0fa e33f d440 df0f a790 d43f
00000680: e989 f442 a341 d4bf 6da7 46e0 4309 193f
00000690: 90a4 2a25 8421 20bf 90a4 2a25 8421 20bf
000006a0: 90a4 2a25 8421 20bf 90a4 2a25 8421 20bf
000006b0: 90a4 2a25 8421 20bf 90a4 2a25 8421 20bf
000006c0: 90a4 2a25 8421 20bf 9c94 a8cb a52a bfbf
000006d0: 42b9 30a0 ec9d c1bf d3a3 7198 b25c c23f
000006e0: 033f c8da 1b4f bc3f 9b8e ca39 4059 c23f
000006f0: 4f37 529b fa9d c1bf da00 4b92 619a 133f
00000700: e679 c6b8 7de2 d0bf d0cd 4b24 e3e6 dabf
00000710: c2f1 80e4 e687 db3f eeff 9708 2a0e ce3f
00000720: 3703 b782 d887 db3f 59bc 1586 f1e6 dabf
00000730: ad0f d71a ce36 273f f821 b9c1 349b 6ebc
00000740: f821 b9c1 349b 6ebc f821 b9c1 349b 6ebc
00000750: f821 b9c1 349b 6ebc f821 b9c1 349b 6ebc
00000760: f821 b9c1 349b 6ebc f821 b9c1 349b 6ebc
00000770: b0a0 276e 2711 813c ad2a c693 3e1b c3bf
00000780: 9e9d a52c 8fd9 c1bf dc88 b149 7155 75bc
00000790: d3d4 7ffa 54e2 c13f 3d6c c394 ca2b c33f
000007a0: 0771 3b25 bb99 893c 3eb3 f4dd 3291 513c
000007b0: b6fc eec9 400f dabf 30e7 c5a6 48b0 d8bf
000007c0: 9f1c 1ee3 c8f9 413c d36c 6cb4 2981 d83f
000007d0: a2be 0f33 eee8 d93f 663a bc16 a50f 76bc
000007e0: 18a5 2a25 8421 20bf 18a5 2a25 8421 20bf
000007f0: 18a5 2a25 8421 20bf 18a5 2a25 8421 20bf

arr_1 f8 [3]
0.0 4000.0 8000.0
00000000: 0000 0000 0000 0000 0000 0000 0040 af40
00000010: 0000 0000 0040 bf40

arr_4 f8 []
0.00029088793542287835
00000000: c490 602b 4a10 333f

arr_5 f8 []
4.0
00000000: 0000 0000 0000 1040
