mcao/neural/unsupervised/trained/2019-02-08-12:19:38.pth (torch_old, 835355 bytes, 12 tensors)

layer1.weight f4 [256, 210]
-0.0431216 0.05010781 -0.0010970484 -0.059663635 -0.08572029 -0.069893345 0.045415696 0.03812708
0.008489537 -0.035182424 -0.01975359 0.06671702 0.010748001 -0.0066305674 -0.04854873 0.05186145
-0.005396947 0.045977276 -0.0041442798 -0.045844603 0.02574882 -0.0114629185 0.030332873 -0.0617122
-0.0017803408 -0.05317977 0.013124934 0.012054305 0.027395472 -0.03368061 0.009488651 0.060335744
-0.049333382 0.037616402 0.041604843 -0.04717975 0.051814966 -0.036627468 0.042374812 0.063278995
0.05933659 -0.017160699 0.06785777 0.04635682 0.030111259 -0.06582264 0.033255484 0.0009878128
-0.04390101 0.02894665 0.023955502 0.040989388 0.050046094 -0.027104583 0.060008205 -0.0034058134
-0.016677298 0.0023907933 0.062628545 -0.078896314 0.0045048343 0.036203824 -0.042537477 0.027826395
0.033340313 0.0018913328 0.0032449006 -0.011524144 -0.026438093 0.011507875 0.050147984 0.0048125507
0.04553008 0.018040776 0.007829331 0.003217806 0.037770033 -0.003949117 -0.07566957 -0.03389559
0.04065478 0.046380334 -0.028396312 -0.05682855 0.013761742 0.015224685 0.062204182 0.029281372
0.04622156 0.009724073 -0.010423959 0.0053328127 0.053148493 0.045706436 -0.008405701 0.08353757
-0.03501769 -0.064159736 -0.036166668 -0.014762385 0.024638398 -0.02234331 0.07057434 -0.022090418
0.06211933 -0.03990013 -0.02318828 -0.055025127 0.006108376 -0.03949222 -0.03022476 0.026313547
0.011262619 0.028625371 0.012815273 0.03818073 -0.016288413 0.042325918 -0.008071138 0.009661856
-0.043841638 -0.02378031 -0.019599082 0.05094826 0.02389451 -0.04000719 0.04765423 0.029185247
0.06301897 0.040937483 -0.006896412 0.019250242 -0.032077868 0.039097607 0.010727228 0.05055578
0.008556496 -0.027490782 -0.005293714 -0.031432 -0.062526725 0.056205455 0.047186483 -0.023137072
0.05770571 0.0357507 -0.04646585 0.048521135 0.01032738 0.043599535 -0.05847725 0.02355596
-0.01971426 0.026383385 -0.054178655 0.0257451 0.06242217 -0.027432008 -0.07873461 -0.04294929
-0.001134632 -0.00307297 -0.015265074 0.06980454 0.06005074 0.040789798 0.027241645 0.021404907
0.016837196 0.056286316 0.028408984 0.07629958 -0.016295291 -0.0140447 -0.009940154 -0.015196754
0.02559847 0.0135907745 -0.012665164 0.05070859 0.05578507 0.025250424 0.042805117 0.060217448
-0.060297035 0.001816954 -0.05485613 -0.045139708 -0.025079872 -0.031196095 -0.040003866 -0.030375011
0.046202973 -0.035951823 0.020827062 0.059260737 -0.045312718 -0.030616356 -2.689253e-05 0.021798184
-0.0460808 0.008708416 -0.03170058 -0.04303084 -0.029005615 0.024949031 -0.0036487973 -0.010669057
-0.015051776 -0.02029876 -0.039236408 0.028111644 0.042899724 0.059510477 0.015002169 0.029008435
0.06268442 -0.044453096 0.003915172 0.019036882 0.03178823 0.051048752 -0.03669531 -0.08660202
-0.0034303954 0.04116726 0.019405147 0.024028307 -0.032737125 -0.027450135 0.052256957 0.037046958
0.048480257 -0.07023754 -0.0034001553 -0.03152118 -0.02632247 -0.07225539 -0.0563655 0.030084595
-0.07740375 0.026945194 0.035236932 -0.029193554 -0.069576554 -0.027824359 0.06379498 -0.011762118
0.061682235 0.024049614 -0.008507644 0.039000466 0.019006485 0.03956486 -0.023411257 -0.056107447
00000000: 46a0 30bd d93d 4d3d d6ca 8fba db61 74bd
00000010: 1f8e afbd 3e24 8fbd cf05 3a3d 242b 1c3d
00000020: b317 0b3c 721b 10bd 48d2 a1bc efa2 883d
00000030: 6218 303c 3b45 d9bb 08db 46bd ac6c 543d
00000040: dfd8 b0bb ab52 3c3d bdcc 87bb 8dc7 3bbd
00000050: 30ef d23c f7ce 3bbc a57c f83c efc5 7cbd
00000060: 535a e9ba 08d3 59bd f709 573c 6b7f 453c
00000070: 786c e03c aef4 09bd 4976 1b3c 9d22 773d
00000080: cd11 4abd a813 1a3d d769 2a3d 8e3f 41bd
00000090: ee3b 543d af06 16bd 3691 2d3d 6b98 813d
000000a0: ed0a 733d 9894 8cbc 04f9 8a3d a6e0 3d3d
000000b0: e3ab f63c 05ce 86bd e736 083d 7f79 813a
000000c0: 8cd1 33bd 8621 ed3c 543e c43c 7de4 273d
000000d0: 22fd 4c3d 6e0a debc 2acb 753d 1134 5fbb
000000e0: d49e 88bc dbae 1c3b 6543 803d 6494 a1bd
000000f0: 4a9d 933b 764a 143d c73b 2ebd 2ef4 e33c
00000100: da8f 083d 99e6 f73a 66a8 543b c3cf 3cbc
00000110: b394 d8bc 878b 3c3c f967 4d3d 9ab2 9d3b
00000120: c07d 3a3d 40ca 933c 9846 003c d4e1 523b
00000130: c0b4 1a3d 9867 81bb a6f8 9abd 1ad6 0abd
00000140: a085 263d 4ef9 3d3d 629f e8bc 0ec5 68bd
00000150: ee78 613c f570 793c d0c9 7e3d 7ddf ef3c
00000160: d252 3d3d b851 1f3c 41c9 2abc e0be ae3b
00000170: 3cb2 593d ac36 3b3d 11b8 09bc bf15 ab3d
00000180: b66e 0fbd 2e66 83bd 8023 14bd eedd 71bc
00000190: 77d6 c93c 5109 b7bc 4889 903d f7f6 b4bc
000001a0: d770 7e3d 526e 23bd 59f5 bdbc 0762 61bd
000001b0: c628 c83b 98c2 21bd ea99 f7bc 828f d73c
000001c0: d986 383c c17f ea3c 27f7 513c 6663 1c3d
000001d0: 476f 85bc f15d 2d3d ce3c 04bc c34c 1e3c
000001e0: 4a93 33bd edce c2bc 418e a0bc 1faf 503d
000001f0: 6bbe c33c 94de 23bd 1531 433d e615 ef3c
00000200: 1710 813d 10ae 273d 4cfb e1bb afb2 9d3c
00000210: 1564 03bd d024 203d 41c1 2f3c 9413 4f3d
00000220: 8c30 0c3c 5934 e1bc e476 adbb d7be 00bd
00000230: 030e 80bd b137 663d 9d46 413d f589 bdbc
00000240: d35c 6c3d 536f 123d fa52 3ebd 19be 463d
00000250: 2c34 293c 6d95 323d d785 6fbd 6ef8 c03c
00000260: cd7f a1bc f821 d83c 70ea 5dbd 63e7 d23c
00000270: 64ae 7f3d 17b9 e0bc 9c3f a1bd 98eb 2fbd
00000280: efb7 94ba e263 49bb 5c1a 7abc aff5 8e3d
00000290: c4f7 753d 3413 273d df29 df3c 5859 af3c
000002a0: 29ee 893c 7b8c 663d f5b9 e83c f442 9c3d
000002b0: b47d 85bc be1b 66bc 07dc 22bc cefb 78bc
000002c0: e2b3 d13c d7ab 5e3c 8c81 4fbc cfb3 4f3d
000002d0: e37e 643d fad9 ce3c 6b54 2f3d 92a6 763d
000002e0: 06fa 76bd dc26 ee3a d2b0 60bd 6ae4 38bd
000002f0: 4e74 cdbc f48e ffbc 18db 23bd 04d5 f8bc
00000300: 543f 3d3d 3842 13bd 849d aa3c 63bb 723d
00000310: d499 39bd 27cf fabc 4597 e1b7 1b92 b23c
00000320: 39bf 3cbd bead 0e3c 78d8 01bd 1b41 30bd
00000330: 2f9d edbc e961 cc3c a920 6fbb 45cd 2ebc
00000340: b99b 76bc 9649 a6bc 5bb6 20bd 644a e63c
00000350: 9fb7 2f3d 42c1 733d a8cb 753c 19a3 ed3c
00000360: b060 803d 7314 36bd d84a 803b 3cf3 9b3c
00000370: 6034 023d 7f18 513d d24d 16bd 665c b1bd
00000380: 7cd0 60bb 009f 283d 8bf7 9e3c 03d7 c43c
00000390: 5d17 06bd 1bdf e0bc 640b 563d 8dbe 173d
000003a0: 3c93 463d b3d8 8fbd 24d5 5ebb 5a1c 01bd
000003b0: 38a2 d7bc a2fa 93bd 83df 66bd f873 f63c
000003c0: db85 9ebd 2bbc dc3c 9a54 103d 5227 efbc
000003d0: 277e 8ebd e9ef e3bc f1a6 823d e6b5 40bc
000003e0: 83a6 7c3d b203 c53c a563 0bbc f4be 1f3d
000003f0: 7db3 9b3c c30e 223d f7c8 bfbc ecd0 65bd

layer1.bias f4 [256]
0.028243354 0.0565321 -0.0018301954 0.004613928 0.057618864 0.020570772 0.034841247 0.0662235
0.08644024 0.046957396 -0.009018862 -0.029506 0.029515458 0.025622966 -0.008119079 0.04980337
-0.0155421095 0.05225808 0.047856297 0.010308606 -0.060798436 -0.02521213 0.06190967 -0.033439595
0.009960023 0.00043862607 0.004705175 0.07764481 -0.044737343 -0.043800715 0.01706258 0.02908926
0.05421529 0.0577463 -0.020841936 -0.042323485 0.043817744 0.048352856 -0.028609892 0.024585493
-0.024045331 -0.044783365 0.03278312 0.050934967 -0.0055722427 -0.012381171 0.028392417 -0.028586563
0.036556892 -0.025666246 -0.0033950137 0.010572032 0.00670803 0.07496026 -0.01091407 0.067890935
0.09124095 0.05293886 0.08575171 0.09238167 -0.0042942753 -0.04040795 0.0018924447 0.046377525
-0.02275827 -0.04023727 -0.051542096 -0.0011444903 0.08375673 0.045424223 -0.012154584 0.05987073
0.06817876 0.08343224 0.030105304 -0.03849349 -0.024377447 0.013749046 0.004971969 0.0010664839
0.026019458 0.045755055 0.038486537 0.005961193 -0.01855249 0.026330948 -0.04184839 -0.034349572
0.031790435 0.02595345 -0.028173385 0.023103934 -0.04734152 0.08057054 0.058337416 0.06276355
0.01886589 0.008445455 0.0032280462 0.07015673 -0.03445729 -0.048034497 -0.058121476 0.077926494
0.0015065466 -0.007600413 -0.013805606 -0.018578459 0.049144566 0.05877951 -0.010311786 0.016259404
0.07841261 0.0045011835 -0.06673023 -0.022943351 0.0005757121 -0.034804173 0.03792937 0.014552651
0.019244803 -0.018831717 0.06125259 0.0013254427 0.053901423 -0.030484436 0.07974706 0.02833105
0.0083462475 0.07643372 -0.040033013 0.013169228 -0.03933548 -0.01463173 0.052903045 0.03365122
0.0024703385 0.0036202203 0.07450801 -0.037881073 0.084817976 0.033225562 -0.028162494 0.06568777
-0.040227015 0.06751364 -0.054233544 0.027033933 0.06399247 0.03832941 -0.0352734 0.084227994
0.025732007 0.06882547 0.054775067 -0.009347623 0.08032752 0.038924616 -0.0010414757 0.04913913
0.01255642 0.08767549 -0.0031984493 -0.0009347702 -0.04682938 0.08755403 0.029979704 -0.006913765
0.08439706 0.059729993 -0.023752147 -0.010252336 0.0009221036 -0.009568393 0.011578397 0.054088105
-0.011554557 0.069705226 0.056218226 0.05928982 -0.021174105 0.016655415 0.0721108 0.03558792
0.015550206 -0.010744975 0.0020368935 -0.049849976 0.00044782044 0.06451016 0.08083058 0.051755346
0.007084325 -0.04990345 0.0800277 -0.04216464 0.049226247 -0.045109786 0.030588163 0.05908349
0.02592459 -0.0018844098 0.07109701 0.0029127712 0.046447862 0.056104526 0.04413222 0.06907922
0.06797104 -0.03880216 0.076327205 0.06352781 -0.038226396 -0.046083793 0.053359672 -0.040681306
-0.038583957 0.06988325 -0.0021752424 -0.018583942 0.015424348 0.04443761 0.0020719126 -0.008546958
-0.048202105 -0.045091372 -0.02136724 0.045872137 -0.05423256 -0.031870637 0.016729355 -0.02064426
-0.031329494 -0.022153392 -0.03317455 0.05841612 0.04275614 0.054047562 0.05331391 0.057289805
-0.00888615 0.035853293 0.086726286 0.011661809 0.035416868 0.030256284 -0.022707038 -0.031205926
0.064828224 0.018104343 -0.048516445 0.07908308 0.024050245 0.06047893 -0.070002 -0.018036922
00000000: 9b5e e73c 348e 673d 2be3 efba 6f30 973b
00000010: c201 6c3d 0984 a83c b2b5 0e3d 30a0 873d
00000020: 9507 b13d 6656 403d d9c3 13bc 91b6 f1bc
00000030: 67ca f13c 41e7 d13c e305 05bc 9efe 4b3d
00000040: 55a4 7ebc 920c 563d f704 443d 6de5 283c
00000050: c807 79bd ab89 cebc fe94 7d3d f5f7 08bd
00000060: 5d2f 233c 65f7 e539 de2d 9a3b 3e04 9f3d
00000070: 813e 37bd 6168 33bd d3c6 8b3c 9a4c ee3c
00000080: da10 5e3d 6287 6c3d b5bc aabc 645b 2dbd
00000090: 3c7a 333d a50d 463d 4b5f eabc 8467 c93c
000000a0: b7fa c4bc c36e 37bd 9847 063d 2fa1 503d
000000b0: 5c97 b6bb 65da 4abc 3797 e83c 5e2e eabc
000000c0: aebc 153d 0542 d2bc e17e 5ebb 5136 2d3c
000000d0: 09cf db3b c484 993d edd0 32bc 670a 8b3d
000000e0: 89dc ba3d 6bd6 583d 989e af3d 9a32 bd3d
000000f0: feb6 8cbb ce82 25bd e80b f83a 5cf6 3d3d
00000100: 8d6f babc d6cf 24bd ce1d 53bd b902 96ba
00000110: a688 ab3d c00e 3a3d 0524 47bc 033b 753d
00000120: 4ea1 8b3d 86de aa3d 669f f63c 5aab 1dbd
00000130: 36b3 c7bc ae43 613c e6eb a23b 43c9 8b3a
00000140: c226 d53c a769 3b3d 0fa4 1d3d 1c56 c33b
00000150: 64fb 97bc 00b4 d73c 3869 2bbd 23b2 0cbd
00000160: b036 023d 549c d43c dfcb e6bc 7644 bd3c
00000170: 2fe9 41bd 2b02 a53d 37f3 6e3d 2d8a 803d
00000180: a48c 9a3c ce5e 0a3c a18d 533b 55ae 8f3d
00000190: 1623 0dbd d2bf 44bd c910 6ebd ed97 9f3d
000001a0: 5177 c53a e30c f9bb e930 62bc da31 98bc
000001b0: d04b 493d c9c2 703d c4f2 28bc 7132 853c
000001c0: ca96 a03d aa7e 933b dca9 88bd b2f3 bbbc
000001d0: 63eb 163a d28e 0ebd d45b 1b3d 3e6e 6e3c
000001e0: 47a7 9d3c f944 9abc ffe3 7a3d 7aba ad3a
000001f0: bdc7 5c3d 7fba f9bc 6d52 a33d 8516 e83c
00000200: b3be 083c 4889 9c3d a8f9 23bd bfc3 573c
00000210: 3e1e 21bd ecb9 6fbc ddb0 583d ddd5 093d
00000220: 67e5 213b 3841 6d3b a897 983d 2f29 1bbd
00000230: 0cb5 ad3d 8717 083d 08b5 e6bc 4f87 863d
00000240: 15c5 24bd 9744 8a3d fe23 5ebd 4476 dd3c
00000250: 7c0e 833d 4dff 1c3d d77a 10bd ba7f ac3d
00000260: eecb d23c 5ef4 8c3d d25b 603d c626 19bc
00000270: c182 a43d 6b6f 1f3d 2082 88ba 1d46 493d
00000280: 71b9 4d3c 358f b33d 139d 51bb 5e0b 75ba
00000290: 2ad0 3fbd 874f b33d ff97 f53c dd8c e2bb
000002a0: 5ed8 ac3d 70a7 743d dd93 c2bc 6af9 27bc
000002b0: 53b9 713a c0c4 1cbc 51b3 3d3c 7d8b 5d3d
000002c0: 534f 3dbc 9dc1 8e3d 1545 663d e2d9 723d
000002d0: 5175 adbc f070 883c d4ae 933d a4c4 113d
000002e0: 4bc6 7e3c b10b 30bc 677d 053b 7d2f 4cbd
000002f0: 71c9 ea39 e71d 843d 818a a53d 6afd 533d
00000300: a023 e83b 8f67 4cbd 90e5 a33d d4b4 2cbd
00000310: 76a1 493d 0ac5 38bd 0794 fa3c 8801 723d
00000320: ce5f d43c 4dfe f6ba 4f9b 913d 31e4 3e3b
00000330: 1d40 3e3d dccd 653d fdc3 343d 6879 8d3d
00000340: 6734 8b3d 04ef 1ebd 7051 9c3d de1a 823d
00000350: 4893 1cbd 5cc2 3cbd ac8f 5a3d 71a1 26bd
00000360: 360a 1ebd f31e 8f3d 838e 0ebb 5a3d 98bc
00000370: 68b6 7c3c 3604 363d edc8 073b 8a08 0cbc
00000380: 926f 45bd bbb1 38bd 5a0a afbc 6ce4 3b3d
00000390: f622 5ebd c98a 02bd 000c 893c 271e a9bc
000003a0: 5b53 00bd 087b b5bc 09e2 07bd be45 6f3d
000003b0: 1021 2f3d fa60 5d3d b05f 5a3d b7a8 6a3d
000003c0: 3797 11bc e7da 123d 8d9d b13d 2c11 3f3c
000003d0: 4711 113d 07dc f73c 1c04 babc 92a3 ffbc
000003e0: a9c4 843d 8f4f 943c 2eb9 46bd 4ff6 a13d
000003f0: 0505 c53c c1b8 773d 355d 8fbd 2bc2 93bc

layer2.weight f4 [60, 256]
-0.02463586 0.008255646 0.013480548 0.05704997 -0.03510942 0.043405224 0.036134858 -0.010668409
0.041516572 0.02281151 -0.023629004 -0.0019687219 0.0034679621 -0.0263987 0.025877593 0.014701945
0.057360858 -0.038159706 -0.029172448 0.025883896 -0.020934347 -0.059265453 0.014185672 0.025371403
-0.034286145 -0.024469221 -0.054193057 -0.004510679 0.043995317 -0.013591409 0.0101644285 -0.02505486
0.031802982 0.06759987 -0.04329345 0.05263719 0.017738067 0.013811194 0.07145216 0.047280375
0.040263418 0.042961188 0.02940616 0.053316727 0.011438249 -0.03409685 -0.013612716 0.060379084
0.040647846 -0.04138992 -0.064766504 -0.07496947 0.067961924 -0.07227303 -0.05495165 -0.06435199
0.050282627 -0.024872078 0.052185297 -0.051924594 0.03984117 0.060880844 -0.048470292 0.036011577
-0.046738412 -0.03956062 -0.033764463 -0.055105064 0.023830164 -0.016260587 -0.024798261 -0.035397124
-0.02944785 0.023770537 -0.064119175 -0.00764741 0.014042312 0.017918427 -0.047034986 -0.022065116
-0.05401617 0.009443176 0.00592401 0.04000355 0.02954448 -0.049795583 0.025041047 -0.066741794
-0.045380726 0.06851836 -0.050521635 -0.045836326 -0.0143720405 -0.007254534 0.04951048 -0.041964453
-0.06404115 0.013642612 -0.033548977 0.0113968905 -0.009337059 -0.019421605 0.039044235 0.009215747
0.024665061 -0.05868351 0.025477903 -0.025063915 -0.00082332036 -0.021996038 0.06267388 0.050188325
-0.046800844 -0.012627761 -0.037126623 0.031464495 -0.035873428 0.00706194 -0.019279527 -1.8150804e-05
0.027374065 0.007783879 -0.00630717 -0.040633686 0.049029473 0.024115706 -0.05223376 -0.07203465
0.0650263 -0.041984852 -0.07678062 -0.06413889 -0.04832652 -0.023854932 -0.056359015 0.06449783
-0.04540941 -0.058083404 -0.059653778 -0.025360228 0.032548726 0.059099767 0.037645243 -0.017070655
0.007195519 -0.036007576 0.00057627785 0.014018061 0.037784044 -0.031148737 -0.035338707 -0.020000217
-0.04774378 0.020441495 0.017478544 -0.033595227 0.026783893 -0.022095347 0.05785676 -0.035144825
-0.04084751 0.055307653 -0.061425902 0.00015006601 0.067353904 -0.032935023 0.006532654 0.04024073
0.069393076 -0.039413936 0.052846424 -0.022119597 0.027757583 -0.024529597 -0.0068259593 0.015020924
-0.042250324 0.0010420389 0.016568987 0.036149 -0.057394758 -0.0020580953 -0.050780457 0.04568297
0.055371225 0.07253431 -0.04323924 0.01042375 0.00018909854 -0.013684109 -0.055682465 0.0031319673
0.018156234 -0.038632 -0.016829876 0.019715931 -0.026609002 0.05824963 0.03964121 0.070992626
0.0374311 -0.0189833 -0.03178581 -0.017132146 0.005934004 0.043739263 -0.04608207 0.02878626
-0.040501162 0.044944882 0.046983615 -0.012023737 0.060849257 -0.039186988 0.02374395 -0.0070703304
-0.059647225 -0.0185805 -0.07015895 0.012042567 -0.0205458 0.024350338 -0.07145447 -0.024173561
-3.167579e-05 0.0057586916 -0.033638448 0.030683586 -0.04169933 -0.007317417 0.063679084 0.0629757
0.06810149 0.020435873 0.06576596 0.025501423 -0.03889735 0.011031072 0.03579038 -0.00050707045
-0.04469739 -0.069847085 -0.00024951503 -0.031074762 0.004865464 -0.03768212 -0.004653718 -0.01700941
0.05543743 -0.037071493 -0.037041668 -0.02175145 0.03702944 0.04444392 0.014539333 0.041480873
00000000: 25d1 c9bc b042 073c 84dd 5c3c 3bad 693d
00000010: e5ce 0fbd adc9 313d 2502 143d 8dca 2ebc
00000020: 480d 2a3d 34df ba3c 9d91 c1bc ac05 01bb
00000030: c046 633b 1642 d8bc 3ffd d33c 6de0 703c
00000040: 38f3 6a3d 5a4d 1cbd 0ffb eebc 770a d43c
00000050: 827e abbc 55c0 72bd 056b 683c b0d7 cf3c
00000060: a16f 0cbd ad73 c8bc 8af9 5dbd 51ce 93bb
00000070: 6f34 343d 80ae 5ebc b488 263c da3f cdbc
00000080: d843 023d cd71 8a3d 7954 31bd 189a 573d
00000090: 6c4f 913c 5948 623c 8355 923d 11a9 413d
000000a0: 41eb 243d 12f8 2f3d 30e5 f03c a462 5a3d
000000b0: 7e67 3b3c 23a9 0bbd df07 5fbc 0f50 773d
000000c0: 5b7e 263d 7a88 29bd 4da4 84bd 9889 99bd
000000d0: 9f2f 8b3d e203 94bd fb14 61bd faca 83bd
000000e0: 28f5 4d3d 87c0 cbbc 40c0 553d e2ae 54bd
000000f0: 7f30 233d 315e 793d c988 46bd e080 133d
00000100: c770 3fbd 510a 22bd 9b4c 0abd d9b5 61bd
00000110: 7a37 c33c ec34 85bc b925 cbbc 93fc 10bd
00000120: 9e3c f1bc 6eba c23c ea50 83bd 2097 fabb
00000130: ba11 663c aac9 923c c2a7 40bd e7c1 b4bc
00000140: 0f40 5dbd 8db7 1a3c 331e c23b c3da 233d
00000150: 4407 f23c 74f6 4bbd e222 cd3c ecaf 88bd
00000160: 24e1 39bd 5b53 8c3d c6ef 4ebd dfbe 3bbd
00000170: b578 6bbc 71b7 edbb 80cb 4a3d ebe2 2bbd
00000180: 0228 83bd 4385 5f3c a76a 09bd 06ba 3a3c
00000190: 77fa 18bc 0f1a 9fbc d9ec 1f3d a5fd 163c
000001a0: 620e ca3c 1f5e 70bd 09b7 d03c d752 cdbc
000001b0: 18d4 57ba 0931 b4bc 2a5b 803d 4692 4d3d
000001c0: 3eb2 3fbd abe4 4ebc 1612 18bd eae0 003d
000001d0: 04f0 12bd d967 e73b 19f0 9dbc 8e42 98b7
000001e0: 933f e03c e90f ff3b 60ac cebb 826f 26bd
000001f0: 21d3 483d 4d8e c53c 11f3 55bd e786 93bd
00000200: 822c 853d 4ff8 2bbd 283f 9dbd 405b 83bd
00000210: 07f2 45bd 6b6b c3bc b6d8 66bd 7017 843d
00000220: 38ff 39bd dde8 6dbd 8557 74bd 41c0 cfbc
00000230: d051 053d 9912 723d e631 1a3d c2d7 8bbc
00000240: 63c8 eb3b ae7c 13bd 5a11 173a 02ac 653c
00000250: 71c3 1a3d a32b ffbc 52bf 10bd 7fd7 a3bc
00000260: fb8e 43bd ec74 a73c 2a2f 8f3c 269b 09bd
00000270: e569 db3c 4d01 b5bc 36fb 6c3d 05f4 0fbd
00000280: b84f 27bd 478a 623d ba99 7bbd 0a5b 1d39
00000290: d8f0 893d e0e6 06bd e00f d63b 77d3 243d
000002a0: f51d 8e3d 8270 21bd 7e75 583d 2834 b5bc
000002b0: df63 e33c 4bf2 c8bc 4cac dfbb 521a 763c
000002c0: ad0e 2dbd 0695 883a afbb 873c f910 143d
000002d0: c416 6bbd 1ce1 06bb 2bff 4fbd 111e 3b3d
000002e0: f0cc 623d de8c 943d a11b 31bd 60c8 2a3c
000002f0: c148 4639 5033 60bc 4c13 64bd b141 4d3b
00000300: 62bc 943c 973c 1ebd cfde 89bc 4e83 a13c
00000310: 1ffb d9bc 2a97 6e3d d25e 223d 9564 913d
00000320: 5a51 193d de82 9bbc d631 02bd b758 8cbc
00000330: 0972 c23b f127 333d 8dc0 3cbd 2ad1 eb3c
00000340: 8ce4 25bd 2018 383d e471 403d 35ff 44bc
00000350: 123d 793d 8982 20bd ac82 c23c 3bae e7bb
00000360: a650 74bd 2236 98bc 7faf 8fbd 304e 453c
00000370: aa4f a8bc 5c7a c73c b956 92bd a207 c6bc
00000380: 9fdb 04b8 68b3 bc3b 78c8 09bd 255c fb3c
00000390: ebcc 2abd f1c6 efbb 2e6a 823d 67f9 803d
000003a0: cb78 8b3d 2269 a73c 4eb0 863d 5ce8 d03c
000003b0: d452 1fbd abbb 343c ef98 123d ecec 04ba
000003c0: 9c14 37bd fd0b 8fbd 57d1 82b9 8090 febc
000003d0: 786e 9f3b 9158 1abd 377e 98bb 5157 8bbc
000003e0: 5c12 633d 47d8 17bd 01b9 17bd 1930 b2bc
000003f0: 2fac 173d d40a 363d 6236 6e3c d9e7 293d

layer2.bias f4 [60]
-0.009146651 -0.044337533 -0.036576975 0.03476784 -0.056751955 0.011362145 -0.04424891 0.024213355
-0.057478264 0.016922293 0.0068253265 -0.026971526 -0.016809719 0.0543526 -0.04130485 0.041024525
-0.002780587 -0.04870134 0.0017157089 -0.033862367 0.040149122 0.026239218 0.036188353 -0.05181313
-0.062837586 -0.05566606 0.025382288 0.037077963 -0.024195768 -0.04139906 0.03806404 0.030458888
-0.03443973 0.015039962 0.032191336 0.010194853 -0.0026035118 0.056744948 -0.008003209 -0.009752237
0.026148923 -0.027158791 0.054799493 -0.049708363 -0.032476217 0.04343102 -0.040471904 0.044893056
-0.0022241627 0.05291945 -0.031523325 -0.035394397 -0.03268578 -0.03437626 0.06482848 0.016526101
-0.030401314 0.055056434 0.038350444 -0.020585459
00000000: d6db 15bc 469b 35bd bdd1 15bd b968 0e3d
00000010: bd74 68bd 4a28 3a3c 583e 35bd 165b c63c
00000020: 546e 6bbd 9fa0 8a3c fda6 df3b 64f3 dcbc
00000030: 89b4 89bc d5a0 5e3d 462f 29bd 5509 283d
00000040: 823a 36bb 0e7b 47bd a3e1 e03a 44b3 0abd
00000050: 6873 243d a1f3 d63c 3d3a 143d 013a 54bd
00000060: feb0 80bd 1802 64bd 84ee cf3c 10df 173d
00000070: 3436 c6bc 1092 29bd 0ae9 1b3d eb84 f93c
00000080: ad10 0dbd 2c6a 763c 10db 033d 5008 273c
00000090: ae9f 2abb 646d 683d e41f 03bc d9c7 1fbc
000000a0: 4436 d63c 1d7c debc 6f75 603d ff9a 4bbd
000000b0: c805 05bd bae4 313d dec5 25bd c8e1 373d
000000c0: 42c3 11bb 11c2 583d 9a1e 01bd b7f9 10bd
000000d0: 86e1 05bd 1fce 0cbd cbc4 843d bf61 873c
000000e0: 2d0c f9bc db82 613d 5b15 1d3d d6a2 a8bc

exp_avg f4 [256, 210]
1.175486e-05 0.00071553903 0.00035798375 -0.00028036043 0.00022306194 -0.00030125675 0.00024122967 -0.0019945642
-0.0008101325 -0.0013820647 -0.0017027768 -0.0017435262 -0.0012343517 -0.00011354296 -0.00021482128 -0.00018966205
-0.0003548386 -8.164794e-05 -0.0017632028 -3.8408605e-05 -4.841579e-05 0.0001759811 -0.0009280993 0.000881804
-0.000277816 0.00025898355 -0.00031357314 0.0005580138 -0.00035570146 0.0006037531 -0.00010425056 -0.00026234353
0.00081225345 0.00039887606 0.00017569553 -0.00073682796 -0.0008116804 0.0012014695 -0.0012715538 0.00015237024
0.0001724064 -0.00057024125 3.3153323e-05 -0.00089564704 0.0007535023 2.6735048e-05 0.00070342736 0.00029535397
0.0001770468 -0.0007337024 -0.0011836635 -0.00072349847 0.0006097663 -0.0006944276 -7.048804e-05 -0.00067196134
-0.0009737921 -0.00041227895 0.0007677144 0.0003520895 -0.00025135 -0.00081098813 0.00020347518 0.00084375497
0.000108795306 0.0011172886 0.0011730376 0.0014027302 4.7427668e-05 -1.5950807e-06 -0.0007152616 -0.0005636895
-0.0002902786 -0.00048274128 4.558462e-07 6.889848e-05 -0.0005105209 0.00015060707 0.000116174415 -0.00039815158
-0.00010423568 -4.547798e-05 -0.00010300777 0.0003216106 -0.0009220647 -0.0012156152 -0.0009662374 -0.00023251437
-0.00013285545 -0.00096971955 -0.0006066684 2.4578798e-05 3.3393019e-06 -0.0007804349 -0.0008419749 -0.00065231853
-0.00037893408 -0.00034569364 -0.0003091387 -0.00034690037 0.00061653694 0.00058015925 -0.000102788734 0.00034587024
-0.00020613126 0.00012988473 0.00017963037 0.00033240588 0.000334439 0.0001848046 0.00012110485 0.00017571331
-0.00033047632 -0.00020024645 -0.00029990668 -0.0004437228 -0.0006175616 -0.0005991922 -0.0003548475 -9.727431e-05
-3.7598118e-05 9.536222e-05 0.00026692564 0.00021216471 -1.4539802e-05 6.590552e-05 -0.00035978266 -0.0004578788
-0.0005687858 -0.0005242803 -0.0003167675 -0.0002627646 -0.00041540174 0.00036513014 0.00037024275 0.0002805967
0.00018371118 0.00017878179 0.0002626809 0.00027612087 -0.00018315674 -0.00034950383 -0.0004420202 -0.00036663338
-0.00019767883 -0.00010615619 -0.00027456804 8.549343e-05 5.4868255e-05 4.1182728e-05 7.129712e-05 9.618133e-05
0.0001117146 7.230458e-05 7.60613e-05 9.3530114e-05 0.00011884513 0.00012139434 9.5470066e-05 8.0594815e-05
9.5775395e-05 -0.00028079608 -0.00026577458 -0.0002844827 -0.0002904165 -0.00031760876 -0.00031133226 -0.00029288742
-0.00032938496 -0.00032996357 -0.00033080293 -0.0003303004 -0.0003240551 -0.0003298651 -0.00033059678 3.7882215e-05
4.1301144e-05 4.1540938e-05 5.093485e-05 4.598635e-05 4.253679e-05 3.8060323e-05 -4.0006067e-05 -3.8544047e-05
-4.09877e-05 -4.0979874e-05 -3.6264893e-05 -4.0047613e-05 -3.930127e-05 -0.00015935583 -0.00015965772 -0.0001758551
-0.00015527455 -0.00017566413 -0.0001649977 -0.00016344961 -0.00027565742 -0.00026644394 -0.00027246343 -0.00026975584
-0.00025882677 -0.00027480762 -0.00027132305 -0.00021615991 -0.00021355493 -0.00022145176 -0.00022633946 -0.00021519826
-0.00021843615 -0.00022089366 0.0008824267 0.0014898152 -1.6228634e-05 0.00032411108 0.0016524437 0.0020941626
0.0004132104 6.498199e-06 0.0016898477 0.0011576025 -0.0005582519 -2.1296853e-05 0.0009857911 0.0010631775
-0.0004955245 0.0011985372 -0.0003162965 -0.0010498627 -0.0025910165 -0.0019970222 -0.0009595895 -0.0016010697
-7.625812e-05 0.00033843768 -0.0001595183 0.001111548 0.00078256655 0.0011822454 0.0007940109 -0.00035496705
0.0033085025 0.0012024131 0.00023801647 0.0013855788 0.0003795054 -0.0028516757 -0.0017778534 -0.0006035425
-7.035786e-05 -0.0010040886 -0.0017810162 0.00048460168 0.00012929106 -0.0014221817 9.2969385e-05 -0.0006245332
00000000: bd36 4537 0393 3b3a c4af bb39 57fd 92b9
00000010: bce5 6939 fff1 9db9 99f2 7c39 3cb7 02bb
00000020: 125f 54ba 6526 b5ba b52f dfba 0887 e4ba
00000030: f8c9 a1ba ea1d eeb8 a641 61b9 05e0 46b9
00000040: a109 bab9 673a abb8 451b e7ba ed18 21b8
00000050: 0f12 4bb8 9187 3839 b14b 73ba dd28 673a
00000060: d5a7 91b9 2fc8 8739 1367 a4b9 ac47 123a
00000070: 717d bab9 2f45 1e3a 18a1 dab8 278b 89b9
00000080: 68ed 543a 3d20 d139 e93a 3839 b027 41ba
00000090: f3c6 54ba a07a 9d3a 44aa a6ba 93c5 1f39
000000a0: fec7 3439 3e7c 15ba 1c0e 0b38 dbc9 6aba
000000b0: af86 453a 1445 e037 3666 383a bdd9 9a39
000000c0: a3a5 3939 ef55 40ba 2825 9bba 29a9 3dba
000000d0: b9d8 1f3a 3f0a 36ba fad2 93b8 9026 30ba
000000e0: 1546 7fba 2527 d8b9 7140 493a a798 b839
000000f0: a0c7 83b9 7e98 54ba f45b 5539 702f 5d3a
00000100: 0929 e438 fc71 923a 9cc0 993a d1db b73a
00000110: 12ed 4638 8e16 d6b5 6580 3bba 90c4 13ba
00000120: 8930 98b9 7018 fdb9 06bb f434 977d 9038
00000130: 7ad4 05ba 47ec 1d39 aaa2 f338 00bf d0b9
00000140: 1b99 dab8 9cbf 3eb8 e005 d8b8 d89d a839
00000150: b7b6 71ba 4755 9fba 184b 7dba 1acf 73b9
00000160: 1d4f 0bb9 c734 7eba d408 1fba 912e ce37
00000170: c518 6036 1996 4cba fbb7 5cba 5b00 2bba
00000180: acab c6b9 373e b5b9 e513 a2b9 2ee0 b5b9
00000190: 189f 213a d415 183a 4890 d7b8 eb55 b539
000001a0: f024 58b9 ab31 0839 295b 3c39 c346 ae39
000001b0: a557 af39 1bc8 4139 acf9 fd38 af3f 3839
000001c0: c843 adb9 3ff9 51b9 cb3c 9db9 77a3 e8b9
000001d0: dce3 21ba 1c13 1dba d30a bab9 bfff cbb8
000001e0: acb2 1db8 34fd c738 27f2 8b39 8878 5e39
000001f0: f9ef 73b7 c236 8a38 36a1 bcb9 740f f0b9
00000200: 921a 15ba db6f 09ba d013 a6b9 abc3 89b9
00000210: 47ca d9b9 f06e bf39 241d c239 0d1d 9339
00000220: 98a2 4039 5f77 3b39 6fb8 8939 51c4 9039
00000230: c30d 40b9 9c3d b7b9 f2be e7b9 b338 c0b9
00000240: 0248 4fb9 2ca0 deb8 e6f3 8fb9 f04a b338
00000250: 5722 6638 9ebb 2c38 5a85 9538 f5b4 c938
00000260: 5248 ea38 3aa2 9738 1983 9f38 9925 c438
00000270: 7e3c f938 1795 fe38 1a37 c838 0305 a938
00000280: 06db c838 d037 93b9 a957 8bb9 9f26 95b9
00000290: 0b43 98b9 ba84 a6b9 4f3a a3b9 af8e 99b9
000002a0: 4db1 acb9 f6fe acb9 9e6f adb9 2b2c adb9
000002b0: f0e5 a9b9 bff1 acb9 f353 adb9 b8e3 1e38
000002c0: c43a 2d38 3e3c 2e38 e1a2 5538 78e1 4038
000002d0: 8869 3238 f6a2 1f38 30cc 27b8 5baa 21b8
000002e0: 35ea 2bb8 cee1 2bb8 221b 18b8 ccf8 27b8
000002f0: 6bd7 24b8 c118 27b9 cb69 27b9 be65 38b9
00000300: 32d1 22b9 7b32 38b9 3c03 2db9 ac63 2bb9
00000310: 1d86 90b9 80b1 8bb9 6cd9 8eb9 046e 8db9
00000320: 24b3 87b9 0e14 90b9 5d40 8eb9 fca8 62b9
00000330: b7ed 5fb9 8135 68b9 8955 6db9 d8a6 61b9
00000340: 020c 65b9 b19f 67b9 a752 673a e745 c33a
00000350: ba22 88b7 74ed a939 cf96 d83a 383e 093b
00000360: 29a4 d839 1b0b da36 e17d dd3a b2ba 973a
00000370: a757 12ba a5a6 b2b7 a935 813a 515a 8b3a
00000380: 16e6 01ba 3c18 9d3a 99d4 a5b9 8c9b 89ba
00000390: 0bce 29bb 79e0 02bb f68c 7bba fcda d1ba
000003a0: c4ec 9fb8 5670 b139 5e44 27b9 5db1 913a
000003b0: 2725 4d3a 93f5 9a3a 2b25 503a df1a bab9
000003c0: 76d3 583b 4a9a 9d3a 0f94 7939 4f9c b53a
000003d0: 5af8 c639 2ee3 3abb dc06 e9ba 0d37 1eba
000003e0: 178d 93b8 9f9b 83ba fd70 e9ba 2312 fe39
000003f0: 4e92 0739 8068 baba 8ff8 c238 b7b7 23ba

exp_avg_sq f4 [256, 210]
2.6067446e-06 3.07602e-06 3.1629904e-06 2.7106753e-06 2.884212e-06 2.2402326e-06 4.219252e-06 2.126465e-06
6.836793e-07 4.5526122e-07 6.288436e-07 6.7347474e-07 9.505618e-07 3.519276e-07 3.4349307e-07 9.330625e-07
4.895842e-07 3.7447484e-07 4.7107943e-07 7.8444185e-07 3.0197882e-07 5.0471687e-07 6.9247824e-07 4.4636602e-07
3.5783177e-07 2.9226683e-07 3.5014648e-07 6.154634e-07 3.1758069e-07 3.648685e-07 5.6131046e-07 2.4109525e-07
8.0899304e-07 3.2534012e-07 3.7319182e-07 3.290756e-07 4.4361852e-07 5.3852716e-07 3.063362e-07 2.3201791e-07
4.360937e-07 3.6413226e-07 2.2756089e-07 3.2500694e-07 2.5459508e-07 1.9186326e-07 5.3091253e-07 3.2016996e-07
2.5687228e-07 2.804609e-07 3.286016e-07 3.4726034e-07 5.392345e-07 2.2899447e-07 2.4446518e-07 8.556749e-07
1.8540669e-07 2.364613e-07 2.7753066e-07 1.7745204e-07 2.2818821e-07 7.8016245e-07 1.1498411e-07 2.9710716e-07
1.46673e-07 2.9639983e-07 3.978705e-07 2.7062237e-07 2.129055e-07 1.2172312e-07 1.4007934e-07 1.1505871e-07
1.6825533e-07 4.7899437e-07 1.9134708e-07 1.3028881e-07 1.1229841e-07 1.7003136e-07 1.7236465e-07 2.375066e-07
1.6320361e-07 1.53216e-07 1.8958848e-07 1.3219737e-07 1.8218677e-07 2.1713787e-07 1.4825717e-07 1.17430886e-07
2.0143322e-07 3.8102323e-07 1.3147559e-07 1.9634659e-07 1.4322231e-07 1.9724322e-07 1.4313291e-07 2.1850283e-07
1.2558723e-07 8.2341806e-08 9.969278e-08 1.17156915e-07 1.3796901e-07 2.2637285e-07 1.3986661e-07 1.6033616e-07
1.090102e-07 1.543235e-07 8.40584e-08 1.3613622e-07 1.1395895e-07 8.497518e-08 8.9056755e-08 1.9055769e-07
5.7237937e-08 1.2335246e-07 8.031994e-08 6.05427e-08 2.408183e-07 1.1925643e-07 6.1185865e-08 9.250444e-08
7.8012214e-08 1.0047782e-07 7.447606e-08 1.429365e-07 5.7408656e-08 3.349743e-08 9.417578e-08 1.17920386e-07
7.420491e-08 9.6669865e-08 9.527315e-08 8.88881e-08 4.563431e-08 4.0526047e-08 4.300551e-08 5.496688e-08
4.3101398e-08 4.1555463e-08 5.048214e-08 2.1994843e-08 4.992509e-08 5.559548e-08 7.888232e-08 6.8153156e-08
4.813127e-08 5.3364023e-08 3.061338e-08 6.019646e-08 4.499311e-08 3.5806117e-08 6.232811e-08 6.3877856e-08
5.452497e-08 2.4467942e-08 4.199669e-08 4.809637e-08 3.8231974e-08 3.211927e-08 4.270013e-08 4.3654904e-08
2.684181e-08 7.9683716e-08 6.575474e-08 5.097949e-08 4.0244867e-08 3.7474305e-08 6.202147e-08 4.1987384e-08
2.2702928e-08 2.2734842e-08 2.2782336e-08 2.2800187e-08 2.2397398e-08 2.2840423e-08 2.2804148e-08 2.2483038e-08
2.3262212e-08 2.2704068e-08 2.2919425e-08 2.2776831e-08 2.2999503e-08 2.3245459e-08 2.6642594e-08 2.6636222e-08
2.6774801e-08 2.6673938e-08 2.6432874e-08 2.6782272e-08 2.6626564e-08 3.3054064e-08 3.2958667e-08 3.360112e-08
3.2579504e-08 3.346822e-08 3.283722e-08 3.314941e-08 2.979727e-08 2.9416691e-08 2.9524468e-08 2.935668e-08
2.922581e-08 2.9840848e-08 2.9550305e-08 3.429408e-08 3.5290174e-08 3.557761e-08 3.681396e-08 3.5290856e-08
3.5540342e-08 3.5456893e-08 1.1936172e-06 1.1186132e-06 1.2284734e-06 1.213639e-06 1.0007013e-06 1.9260003e-06
6.987269e-07 1.5056446e-06 4.088036e-06 1.7932639e-06 7.0140754e-07 9.727336e-07 1.5806061e-06 2.9286898e-06
5.69663e-07 7.3258474e-07 6.9190475e-07 1.7339859e-06 4.738778e-06 2.744158e-06 1.0220369e-06 9.651835e-07
5.420299e-07 1.3595921e-06 8.2105527e-07 7.37522e-07 4.2021577e-07 3.0054969e-06 9.659801e-07 9.446149e-07
2.5197016e-06 7.0249337e-07 5.26202e-07 2.724163e-06 9.646534e-07 4.6577165e-06 6.986066e-07 6.5919835e-07
5.481909e-07 5.258274e-07 9.0815854e-07 6.1884197e-07 3.1248382e-07 1.3199505e-06 4.3470425e-07 3.9940034e-07
00000000: 88ef 2e36 9f6d 4e36 c343 5436 0ce9 3536
00000010: 638e 4136 e756 1636 1993 8d36 64b4 0e36
00000020: 1586 3735 a06a f434 cecd 2835 d5c8 3435
00000030: 1c2a 7f35 90f0 bc34 5469 b834 9177 7a35
00000040: f86b 0335 6e0b c934 aae8 fc34 6f92 5235
00000050: a71f a234 e17b 0735 bee2 3935 14a4 ef34
00000060: 061c c034 d9e8 9c34 c4fb bb34 5336 2535
00000070: f57f aa34 25e3 c334 f6ac 1635 e16f 8134
00000080: 9429 5935 68aa ae34 185b c834 ceab b034
00000090: 772a ee34 4e8f 1035 8776 a434 9920 7934
000000a0: 4320 ea34 f57d c334 7657 7434 9d7c ae34
000000b0: 48af 8834 f902 4e34 0884 0e35 d3e3 ab34
000000c0: 42e8 8934 4192 9634 a96a b034 196f ba34
000000d0: eabf 1035 85e1 7534 0a3f 8334 88b1 6535
000000e0: 3414 4734 fde5 7d34 86ff 9434 a589 3e34
000000f0: e603 7534 5b6c 5135 2fed f633 1982 9f34
00000100: 2b7d 1d34 e220 9f34 e89a d534 0e4a 9134
00000110: 059b 6434 ffb2 0234 b768 1634 3216 f733
00000120: aca9 3434 3e94 0035 1675 4d34 84e5 0b34
00000130: b428 f133 dd91 3634 3c13 3934 5105 7f34
00000140: 113d 2f34 b283 2434 af91 4b34 23f2 0d34
00000150: 1e9f 4334 6726 6934 9f30 1f34 502e fc33
00000160: 8b49 5834 6f8f cc34 bc2b 0d34 57d3 5234
00000170: a6c8 1934 cec9 5334 13b0 1934 9a9d 6a34
00000180: 28d9 0634 e3d3 b033 af16 d633 b297 fb33
00000190: a224 1434 e510 7334 3e2e 1634 de28 2c34
000001a0: fe18 ea33 1fb4 2534 9883 b433 d72c 1234
000001b0: 98b9 f433 997b b633 783f bf33 199c 4c34
000001c0: c7d5 7533 de72 0434 5b7c ac33 b403 8233
000001d0: d149 8134 f50c 0034 4965 8333 dba6 c633
000001e0: ab87 a733 44c6 d733 a6ef 9f33 167a 1934
000001f0: 7c91 7633 d0de 0f33 af3d ca33 6b3b fd33
00000200: 955a 9f33 d298 cf33 f898 cc33 c0e2 be33
00000210: 74ff 4333 dc0e 2e33 0fb5 3833 b914 6c33
00000220: 7d1e 3933 b77a 3233 b3d1 5833 2cef bc32
00000230: 386d 5633 e0c7 6e33 0466 a933 985b 9233
00000240: e4b8 4e33 5d32 6533 c47b 0333 5b45 8133
00000250: 733e 4133 3ec9 1933 3ed9 8533 392d 8933
00000260: d72e 6a33 932d d232 d95f 3433 8592 4e33
00000270: 8034 2433 83f3 0933 4a65 3733 137f 3b33
00000280: c491 e632 961e ab33 0d35 8d33 8bf4 5a33
00000290: b3d9 2c33 6ff3 2033 aa30 8533 9e55 3433
000002a0: 4404 c332 724a c332 e3b2 c332 24da c332
000002b0: 6664 c032 9f32 c432 dae2 c332 b920 c132
000002c0: 25d2 c732 c606 c332 59e0 c432 c8a6 c332
000002d0: 7190 c532 4ead c732 afdb e432 accd e432
000002e0: 69fe e532 9c20 e532 810e e332 d70e e632
000002f0: 6fb8 e432 54f7 0d33 708e 0d33 d250 1033
00000300: 8bed 0b33 b2be 0f33 e808 0d33 2960 0e33
00000310: e4f4 ff32 fdaf fc32 fe9c fd32 062c fc32
00000320: 3c0c fb32 5c2a 0033 cfd5 fd32 bd4a 1333
00000330: f591 1733 ffcd 1833 611d 1e33 b592 1733
00000340: 05a5 1833 4449 1833 6034 a035 4223 9635
00000350: 06e2 a435 52e4 a235 d64f 8635 6f40 0136
00000360: 2690 3b35 8e15 ca35 f62b 8936 14b0 f035
00000370: 5c48 3c35 df8e 8235 3625 d435 828a 4436
00000380: f1ea 1835 d7a6 4435 55bb 3935 4dbb e835
00000390: cb01 9f36 4728 3836 ec2c 8935 748b 8135
000003a0: 0380 1135 3b7b b635 7d66 5c35 20fa 4535
000003b0: 049a e134 0bb2 4936 d3a6 8135 7191 7d35
000003c0: 2518 2936 fa92 3c35 5340 0d35 c4d0 3636
000003d0: 3d79 8135 7b49 9c36 e187 3b35 c4f3 3035
000003e0: 6427 1335 9526 0d35 2ec8 7335 7f1e 2635
000003f0: 73c3 a734 2729 b135 4c61 e934 2a6d d634

exp_avg f4 [256]
-0.0011422753 -0.0011011692 -0.0015129205 -0.001557953 -0.0011998992 -0.0021009443 -0.001637202 -0.0007066618
-0.0017913874 -0.0016432109 -0.0013928327 -0.0010065382 -0.0013722237 -0.0014564284 -0.0012150925 -0.0017196556
-0.001989092 -0.00071633985 -0.0015087911 -0.0011859568 -0.0009189148 -0.0014836224 -0.0014377796 -0.0011135564
-0.00081505073 -0.0012729311 -0.0011189072 -0.001428674 -0.0017409098 -0.0011538918 -0.0011793877 -0.000847365
-0.001318366 -0.0017432962 -0.0012201854 -0.0012219286 -0.0007202879 -0.00070558937 -0.0015127831 -0.001779193
-0.0012346294 -0.0014169883 -0.0020027224 -0.001535695 -0.0012051504 -0.0012014546 -0.0014749016 -0.0012068953
-0.0010333186 -0.0011585647 -0.0013546085 -0.0009575192 -0.0014230529 -0.0013453636 -0.0020720295 -0.0009387943
-0.0014755697 -0.0009220888 -0.0016115102 -0.0019360848 -0.0014846757 -0.0011263114 -0.0015613372 -0.0010928801
-0.0011382686 -0.0018602784 -0.0016623868 -0.0015091504 -0.0016104121 -0.00085954997 -0.0015109126 -0.0009439947
-0.0013383189 -0.001484113 -0.0013455872 -0.0011714807 -0.001743577 -0.0006191574 -0.0014259197 -0.0010810347
-0.0009987698 -0.0016805483 -0.0010606165 -0.00088705536 -0.0011791827 -0.0008029802 -0.0013838228 -0.0014293737
-0.0011634291 -0.0016652511 -0.0017565377 -0.0016583764 -0.00088467845 -0.001666154 -0.0010031943 -0.0017075255
-0.0018430931 -0.0017729503 -0.0013863107 -0.00093490846 -0.0010536469 -0.0016733195 -0.00087031646 -0.0014118382
-0.001452582 -0.0014867195 -0.0014962044 -0.0009059042 -0.00089064735 -0.00071716506 -0.0012373297 -0.0010168157
-0.0014683566 -0.00093345146 -0.0011803323 -0.0015226001 -0.0012546934 -0.001306565 -0.0013308414 -0.0016890108
-0.0014793018 -0.0016359808 -0.0009324086 -0.0016888586 -0.0014298004 -0.0010891298 -0.0020148514 -0.0024066698
-0.00075407355 -0.0014772511 -0.0009947489 -0.001481194 -0.0010736838 -0.00090698496 -0.0012103289 -0.0006894944
-0.0015373523 -0.001213389 -0.0012625115 -0.0012431582 -0.0016555345 -0.0017828612 -0.0015225991 -0.001134279
-0.0009645418 -0.001248398 -0.0011778843 -0.001272421 -0.0015775261 -0.0005216685 -0.001383682 -0.0016814615
-0.0013040395 -0.0010914556 -0.0012649887 -0.0010314164 -0.0015588875 -0.0011130526 -0.001254571 -0.001049696
-0.0014936286 -0.0016683572 -0.0015915423 -0.0013160355 -0.0017416906 -0.0018036092 -0.0010663745 -0.0012019093
-0.0014216922 -0.0015573254 -0.0007245722 -0.0010655264 -0.0015029765 -0.0009051684 -0.001373018 -0.0015325709
-0.00093563594 -0.0016698634 -0.001298681 -0.0013884965 -0.0018147588 -0.00089011365 -0.0012056807 -0.0010407622
-0.0011112229 -0.0013133951 -0.001310696 -0.0007351679 -0.0013810085 -0.0010550932 -0.0013760141 -0.0015858611
-0.00048126234 -0.0009324901 -0.0017687676 -0.001714313 -0.0008950987 -0.0012050339 -0.0012064459 -0.0011351837
-0.0010381055 -0.0011007816 -0.0012298374 -0.0007781802 -0.0009828699 -0.0017185041 -0.00085539697 -0.0013201701
-0.0014257915 -0.0013440641 -0.0014386411 -0.0013263959 -0.0015230109 -0.0008186238 -0.0010566042 -0.00094373286
-0.0013110066 -0.0013608001 -0.0010550162 -0.00094141276 -0.0010751922 -0.0012347228 -0.00090977625 -0.0015929213
-0.0014023614 -0.0012862224 -0.0015836839 -0.0012700796 -0.0009988867 -0.0014660357 -0.0013677204 -0.001010417
-0.0020684276 -0.0013432717 -0.0013735858 -0.0017193367 -0.001349215 -0.00041934167 -0.0009641121 -0.0017149218
-0.0011592164 -0.0010645463 -0.0022429505 -0.0015979167 -0.0010093242 -0.0023940874 -0.0009833645 -0.0013527275
-0.0007422028 -0.0014226877 -0.00084808236 -0.0015785806 -0.0018250748 -0.0008071517 -0.0005874775 -0.0020975636
00000000: 66b8 95ba 1b55 90ba 304d c6ba 3a34 ccba
00000010: f045 9dba ffaf 09bb 6297 d6ba 453f 39ba
00000020: fdcc eaba 0261 d7ba b68f b6ba d1ed 83ba
00000030: 30dc b3ba a1e5 beba bd43 9fba 1166 e1ba
00000040: 6d5b 02bb c1c8 3bba a1c2 c5ba 1b72 9bba
00000050: 54e3 70ba 1b76 c2ba e173 bcba c1f4 91ba
00000060: 21a9 55ba 7bd8 a6ba 4ca8 92ba 5842 bbba
00000070: 3d2f e4ba 2f3e 97ba af95 9aba b421 5eba
00000080: 06cd acba 507f e4ba a1ee 9fba 1f29 a0ba
00000090: b4d1 3cba 4df7 38ba 9448 c6ba cf33 e9ba
000000a0: 4ad3 a1ba 3dba b9ba 1b40 03bb 6049 c9ba
000000b0: 23f6 9dba 207a 9dba 7c51 c1ba b030 9eba
000000c0: 6b70 87ba fbda 97ba 1e8d b1ba 0702 7bba
000000d0: bb85 baba e956 b0ba e3ca 07bb 6b19 76ba
000000e0: e767 c1ba 55b8 71ba 4f39 d3ba 3ac4 fdba
000000f0: 7399 c2ba bda0 93ba c8a5 ccba f93e 8fba
00000100: f531 95ba 96d4 f3ba 72e4 d9ba afce c5ba
00000110: 7714 d3ba 6c53 61ba d009 c6ba 6976 77ba
00000120: 886a afba 9286 c2ba 6a5e b0ba 5f8c 99ba
00000130: bc88 e4ba f34e 22ba ede5 baba 81b1 8dba
00000140: 27e9 82ba d845 dcba 6204 8bba 4789 68ba
00000150: ce8e 9aba 177f 52ba 6361 b5ba d359 bbba
00000160: 347e 98ba 8e44 daba a03b e6ba e15d d9ba
00000170: c4e9 67ba da62 daba 9d7d 83ba 0ccf dfba
00000180: f193 f1ba 5762 e8ba deb4 b5ba a514 75ba
00000190: 861a 8aba 4953 dbba f325 64ba 6e0d b9ba
000001a0: 9064 beba 07de c2ba 4a1c c4ba 347a 6dba
000001b0: 557a 69ba 2200 3cba e52d a2ba ac46 85ba
000001c0: df75 c0ba deb2 74ba 61b5 9aba fb91 c7ba
000001d0: 8674 a4ba 0c41 abba a16f aeba cc61 ddba
000001e0: 22e5 c1ba 686e d6ba e26c 74ba b15c ddba
000001f0: 2468 bbba 22c1 8eba 990b 04bb 38b9 1dbb
00000200: 05ad 45ba 52a0 c1ba 3c62 82ba a024 c2ba
00000210: daba 8cba bbc2 6dba e6a3 9eba 30bf 34ba
00000220: fc80 c9ba 940a 9fba db7a a5ba 78f1 a2ba
00000230: 85fe d8ba e5ae e9ba f391 c7ba 16ac 94ba
00000240: 4ed9 7cba 49a1 a3ba 3d63 9aba 5dc7 a6ba
00000250: fec4 ceba 95c0 08ba aa5c b5ba 7c64 dcba
00000260: 4eec aaba 2c0f 8fba facd a5ba 9730 87ba
00000270: 9653 ccba d9e3 91ba 6b70 a4ba f495 89ba
00000280: dcc5 c3ba c7ac daba 4c9b d0ba d37e acba
00000290: 7049 e4ba 1567 ecba 97c5 8bba 6289 9dba
000002a0: 1358 baba 2b1f ccba 38f1 3dba 22a9 8bba
000002b0: 86ff c4ba d348 6dba d7f6 b3ba 8ce0 c8ba
000002c0: 7745 75ba 51df daba 8138 aaba 36fe b5ba
000002d0: 33dd edba 8456 69ba ee07 9eba 2f6a 88ba
000002e0: 74a6 91ba 3a26 acba a9cb abba 48b8 40ba
000002f0: f502 b5ba 0e4b 8aba 5f5b b4ba abdc cfba
00000300: f051 fcb9 5a72 74ba fed5 e7ba cdb2 e0ba
00000310: 0fa5 6aba 3af2 9dba 9b21 9eba 72ca 94ba
00000320: 0a11 88ba 1a48 90ba 7f32 a1ba cafe 4bba
00000330: a4d3 80ba 6e3f e1ba b83c 60ba 8f09 adba
00000340: a0e1 baba 4f2b b0ba c990 bcba 76da adba
00000350: c49f c7ba ea98 56ba c17d 8aba d764 77ba
00000360: 15d6 abba e05c b2ba 7848 8aba 24c9 76ba
00000370: 77ed 8cba 6cd6 a1ba 0d7e 6eba 92c9 d0ba
00000380: 71cf b7ba 7696 a8ba 9d93 cfba cd78 a6ba
00000390: 13ed 82ba ff27 c0ba 1545 b3ba f86f 84ba
000003a0: 758e 07bb b810 b0ba e409 b4ba 5e5b e1ba
000003b0: 25d8 b0ba 16db dbb9 78bc 7cba 3ac7 e0ba
000003c0: d9f0 97ba 3f88 8bba 77fe 12bb 3071 d1ba
000003d0: 4d4b 84ba 1fe6 1cbb 3de4 80ba 014e b1ba
000003e0: 6390 42ba 7a79 baba d851 5eba 60e8 ceba
000003f0: 5937 efba 0997 53ba f300 1aba 4777 09bb

exp_avg_sq f4 [256]
2.4974042e-07 3.4342253e-07 2.8997292e-07 4.357692e-07 3.0500289e-07 3.8884423e-07 4.7562756e-07 2.1682156e-07
5.633507e-07 4.3345364e-07 2.4028708e-07 3.814341e-07 2.12436e-07 9.8257e-07 2.0710723e-07 3.088981e-07
3.1842706e-07 1.6669391e-07 2.1963962e-07 1.9013092e-07 2.1612361e-07 4.117176e-07 1.810847e-07 2.7254364e-07
3.2797985e-07 2.8567914e-07 3.746836e-07 2.4937623e-07 2.7079835e-07 3.021407e-07 3.71415e-07 3.1546796e-07
1.5933253e-07 3.5536752e-07 2.6555932e-07 1.9464514e-07 2.2706146e-07 1.2618419e-07 1.9590831e-07 2.842701e-07
3.027681e-07 2.922461e-07 4.65369e-07 2.3942388e-07 2.8778734e-07 2.1859415e-07 2.3024694e-07 2.1270216e-07
1.8640411e-07 2.005002e-07 2.9855164e-07 2.0246898e-07 2.2913082e-07 4.1496608e-07 3.6336738e-07 5.098744e-07
2.6044765e-07 1.7432406e-07 2.8639244e-07 4.6648893e-07 3.1392943e-07 3.4966013e-07 3.8274408e-07 2.1211108e-07
4.3103557e-07 5.669289e-07 4.059199e-07 2.3701128e-07 2.2240322e-07 2.8169e-07 2.2123871e-07 2.1117336e-07
4.1605523e-07 3.6902543e-07 3.375899e-07 3.973314e-07 4.5535697e-07 6.962194e-07 2.3573187e-07 2.8534922e-07
1.4025441e-07 5.4051225e-07 1.562272e-07 1.7431631e-07 3.7818535e-07 1.666458e-07 2.1106588e-07 3.683052e-07
2.4022088e-07 5.550792e-07 2.0504818e-07 2.83904e-07 1.2772065e-07 4.7316507e-07 1.6550726e-07 3.4634925e-07
4.0150374e-07 4.5698295e-07 3.715583e-07 2.1439877e-07 3.8360133e-07 1.9297883e-07 2.1950119e-07 2.7245446e-07
2.876587e-07 3.3115174e-07 3.9541032e-07 2.3128115e-07 2.0068613e-07 1.261581e-07 2.9873948e-07 1.8453977e-07
5.085166e-07 1.222857e-07 4.8206266e-07 4.451518e-07 1.9613074e-07 3.029159e-07 2.967961e-07 3.6427437e-07
3.4669674e-07 4.0032046e-07 2.882796e-07 4.5322867e-07 3.9177826e-07 1.5425297e-07 6.603411e-07 1.2873215e-06
2.4831155e-07 3.019916e-07 2.7428428e-07 4.4650255e-07 3.3678933e-07 2.605041e-07 2.461042e-07 1.5344735e-07
3.2579166e-07 2.6591013e-07 3.7931736e-07 3.3663736e-07 4.417637e-07 5.5499066e-07 3.5536664e-07 2.0024981e-07
2.0541438e-07 2.484625e-07 2.2212676e-07 1.4840144e-07 9.4573153e-07 1.4805461e-07 2.2202323e-07 2.2456335e-07
2.6481024e-07 2.9937902e-07 2.412615e-07 1.9224898e-07 5.2417187e-07 2.1386273e-07 2.6935314e-07 2.989904e-07
2.3285557e-07 6.6165677e-07 2.6562867e-07 6.0481915e-07 2.6929163e-07 4.4244712e-07 2.1256326e-07 2.6326046e-07
2.0294975e-07 4.2658542e-07 2.1499856e-07 2.9074246e-07 2.5404032e-07 2.2149567e-07 3.3973427e-07 2.6499043e-07
4.067816e-07 3.6253647e-07 2.7314147e-07 3.448924e-07 3.1363388e-07 4.7662348e-07 3.75736e-07 1.9531079e-07
3.4830387e-07 1.6417006e-07 2.1195622e-07 2.4907595e-07 2.7201088e-07 3.5180196e-07 4.9145785e-07 2.9521163e-07
2.0645975e-07 1.8001323e-07 6.32963e-07 3.0930516e-07 3.885889e-07 3.0751744e-07 1.9407477e-07 3.7220246e-07
2.204377e-07 2.7776017e-07 2.3694493e-07 1.6301975e-07 1.8255803e-07 3.0737476e-07 3.813914e-07 2.2171199e-07
3.683952e-07 4.5436354e-07 4.1648786e-07 3.686815e-07 1.8821798e-07 2.1798158e-07 2.4849396e-07 1.7477052e-07
2.7227316e-07 3.167387e-07 3.6480043e-07 3.2312695e-07 1.6958585e-07 1.7238378e-07 3.4541327e-07 3.9378608e-07
2.2368143e-07 2.3671367e-07 3.427752e-07 1.9564689e-07 2.9237967e-07 2.954623e-07 2.8768812e-07 1.8268454e-07
9.622968e-07 2.0805354e-07 3.4580185e-07 4.271882e-07 3.4263067e-07 2.2960918e-07 3.8551013e-07 4.055323e-07
3.2731978e-07 2.9423768e-07 7.547614e-07 4.046948e-07 1.7279895e-07 7.0130693e-07 1.5011724e-07 2.6426386e-07
1.484345e-07 2.5786017e-07 1.4639382e-07 3.286051e-07 3.1473866e-07 1.9816466e-07 2.0215413e-07 4.0191887e-07
00000000: 1014 8634 a25f b834 93ad 9b34 aaf3 e934
00000010: 47bf a334 58c2 d034 c159 ff34 75cf 6834
00000020: 2a39 1735 6ab5 e834 ce00 8134 e7c7 cc34
00000030: f719 6434 d9e0 8335 3461 5e34 a2d6 a534
00000040: 48f4 aa34 79fc 3234 14d6 6b34 ca26 4c34
00000050: 9b0f 6834 090a dd34 2f70 4234 1d52 9234
00000060: 3515 b034 715f 9934 1f28 c934 02e2 8534
00000070: 3e62 9134 e735 a234 e466 c734 965d a934
00000080: fe14 2b34 57c9 be34 3292 8e34 a6ff 5034
00000090: 2ece 7334 3f7d 0734 de5a 5234 c99d 9834
000000a0: 218c a234 00e6 9c34 d4d7 f934 2b8a 8034
000000b0: 3181 9a34 b4b6 6a34 cc39 7734 2063 6434
000000c0: 5f26 4834 1349 5734 a048 a034 4066 5934
000000d0: 0007 7634 81c8 de34 d514 c334 4dde 0835
000000e0: a7d3 8b34 d52d 3b34 7ac1 9934 c071 fa34
000000f0: 228a a834 ecb8 bb34 f27b cd34 a6c0 6334
00000100: 1469 e734 0f2f 1835 35ed d934 2a7d 7e34
00000110: bbcd 6e34 2e3b 9734 a28d 6d34 e4be 6234
00000120: 325e df34 781e c634 013e b534 d050 d534
00000130: c977 f434 d5e3 3a35 7c1d 7d34 1932 9934
00000140: d798 1634 b817 1135 68bf 2734 b42b 3b34
00000150: 6609 cb34 40ef 3234 59a1 6234 7bbb c534
00000160: b5f7 8034 c100 1535 372b 5c34 786b 9834
00000170: 9623 0934 5007 fe34 4ab6 3134 e1f1 b934
00000180: 418e d734 4257 f534 957a c734 7c35 6634
00000190: c4f1 cd34 9e35 4f34 07b0 6b34 db45 9234
000001a0: 836f 9a34 26c9 b134 c848 d434 1456 7834
000001b0: 2f7c 5734 1376 0734 7162 a034 e825 4634
000001c0: ff80 0835 a34d 0334 1867 0135 33fd ee34
000001d0: 0298 5234 72a0 a234 5857 9f34 7d91 c334
000001e0: a321 ba34 a0eb d634 d9c4 9a34 4653 f334
000001f0: 9855 d234 bca0 2534 4b42 3135 08c8 ac35
00000200: ae4f 8534 6921 a234 5841 9334 d8b6 ef34
00000210: f9cf b434 69db 8b34 4e20 8434 49c3 2434
00000220: 77e8 ae34 69c2 8e34 fba4 cb34 16bb b434
00000230: 8a2b ed34 abfa 1435 38c9 be34 4004 5734
00000240: e08f 5c34 6d64 8534 bd81 6e34 4758 1f34
00000250: 2dde 7d35 f1f8 1e34 4865 6e34 811f 7134
00000260: 3e2b 8e34 57ba a034 ba86 8134 ff6c 4e34
00000270: d1b4 0c35 24a2 6534 9d9b 9034 ed84 a034
00000280: da06 7a34 b59c 3135 ba9b 8e34 db5a 2235
00000290: 2993 9034 7889 ed34 f23c 6434 3e56 8d34
000002a0: 67ea 5934 7405 e534 5bda 6634 5717 9c34
000002b0: 0963 8834 44d4 6d34 b964 b634 0244 8e34
000002c0: a363 da34 a2a2 c234 47a4 9234 a729 b934
000002d0: 8361 a834 a2e2 ff34 c3b8 c934 9fb6 5134
000002e0: 85fe ba34 b946 3034 1596 6334 bdb8 8534
000002f0: e408 9234 4bdf bc34 baec 0335 947d 9e34
00000300: 39af 5d34 a949 4134 e3e8 2935 940e a634
00000310: 409f d034 e018 a534 de62 5034 1ed3 c734
00000320: 74b1 6c34 111f 9534 ed6a 7e34 870a 2f34
00000330: 2b05 4434 4405 a534 09c2 cc34 ba0f 6e34
00000340: dac7 c534 40ef f334 a899 df34 33ef c534
00000350: f718 4a34 520e 6a34 c068 8534 8ea8 3b34
00000360: f02c 9234 3c0c aa34 cad9 c334 3b7a ad34
00000370: 6717 3634 7e18 3934 3d71 b934 8c69 d334
00000380: 152d 7034 5c2b 7e34 aa06 b834 0213 5234
00000390: 5bf8 9c34 08a0 9e34 8e73 9a34 f227 4434
000003a0: 4428 8135 5265 5f34 a5a6 b934 4d58 e534
000003b0: cdf2 b734 7e8a 7634 1cf8 ce34 efb7 d934
000003c0: 7dba af34 b8f7 9d34 cf9a 4a35 d444 d934
000003d0: 9d8a 3934 7241 3c35 ea2f 2134 26e0 8d34
000003e0: 5d61 1f34 0870 8a34 6d30 1d34 246b b034
000003f0: 5af9 a834 16c7 5434 b40f 5934 4fc7 d734
