mcao/neural/unsupervised/trained/2019-02-08-12:57:13.pth (torch_old, 835359 bytes, 12 tensors)

layer1.weight f4 [256, 210]
-0.006773995 -0.04392047 -0.07052674 0.016116366 0.08075161 0.06285961 0.034010623 -0.0963053
-0.0811077 -0.054914948 0.0068326783 -0.110873155 -0.09727685 -0.020320596 -0.06763253 -0.03574006
0.07408222 -0.082618356 0.007634525 0.0685202 -0.012081797 -0.101648435 0.047627516 0.070051335
0.020161467 -0.04582238 0.026552327 0.05035185 -0.037426278 -0.07153775 0.099696584 0.06957261
-0.017089864 0.12316656 0.03922267 -0.048905488 -0.05643024 -0.12993926 -0.06698416 -0.1069198
-0.014533085 -0.014164819 0.042753123 0.041603506 0.05061989 0.08664785 0.034965444 -0.06859592
0.018801255 -0.031714704 0.022102602 -0.035488423 -0.072140686 -0.0033617294 -0.043163795 0.06425436
0.010493176 0.07929638 0.009603271 0.08395506 -0.011893021 0.106982656 -0.09475745 0.047734722
0.10106218 0.007779259 0.04388746 0.08022593 -0.0061686356 0.10524296 0.02085911 -0.061782975
-0.09880159 -0.052585226 0.011021454 0.049755584 -0.052270494 0.057414312 -0.054590225 0.026206877
0.019804375 -0.053233687 -0.10901145 -0.081585065 0.09280313 0.031359244 0.06604649 0.01554271
-0.051964894 0.008995028 0.04313984 -0.01876699 -0.0521594 0.050846957 -0.037410263 0.053273693
0.019574668 0.04269966 -0.07961433 -0.07045991 -0.16544907 -0.082763344 -0.11079393 -0.014406655
-0.15576051 0.08963606 -0.07947246 -0.0745463 -0.009586682 -0.075807564 -0.03405012 -0.039250966
-0.09312383 -0.055057667 -0.052499086 -0.089606345 -0.057884935 -0.12974147 -0.0019533795 0.06265749
-0.06530298 0.013741419 0.015735371 -0.05939159 0.04618384 0.039408006 -0.054979205 0.072810166
-0.097703815 -0.038508065 -0.0018792698 0.03460064 -0.07164319 0.02621894 -0.015616189 0.059134122
0.06254447 0.09922157 0.054751012 -0.013495477 -0.015933333 0.09648732 0.027238127 -0.0010359185
0.0006271952 -0.017563665 -0.020212967 0.048581768 0.065541916 0.05509405 -0.002138427 -0.0055704135
-0.030108156 0.00050339213 0.029014943 0.11011011 0.12444403 0.037994087 -0.016242506 0.010997518
0.08904473 -0.016846567 0.026302475 -0.046695318 0.05527644 -0.018516853 0.082314864 0.044643868
-0.085344225 -0.122006856 0.006150505 -0.061789475 -0.11802007 -0.08224052 -0.017040309 0.009268015
0.061704867 0.06465208 0.0026001912 0.04580022 -0.009261264 0.053355675 -0.017593427 0.04237663
-0.048432477 0.009932861 0.0020152493 -0.050110247 -0.036775097 0.112392895 -0.004262 -0.007298922
-0.00882395 -0.0019820014 0.03807608 0.0061180783 0.0106380135 0.013873903 0.012664926 0.0021378638
-0.028667694 -0.04727329 -0.023086304 -0.025375517 -0.008171007 0.033381652 -0.044888664 -0.017693449
-0.031399556 -0.024336321 0.017443746 0.1048368 0.030715818 0.002196135 0.10271874 -0.019483112
-0.0140432995 0.043000817 -0.04561209 -0.023835571 -0.056772657 -0.09737055 -0.13129906 -0.016932862
0.1708745 -0.028347004 0.06891921 0.011449842 -0.011900643 -0.019546947 0.09160599 -0.015039007
0.07342042 0.0069190552 -0.017115045 0.07107175 0.04445461 0.156065 -0.048910554 -0.08495666
-0.029684572 -0.012199125 -0.1210424 0.071407154 0.006850803 -0.03258403 0.03648681 -0.077539794
-0.02134835 -0.051997438 -0.089800425 -0.06832554 -0.0054785595 0.032578047 -0.04083339 0.040006462
00000000: 63f8 ddbb f3e5 33bd 5370 90bd 7806 843c
00000010: 1a61 a53d 8abc 803d b94e 0b3d b73b c5bd
00000020: cb1b a6bd 7fee 60bd a9e4 df3b 7711 e3bd
00000030: 1639 c7bd 6177 a6bc ed82 8abd 2b64 12bd
00000040: 6bb8 973d d033 a9bd 0a2b fa3b 5254 8c3d
00000050: bbf2 45bc 0e2d d0bd 1215 433d 1377 8f3d
00000060: a929 a53c 3fb0 3bbd 4484 d93c be3d 4e3d
00000070: 4c4c 19bd 6282 92bd b92d cc3d 167c 8e3d
00000080: 0b00 8cbc c03e fc3d f3a7 203d 1f51 48bd
00000090: 6523 67bd cc0e 05be fe2e 89bd c5f8 dabd
000000a0: 2d1c 6ebc 8f13 68bc e61d 2f3d 7068 2a3d
000000b0: cd56 4f3d 6e74 b13d ed37 0f3d 057c 8cbd
000000c0: 1705 9a3c 47e7 01bd 8410 b53c 4f5c 11bd
000000d0: 7fbe 93bd 7650 5cbb 85cc 30bd ca97 833d
000000e0: 92eb 2b3c 2466 a23d 0a57 1d3c a1f0 ab3d
000000f0: f2da 42bc b919 db3d 3210 c2bd 7c85 433d
00000100: b0f9 ce3d 27e9 fe3b 56c3 333d 7e4d a43d
00000110: 4422 cabb 9f89 d73d b9e0 aa3c 2510 7dbd
00000120: 7d58 cabd 9b63 57bd 5493 343c 83cc 4b3d
00000130: 9619 56bd 452b 6b3d 009a 5fbd ceaf d63c
00000140: c93c a23c 910b 5abd 6541 dfbd 1216 a7bd
00000150: 910f be3d 8d72 003d 6243 873d daa6 7e3c
00000160: 24d9 54bd e25f 133c 67b3 303d 3bbd 99bc
00000170: 18a5 55bd e644 503d 813b 19bd 8435 5a3d
00000180: 0e5b a03c d7e5 2e3d d60c a3bd 494d 90bd
00000190: 7b6b 29be d47f a9bd eee7 e2bd e409 6cbc
000001a0: af7f 1fbe 1c93 b73d 75c2 a2bd bbab 98bd
000001b0: 7511 1dbc ff40 9bbd 2378 0bbd 9fc5 20bd
000001c0: b5b7 bebd 2684 61bd 4809 57bd 8883 b7bd
000001d0: c118 6dbd f3da 04be 4504 00bb 9252 803d
000001e0: 92bd 85bd b023 613c 77e7 803c 9944 73bd
000001f0: 442b 3d3d 4a6a 213d e031 61bd 7f1d 953d
00000200: f018 c8bd a2ba 1dbd d551 f6ba 67b9 0d3d
00000210: aab9 92bd 1ac9 d63c 0bdb 7fbc 9f36 723d
00000220: 5117 803d ae34 cb3d 9942 603d 221c 5dbc
00000230: 9f86 82bc 259b c53d 7e22 df3c a8c7 87ba
00000240: 5b6a 243a ade1 8fbc aa95 a5bc adfd 463d
00000250: d73a 863d 4caa 613d da24 0cbb 0488 b6bb
00000260: 61a5 f6bc 13f6 033a bfb0 ed3c 6981 e13d
00000270: 83dc fe3d b09f 1b3d 010f 85bc ef2e 343c
00000280: 155d b63d d001 8abc 4a78 d73c 9743 3fbd
00000290: 8c69 623d a8b0 97bc b294 a83d 7ddc 363d
000002a0: f4c8 aebd bbde f9bd 2d8a c93b f616 7dbd
000002b0: 82b4 f1bd b86d a8bd 1e98 8bbc dfd8 173c
000002c0: 3ebe 7c3d 4f68 843d f867 2a3b 0399 3b3d
000002d0: 8ebc 17bc 7b8b 5a3d 1720 90bc 1e93 2d3d
000002e0: 2261 46bd 70bd 223c 4612 043b 6740 4dbd
000002f0: 7ca1 16bd 3f2e e63d 3fa8 8bbb cc2b efbb
00000300: 5492 10bc 77e4 01bb aaf5 1b3d 297a c83b
00000310: 104b 2e3c 5e4f 633c 8d80 4f3c 671b 0c3b
00000320: 83d8 eabc a3a1 41bd 7d1f bdbc 51e0 cfbc
00000330: b0df 05bc 33bb 083d 2ddd 37bd daf1 90bc
00000340: d29c 00bd f75c c7bc 30e6 8e3c adb4 d63d
00000350: bd9f fb3c 08ed 0f3b 345e d23d 0c9b 9fbc
00000360: de15 66bc a021 303d bed3 3abd d142 c3bc
00000370: 728a 68bd 366a c7bd 4373 06be c9b6 8abc
00000380: baf9 2e3e fa37 e8bc 8425 8d3d 1e98 3b3c
00000390: eafa 42bc eb20 a0bc ec9b bb3d 2b66 76bc
000003a0: 725d 963d 3eb9 e23b da34 8cbc 118e 913d
000003b0: 0a16 363d 81cf 1f3e 6f56 48bd c2fd adbd
000003c0: 0f2d f3bc d7de 47bc 14e5 f7bd ea3d 923d
000003d0: b37c e03b d576 05bd 3173 153d 2fcd 9ebd
000003e0: bce2 aebc 44fb 54bd 49e9 b7bd 43ee 8bbd
000003f0: 7d85 b3bb 8f70 053d ea40 27bd d1dd 233d

layer1.bias f4 [256]
0.060899306 0.02380838 0.21954836 0.256251 0.33610997 0.03390198 0.39261672 0.40950796
0.10596907 0.052773435 0.19058588 -0.006731082 0.33568504 0.012437779 0.4248205 0.0897807
0.24467158 0.07809671 0.033871375 0.15934023 0.04964327 0.038418915 -0.020659825 0.1367797
0.44646108 0.4558242 -0.005298189 -0.06688632 0.251593 0.10985026 -0.047734573 0.03869186
0.018658279 0.34963283 0.30575866 0.10198102 0.33308893 0.023361089 0.4458401 0.3592373
0.14819257 -0.057461258 0.053177454 0.21318474 0.04385241 0.05457777 0.026540626 -0.034453485
0.046346992 0.05425636 -0.03556119 0.4060968 0.34381893 0.055128835 0.18481578 0.13400422
0.052763354 -0.04291428 0.30653894 0.09937069 -0.037530385 0.14792912 -0.033359934 0.31836832
0.01958351 0.16527468 0.006942566 0.03797906 0.46541235 0.009586068 0.009796296 0.10216772
0.0456014 0.06854163 0.47777352 -0.03931965 0.020348517 0.49617073 0.028145153 -0.01654764
0.13573386 -0.0323386 -0.015208479 0.223894 0.13076282 0.02874241 0.0023399394 -0.004448719
0.3849816 -0.017971437 -0.012286437 -0.034299016 0.29218975 0.07271521 0.17072342 0.03515239
0.09604553 0.3523336 0.6135202 0.038953837 -0.055438694 0.14535134 0.032915328 0.35171813
0.3190632 0.17717466 0.08778813 0.1269961 3.8181413e-05 0.34427318 -0.03150332 0.19246718
0.5159735 0.044640977 0.36060268 0.0065876236 0.11356863 -0.031116348 0.39081794 0.38291833
0.11553102 0.0034011235 -0.108542375 0.07806333 0.04732468 0.19060439 0.029184038 0.5307094
-0.022832347 0.3878635 0.079558596 0.071555726 -0.023990141 -0.0081131505 0.03716127 -0.088637434
-0.030991185 0.1750179 0.03792136 0.011999276 0.5021578 0.03611773 -0.004311661 0.009269464
0.41279343 -0.05115368 0.13900766 0.09893993 0.2657393 0.13765447 0.047345944 0.0482831
0.008798814 0.38407397 0.035296395 0.43724117 0.047803603 -0.009552567 0.051371455 -0.002125897
-0.022605138 -0.006276692 0.12181529 0.4799841 0.12890336 0.16734424 -0.03567947 0.17279974
0.029395994 -0.05130912 0.06235939 -0.03564142 0.3363905 -0.014858309 0.11587587 0.02708532
0.13938329 0.007860941 0.13359423 0.14305577 0.38377282 0.13070382 0.01889607 0.070115305
0.061311137 0.04774527 0.02974378 0.23166746 -0.014268056 0.04607095 -0.03241581 0.37693816
0.25093284 0.030290945 0.025678148 -0.046780623 0.49382216 0.3908647 -0.0074959463 0.3247538
0.03599307 -0.060980704 -0.014496562 0.45226386 -0.007697376 0.12946267 0.38058335 -0.031930387
0.13629767 0.09692765 0.35762376 0.58421606 0.3126797 0.13387553 0.040209863 -0.010262696
0.14283273 -0.09884724 0.2934585 0.1671535 0.028492136 0.06984372 -0.0012548489 0.032045275
-0.0066845054 0.38454217 -0.11291254 -0.017190274 0.031449642 0.06268201 0.33179677 0.065901354
0.2030053 0.55553716 0.03530177 0.35839006 0.49141172 0.3809976 -0.01848613 0.049993936
0.065795735 -0.005521465 0.477955 0.053463127 -0.00076642056 0.09378308 -0.009304479 0.041333828
0.049825452 0.004438265 0.13283312 0.025536167 -0.021729741 0.24025688 -0.019741466 -0.032727182
00000000: 8d71 793d cb09 c33c 49d1 603e 5533 833e
00000010: 9b16 ac3e cddc 0a3d 0f05 c93e 07ab d13e
00000020: 5006 d93d f528 583d f228 433e 6990 dcbb
00000030: e9de ab3e d4c7 4b3c 1382 d93e f2de b73d
00000040: 308b 7a3e 2bf1 9f3d b6bc 0a3d 162a 233e
00000050: be56 4b3d 275d 1d3d cb3e a9bc fa0f 0c3e
00000060: 8c96 e43e ca61 e93e 6e9c adbb b2fb 88bd
00000070: ccd0 803e 2cf9 e03d 5485 43bd 5b7b 1e3d
00000080: 3fd9 983c 1303 b33e 668c 9c3e 6ddb d03d
00000090: a28a aa3e c15f bf3c 2745 e43e f4ed b73e
000000a0: cbbf 173e 7f5c 6bbd 9ad0 593d 1a4d 5a3e
000000b0: 969e 333d f18c 5f3d ba6b d93c 191f 0dbd
000000c0: 58d6 3d3d eb3b 5e3d 9ca8 11bd ebeb cf3e
000000d0: 0909 b03e c6ce 613d 5940 3d3e 6738 093e
000000e0: 631e 583d e2c6 2fbd acf2 9c3e dc82 cb3d
000000f0: 76b9 19bd bb7a 173e 6da4 08bd 2c01 a33e
00000100: 996d a03c c43d 293e 777e e33b ee8f 1b3d
00000110: 874a ee3e e20e 1d3c a580 203c 4f3d d13d
00000120: 89c8 3a3d 8e5f 8c3d bb9e f43e a40d 21bd
00000130: efb1 a63c 170a fe3e aa90 e63c eb8e 87bc
00000140: d1fd 0a3e 7b75 04bd fc2c 79bc 7844 653e
00000150: b0e6 053e 3475 eb3c ab59 193b 8fc6 91bb
00000160: 4f1c c53e d638 93bc 0d4d 49bc 207d 0cbd
00000170: e599 953e b6eb 943d 1fd2 2e3e f4fb 0f3d
00000180: 85b3 c43d 1265 b43e a90f 1d3f 0f8e 1f3d
00000190: af13 63bd fbd6 143e 39d2 063d 6614 b43e
000001a0: 405c a33e 466d 353e 43ca b33d 440b 023e
000001b0: fb24 2038 9344 b03e a009 01bd 1e16 453e
000001c0: d716 043f 75d9 363d eaa0 b83e fedc d73b
000001d0: ab96 e83d b6e7 febc 4a19 c83e df0d c43e
000001e0: 879b ec3d 62e5 5e3b 774b debd abdf 9f3d
000001f0: 86d7 413d cc2d 433e 5d13 ef3c 92dc 073f
00000200: e70a bbbc 0b96 c63e 9eef a23d cf8b 923d
00000210: f986 c4bc 05ed 04bc 6a36 183d 8b87 b5bd
00000220: 3ae1 fdbc e437 333e 6e53 1b3d 9c98 443c
00000230: 6a8d 003f 2ff0 133d d548 8dbb f3de 173c
00000240: a959 d33e 8586 51bd 0658 0e3e 05a1 ca3d
00000250: fb0e 883e 4bf5 0c3e d2ed 413d 80c4 453d
00000260: e728 103c 58a5 c43e f492 103d 13de df3e
00000270: b6cd 433d 5f82 1cbc e06a 523d a252 0bbb
00000280: 692e b9bc b5ac cdbb 4b7a f93d 7ac0 f53e
00000290: 3eff 033e 4a5c 2b3e a324 12bd 6af2 303e
000002a0: decf f03c 8329 52bd 8f6c 7f3d bdfc 11bd
000002b0: 603b ac3e 4470 73bc 5450 ed3d 08e2 dd3c
000002c0: 7eba 0e3e 2dcb 003c edcc 083e 367d 123e
000002d0: df7d c43e 39d7 053e eecb 9a3c 9d98 8f3d
000002e0: 6321 7b3d 8b90 433d 3aa9 f33c 3c3a 6d3e
000002f0: 90c4 69bc e4b4 3c3d 71c6 04bd 0afe c03e
00000300: 457a 803e b724 f83c fb5a d23c 0a9d 3fbd
00000310: 42d6 fc3e 6b1f c83e 8ea0 f5bb 2146 a63e
00000320: 786d 133d e7c6 79bd fd82 6dbc 218f e73e
00000330: 453a fcbb dd91 043e d2db c23e 70c9 02bd
00000340: 9e91 0b3e 0182 c63d 761a b73e 2f8f 153f
00000350: 8e17 a03e ab16 093e 19b3 243d de24 28bc
00000360: be42 123e 6c70 cabd 3140 963e 492a 2b3e
00000370: 5768 e93c 390a 8f3d be79 a4ba e841 033d
00000380: b209 dbbb b6e2 c43e b13e e7bd 9ed2 8cbc
00000390: 57d1 003d 6d5f 803d 44e1 a93e 4af7 863d
000003a0: 9fe0 4f3e af37 0e3f 9798 103d e77e b73e
000003b0: 519a fb3e 1e12 c33e 3970 97bc 71c6 4c3d
000003c0: eabf 863d 68ed b4bb 85b6 f43e 27fc 5a3d
000003d0: 9de9 48ba 5811 c03d d071 18bc a94d 293d
000003e0: c615 4c3d de6e 913b 6805 083e 3931 d13c
000003f0: 9202 b2bc e605 763e dbb8 a1bc f00c 06bd

layer2.weight f4 [60, 256]
0.052522495 0.09656671 -0.023762241 -0.046840984 0.04397444 0.015785176 -0.044836666 0.0046002185
0.018745244 0.04659395 0.0010466272 -0.068321474 -0.0009112819 0.0432822 0.023961026 -0.020913243
0.0046784496 0.05963213 0.02331967 -0.0023233562 0.025254257 0.08806724 -0.08136752 -0.045959156
-0.013972196 -0.01005341 0.00636387 0.013014563 0.01734665 -0.024643773 -0.014900826 0.007144813
-0.03798666 -0.09023218 0.030076595 -0.010933278 0.03037266 0.042868327 0.031681392 -0.03776017
-0.0002560331 -0.055793468 0.006937854 -0.07054803 0.0090119615 0.006739318 -0.038391337 -0.001927469
0.036810562 -0.005120608 -0.051759724 0.004328144 -0.0076224143 -0.016552499 -0.036437016 0.006391315
0.009858903 -0.032499976 0.00926832 -0.021307189 0.006635072 -0.00017348523 -0.061480302 -0.046044186
-0.08779267 -0.024367739 -0.060555957 -0.0058177407 -0.04003749 0.025389945 0.004239292 -0.019128805
0.017384086 0.020824572 0.0038093242 0.07014552 -0.041025706 0.087679796 -0.031540565 -0.034970023
-0.0071593085 0.013404172 0.0651967 0.0105949165 0.063655324 -0.038031343 0.059936687 0.02942114
0.026154013 0.014453878 -0.0012546581 -0.025873147 0.01333751 -0.014639527 0.03846373 0.073347665
0.031242779 -0.022134326 -0.09623789 0.047738653 -0.07475911 0.018609148 -0.038524196 -0.017161775
-0.023418479 0.028326485 -0.110100575 0.020592874 -0.008063856 0.01698211 -0.024782797 0.047211234
0.0150379175 0.0649322 -0.0023917796 -0.0054658223 0.0021297194 -0.045350738 -0.02154095 -0.011280602
-0.04290291 0.031306926 0.07226339 0.03408402 -0.036599204 0.022163179 0.027575562 0.008186604
0.09603124 0.07682185 0.016770205 -0.0030606606 0.032060605 0.0025266048 0.015271003 -0.0028961052
0.0035514135 0.041689392 -0.016922949 0.018778447 -0.013677404 -0.046345714 0.032702416 -0.0075533185
-0.041861814 0.09480789 0.03626707 -0.013112241 0.028932177 -0.03211723 -0.054962773 0.051314317
0.08474915 0.056108292 0.010316424 -0.011814451 -0.02057836 -0.05947249 -0.03851474 0.02425634
0.010855574 -0.036236115 0.03492548 -0.04019529 0.019334719 0.017505849 0.038184993 0.04678663
-0.10761537 0.02739594 -0.019636407 0.013487254 -0.04430287 -0.03667267 -0.005484732 0.021797497
0.017278537 -0.03826864 -0.025442744 -0.005409437 0.00092406117 -8.084564e-05 -0.015148933 -0.02934502
-0.09238435 -0.0032906812 -0.025896283 0.05461683 0.07701758 -0.03704368 -0.0075273328 0.040502537
-0.036764648 0.03824935 0.042774376 -0.032032724 0.020464184 0.022424111 -0.07397566 0.04210814
0.071776904 -0.008952015 -0.05600358 0.008707286 0.074416466 -0.010849634 -0.051831722 -0.059953697
-0.004232996 0.003494238 0.045057602 0.0318075 -0.047454722 -0.014920925 0.012631956 -0.08589319
0.01474634 0.0010508854 -0.022248734 0.015713947 0.02191918 0.023647362 -0.0012300854 0.004824369
-0.00028435816 0.014966789 -0.035150085 0.028415982 0.048887156 0.00022729469 -0.025524803 0.011430808
0.016999371 0.005491652 0.019170644 0.06939595 0.06209051 -0.018091882 0.020133696 0.039978955
0.023737665 -0.0003363628 0.024987683 -0.070920795 0.031304713 -0.02346248 0.018462395 0.051535722
0.014083816 -0.004177419 0.06065029 -0.071487 0.01351556 -0.007998564 0.02334008 -0.013540043
00000000: d421 573d c4c4 c53d 08a9 c2bc 55dc 3fbd
00000010: 8b1e 343d ea4f 813c a7a6 37bd 6ebd 963b
00000020: a08f 993c 4cd9 3e3d fb2e 893a 21ec 8bbd
00000030: 18e3 6eba ad48 313d ea49 c43c 4052 abbc
00000040: ae4d 993b d240 743d e508 bf3c 7343 18bb
00000050: 04e2 ce3c 995c b43d 04a4 a6bd ab3f 3cbd
00000060: a3eb 64bc 0fb7 24bc 0388 d03b 093b 553c
00000070: 901a 8e3c bde1 c9bc 9822 74bc 091f ea3b
00000080: e697 1bbd a6cb b8bd 3163 f63c 7e21 33bc
00000090: 16d0 f83c b396 2f3d 59c4 013d 68aa 1abd
000000a0: 2e3c 86b9 b187 64bd f056 e33b 7c7b 90bd
000000b0: e8a6 133c 7fd5 dc3b 3c40 1dbd 21a3 fcba
000000c0: acc6 163d c6ca a7bb 0102 54bd 1ad3 8d3b
000000d0: 72c5 f9bb 1b99 87bc fb3e 15bd 3c6e d13b
000000e0: 3c87 213c b21e 05bd 27da 173c 6a8c aebc
000000f0: 056b d93b 96e9 35b9 c5d2 7bbd d498 3cbd
00000100: a5cc b3bd da9e c7bc 8609 78bd bfa2 bebb
00000110: 5afe 23bd 93fe cf3c c2e9 8a3b 03b4 9cbc
00000120: 1269 8e3c 4b98 aa3c dba5 793b 74a8 8f3d
00000130: 920a 28bd 7791 b33d ae30 01bd ba3c 0fbd
00000140: a298 eabb 2c9d 5b3c d985 853d 4d96 2d3c
00000150: b95d 823d c1c6 1bbd 2c80 753d 9a04 f13c
00000160: f140 d63c f5cf 6c3c 5773 a4ba ecf3 d3bc
00000170: 9285 5a3c a0da 6fbc 258c 1d3d 4d37 963d
00000180: dbf0 ff3c 0c53 b5bc 5f18 c5bd 9b89 433d
00000190: 4e1b 99bd 3672 983c 8ccb 1dbd da96 8cbc
000001a0: 1cd8 bfbc f20c e83c 697c e1bd 63b2 a83c
000001b0: 431e 04bc 111e 8b3c 4b05 cbbc 9160 413d
000001c0: 9961 763c 2cfb 843d 67bf 1cbb a41a b3bb
000001d0: c392 0b3b b2c1 39bd a576 b0bc 46d2 38bc
000001e0: f6ba 2fbd b13b 003d d4fe 933d af9b 0b3d
000001f0: 0ce9 15bd 8e8f b53c 25e6 e13c 1b21 063c
00000200: 07ac c43d c654 9d3d ab61 893c 5d95 48bb
00000210: fb51 033d 6595 253b 3b33 7a3c 95cc 3dbb
00000220: d5be 683b 7fc2 2a3d ffa1 8abc 42d5 993c
00000230: 3117 60bc 01d5 3dbd f8f2 053d d481 f7bb
00000240: 4b77 2bbd a42a c23d c78c 143d bad4 56bc
00000250: 2c03 ed3c 5b8d 03bd a520 61bd f62e 523d
00000260: f690 ad3d cfd1 653d 3806 293c 6691 41bc
00000270: f393 a8bc 6d99 73bd a2c1 1dbd 3bb5 c63c
00000280: 94db 313c 526c 14bd 050e 0f3d d1a3 24bd
00000290: d863 9e3c 6d68 8f3c de67 1c3d 56a3 3f3d
000002a0: 7265 dcbd 736d e03c 88dc a0bc a5f9 5c3c
000002b0: ed76 35bd 1536 16bd 44b9 b3bb aa90 b23c
000002c0: b88b 8d3c 94bf 1cbd 4d6d d0bc a641 b1bb
000002d0: b23c 723a ac8b a9b8 3b33 78bc f864 f0bc
000002e0: 0234 bdbd 78a8 57bb 7124 d4bc e6b5 5f3d
000002f0: 65bb 9d3d 1dbb 17bd d8a7 f6bb fde5 253d
00000300: 8796 16bd 5aab 1c3d 2f34 2f3d bf34 03bd
00000310: 81a4 a73c c5b2 b73c 8d80 97bd 9679 2c3d
00000320: c5ff 923d 79ab 12bc 0364 65bd 01a9 0e3c
00000330: a967 983d aac2 31bc 804d 54bd 0292 75bd
00000340: f2b4 8abb 96ff 643b 528e 383d 9548 023d
00000350: e25f 42bd e576 74bc 43f6 4e3c c5e8 afbd
00000360: a29a 713c ddbd 893a fa42 b6bc 89ba 803c
00000370: da8f b33c 1db8 c13c d13a a1ba be15 9e3b
00000380: e815 95b9 4337 753c 89f9 0fbd a2c8 e83c
00000390: e63d 483d f455 6e39 6419 d1bc 4948 3b3c
000003a0: 4442 8b3c 51f3 b33b c10b 9d3c 771f 8e3d
000003b0: 9e52 7e3d 6d35 94bc 6cef a43c f9c0 233d
000003c0: 7e75 c23c da59 b0b9 f8b2 cc3c ec3e 91bd
000003d0: 5f39 003d 6334 c0bc 733e 973c 1f17 533d
000003e0: cebf 663c bbe2 88bb 706c 783d c767 92bd
000003f0: 5e70 5d3c 690c 03bc b233 bf3c 0ed7 5dbc

layer2.bias f4 [60]
-0.022038104 0.013062113 0.013618821 -0.032391258 0.032047227 -0.0030519953 -0.034218155 0.02686268
0.024312427 -0.017845277 -0.030418342 -0.018767802 -0.0108124055 0.018983174 -0.0027628085 -0.047990926
0.046185642 -0.041160036 -0.04017391 0.040618647 0.017261866 -0.011647799 0.01147483 -0.025711449
-0.043269716 0.008715028 -0.02350583 -0.0061792256 -0.010255956 0.029616542 0.06304772 0.031731676
-0.032441873 0.054818388 0.0480467 0.00462543 -0.033589292 -0.007572031 -0.06873977 0.019282198
-0.006016662 -0.002435033 0.00028830138 -0.027424043 0.03467606 -0.017671738 -0.00503272 0.052322634
-0.030608661 0.049287323 0.010278667 0.025433753 0.0019107341 0.04480228 -0.033631656 -0.029487347
0.065956 0.021266822 0.043162312 -0.051923446
00000000: 4189 b4bc 7902 563c 7a21 5f3c b2ac 04bd
00000010: f443 033d fc03 48bb 5628 0cbd 200f dc3c
00000020: db2a c73c 4230 92bc e32f f9bc efbe 99bc
00000030: 8426 31bc 9a82 9b3c 3c10 35bb 2292 44bd
00000040: 282d 3d3d 6d97 28bd 668d 24bd bd5f 263d
00000050: c268 8d3c 69d6 3ebc ed00 3c3c d1a0 d2bc
00000060: 963b 31bd 7ac9 0e3c 4c8f c0bc 1a7b cabb
00000070: 9908 28bc 649e f23c 2a1f 813d 13f9 013d
00000080: c5e1 04bd 3f89 603d 9ecc 443d eb90 973b
00000090: ed94 09bd cd1e f8bb 70c7 8cbd b3f5 9d3c
000000a0: 6b27 c5bb 1395 1fbb 2827 9739 63a8 e0bc
000000b0: 7c08 0e3d 52c4 90bc 84e9 a4bb 4250 563d
000000c0: 04bf fabc 81e1 493d db67 283c 725a d03c
000000d0: 9971 fa3a 9882 373d 59c1 09bd 738f f1bc
000000e0: f013 873d c237 ae3c f7ca 303d aead 54bd

exp_avg f4 [256, 210]
2.2113369e-05 -9.684796e-06 -2.5739939e-05 -3.8724506e-06 1.395981e-05 1.5371494e-05 9.123309e-06 -3.9175097e-07
2.1082535e-05 3.269141e-05 8.0868335e-07 3.149129e-05 6.2829426e-06 5.7075504e-05 -1.2422627e-05 -2.5428782e-05
3.2203375e-06 -6.293943e-06 -1.01647e-05 3.773855e-05 -1.9122102e-05 -1.47147375e-05 -1.09211305e-05 7.5630737e-06
3.3927463e-05 -4.1930475e-06 -2.161689e-05 -1.7732149e-05 7.942927e-06 1.2917945e-06 -1.9550612e-06 -6.643691e-06
4.884557e-05 1.7539487e-05 1.17379695e-05 1.5163588e-05 -2.044712e-05 1.0254171e-05 2.5098392e-05 2.1784568e-05
-3.031406e-07 -9.389127e-06 -1.8821922e-05 -8.269028e-06 -2.8542883e-05 -1.742309e-05 -1.3647604e-05 -3.3626096e-05
-2.9606308e-06 1.7856844e-05 -7.5384437e-06 2.3798394e-07 1.184474e-06 -1.7649889e-05 1.2200697e-05 -2.8957405e-05
-1.7180917e-05 2.3417562e-05 -1.3024554e-05 5.6151807e-06 1.7541981e-05 -6.2152535e-06 1.0766743e-05 2.5540594e-05
1.9520234e-05 3.2787786e-06 1.2926873e-05 2.0175114e-05 1.849519e-05 1.974828e-05 -2.5470658e-06 -1.2574606e-06
-3.139696e-06 -8.111562e-06 9.954732e-07 3.673505e-06 6.8188825e-07 -3.5646594e-06 5.937589e-06 -5.653321e-06
5.3964154e-06 -5.380989e-06 7.572974e-06 6.156985e-06 -9.913759e-06 -2.851179e-06 2.5470424e-06 3.85479e-06
-7.771269e-06 -1.278248e-06 -2.1491269e-06 -7.883896e-06 5.0909352e-06 4.240366e-06 7.560103e-06 -9.3936305e-06
8.112549e-06 -2.223172e-06 -5.8101846e-06 -4.602589e-06 8.730126e-06 -6.4305946e-06 1.4985181e-06 1.1434777e-06
-4.7344358e-08 -2.249317e-05 -1.4549525e-05 -1.5552552e-05 -1.8685489e-05 -1.2388216e-05 -1.7369079e-05 -9.206086e-06
3.476339e-06 3.22115e-06 9.832093e-06 3.7735122e-06 2.796167e-06 8.871257e-06 2.055294e-06 -7.0156866e-06
-2.5184213e-06 6.719648e-07 -6.120301e-06 -2.339348e-06 4.5328312e-07 -2.8409852e-06 1.1314393e-05 3.759303e-06
1.1107973e-05 1.1868587e-05 7.5424546e-06 1.4298456e-05 9.909732e-06 1.1186526e-06 -1.3162341e-06 -2.755554e-06
-1.5494212e-06 1.002174e-06 2.215708e-06 -2.9663346e-07 -2.4268738e-06 -9.1048867e-07 1.4228391e-06 2.5357651e-06
7.952453e-07 -1.4996459e-06 4.650898e-08 9.498115e-06 1.12714115e-05 1.3315986e-05 1.3337861e-05 1.1499309e-05
9.641956e-06 1.1562439e-05 1.828777e-05 1.6696764e-05 1.6068514e-05 1.7050326e-05 1.8193996e-05 1.9212648e-05
1.7650706e-05 -5.921763e-06 -5.4305656e-06 -4.124625e-06 -3.2404644e-06 -3.0220842e-06 -4.647563e-06 -4.313114e-06
2.2332699e-05 2.232635e-05 2.2256272e-05 2.2335958e-05 2.263347e-05 2.233441e-05 2.2302409e-05 -1.22784195e-05
-1.235589e-05 -1.2450966e-05 -1.2732505e-05 -1.2105834e-05 -1.2522419e-05 -1.23272885e-05 1.1090513e-05 1.1090434e-05
1.10845385e-05 1.1087742e-05 1.1056732e-05 1.1041396e-05 1.1063102e-05 3.8057585e-06 4.004827e-06 3.862091e-06
3.577389e-06 3.327307e-06 3.8496582e-06 3.883957e-06 -2.97678e-06 -2.8023512e-06 -3.0810197e-06 -2.9250223e-06
-2.4545539e-06 -3.192331e-06 -2.9135738e-06 -5.723758e-06 -5.685672e-06 -5.742716e-06 -5.5625087e-06 -5.48939e-06
-5.7869356e-06 -5.799155e-06 -2.4552975e-05 -2.356149e-05 3.9085403e-06 -4.503747e-06 -2.6407659e-05 -3.295139e-05
-1.6877573e-05 1.3062758e-05 -1.7380858e-05 3.6389454e-06 -1.4088193e-06 1.7321861e-05 -7.791504e-07 8.104689e-06
-1.5803026e-06 -1.27730345e-05 9.2900555e-06 2.00602e-05 -2.443461e-05 -1.2955779e-05 1.9218285e-05 2.0590676e-05
-1.168899e-05 -3.6780828e-05 3.216163e-05 -3.6230153e-06 -5.4833495e-06 1.0840906e-05 -2.7351667e-05 -1.0484768e-05
-3.7768754e-05 1.5648081e-06 -1.0408623e-05 -1.0740505e-05 -2.8893044e-05 6.0194434e-06 3.24937e-05 1.793012e-05
-8.403411e-06 4.658264e-06 7.480023e-06 -4.7118432e-05 -1.3012898e-05 -1.6559281e-06 -1.826416e-05 -2.3271507e-05
00000000: 1980 b937 e27b 22b7 19ec d7b7 19f0 81b6
00000010: ed34 6a37 08f2 8037 5010 1937 d851 d2b4
00000020: 66da b037 221e 0938 4c14 5935 8415 0438
00000030: 11d2 d236 5b64 6f38 c76a 50b7 e54f d5b7
00000040: fa1c 5836 8f30 d3b6 0e89 2ab7 7649 1e38
00000050: 6768 a0b7 51df 76b7 e639 37b7 4fc6 fd36
00000060: 564d 0e38 01b2 8cb6 eb55 b5b7 80bf 94b7
00000070: 9d42 0537 b961 ad35 b233 03b6 dfec deb6
00000080: 88df 4c38 c321 9337 32ee 4437 1d67 7e37
00000090: db85 abb7 5409 2c37 638a d237 01be b637
000000a0: 54bf a2b4 fe85 1db7 c5e3 9db7 34bb 0ab7
000000b0: 606f efb7 cd27 92b7 03f8 64b7 bf09 0db8
000000c0: 40af 46b6 48cb 9537 bdf2 fcb6 8788 7f34
000000d0: 37fa 9e35 d90e 94b7 98b1 4c37 8ee9 f2b7
000000e0: bd1f 90b7 d570 c437 0984 5ab7 096a bc36
000000f0: 1e27 9337 9f8c d0b6 cfa2 3437 0240 d637
00000100: 62bf a337 fd08 5c36 7fe0 5837 ba3d a937
00000110: 1e26 9b37 1ca9 a537 42ee 2ab6 04c6 a8b5
00000120: 91b3 52b6 e516 08b7 339c 8535 5686 7636
00000130: 010b 3735 6238 6fb6 803b c736 a8b1 bdb6
00000140: db12 b536 588e b4b6 5a1b fe36 1998 ce36
00000150: 4553 26b7 e256 3fb6 dbed 2a36 6558 8136
00000160: 5961 02b7 4490 abb5 b839 10b6 1345 04b7
00000170: cdd2 aa36 7748 8e36 caac fd36 5699 1db7
00000180: 221b 0837 ce31 15b6 1bf5 c2b6 f06f 9ab6
00000190: 9b77 1237 63c6 d7b6 b120 c935 9879 9935
000001a0: ac57 4bb3 b7af bcb7 bc19 74b7 da76 82b7
000001b0: c8be 9cb7 fcd6 4fb7 d0b3 91b7 d773 1ab7
000001c0: 0d4b 6936 f02a 5836 85f4 2437 723c 7d36
000001d0: c9a5 3b36 c2d5 1437 afed 0936 4a68 ebb6
000001e0: 2602 29b6 1261 3435 fc5c cdb6 b1fd 1cb6
000001f0: c25a f334 c1a7 3eb6 f3d2 3d37 5548 7c36
00000200: 615c 3a37 311f 4737 3115 fd36 67e3 6f37
00000210: fa41 2637 9c24 9635 76a9 b0b5 0fec 38b6
00000220: b5f5 cfb5 7082 8635 93b1 1436 fe40 9fb4
00000230: 60dd 22b6 4e68 74b5 61f8 be35 1d2c 2a36
00000240: d778 5535 7147 c9b5 2ac1 4733 185a 1f37
00000250: 581a 3d37 b967 5f37 adc5 5f37 28ed 4037
00000260: e3c3 2137 4cfc 4137 b068 9937 0710 8c37
00000270: dfca 8637 4c07 8f37 4f9f 9837 d92a a137
00000280: 9a10 9437 8fb3 c6b6 3438 b6b6 4266 8ab6
00000290: c176 59b6 03cf 4ab6 43f2 9bb6 5eb9 90b6
000002a0: 1b57 bb37 7949 bb37 fbb2 ba37 1b5e bb37
000002b0: 02dd bd37 c85a bb37 0f16 bb37 69ff 4db7
000002c0: 254c 4fb7 7ee4 50b7 b19d 55b7 291a 4bb7
000002d0: 6117 52b7 4dd1 4eb7 6411 3a37 0d11 3a37
000002e0: bbf7 3937 7d05 3a37 4d80 3937 6f3e 3937
000002f0: a99b 3937 6f66 7f36 3461 8636 1c97 8136
00000300: 1313 7036 b34a 5f36 502c 8136 f052 8236
00000310: b1c4 47b6 0710 3cb6 84c3 4eb6 804b 44b6
00000320: eab8 24b6 d43b 56b6 d186 43b6 b50e c0b6
00000330: 8dc7 beb6 8eb1 c0b6 96a5 bab6 8031 b8b6
00000340: 662d c2b6 5d96 c2b6 1df7 cdb7 eaa5 c5b7
00000350: 1b26 8336 e41e 97b6 0486 ddb7 4935 0ab8
00000360: 5094 8db7 1e28 5b37 1ccd 91b7 9b34 7436
00000370: aa16 bdb5 6a4e 9137 cf26 51b5 60f9 0737
00000380: c91a d4b5 c44b 56b7 7cdc 1b37 f446 a837
00000390: edf8 ccb7 a65c 59b7 f436 a137 24ba ac37
000003a0: d41b 44b7 1d45 1ab8 4ae5 0638 ee22 73b6
000003b0: 9dfd b7b6 56e1 3537 4271 e5b7 bce7 2fb7
000003c0: e469 1eb8 6606 d235 b2a0 2eb7 1e32 34b7
000003d0: 575f f2b7 a0fa c936 d849 0838 a468 9637
000003e0: 60fc 0cb7 2f4e 9c36 e9fc fa36 08a1 45b8
000003f0: f951 5ab7 4241 deb5 fc35 99b7 2e37 c3b7

exp_avg_sq f4 [256, 210]
6.4544196e-08 7.0184285e-08 6.071882e-08 5.5784522e-08 5.505793e-08 5.4775402e-08 6.16496e-08 4.7591133e-08
4.505456e-08 5.429453e-08 4.9753094e-08 5.8625307e-08 4.9987985e-08 5.2682733e-08 4.7220844e-08 4.6271513e-08
4.7152604e-08 4.8756363e-08 4.5107832e-08 4.9197126e-08 4.9748774e-08 3.806128e-08 4.6667054e-08 4.089859e-08
3.9037488e-08 4.3093774e-08 4.4398586e-08 4.24763e-08 4.3176378e-08 4.0116166e-08 4.5832085e-08 4.0052154e-08
4.1999456e-08 4.0060428e-08 3.950283e-08 4.0591285e-08 4.3794834e-08 4.9401283e-08 4.2840956e-08 4.2849717e-08
4.4804718e-08 3.9539508e-08 2.3125411e-08 2.975847e-08 3.1319043e-08 2.3345656e-08 3.1288277e-08 3.2096025e-08
2.9695336e-08 3.524948e-08 2.8261322e-08 2.617735e-08 3.7853336e-08 2.6061981e-08 3.1049943e-08 3.1569968e-08
2.7786436e-08 2.9551984e-08 2.8487976e-08 3.110662e-08 3.050998e-08 3.4479083e-08 1.8395529e-08 2.6572211e-08
2.6512252e-08 2.9095967e-08 2.987388e-08 3.0562127e-08 2.8232567e-08 1.7909597e-08 1.76986e-08 1.9693262e-08
1.7730564e-08 1.846945e-08 2.0563245e-08 1.8538364e-08 1.4976106e-08 2.1696142e-08 1.9162087e-08 2.0098586e-08
2.1882096e-08 2.083527e-08 1.979855e-08 1.5327464e-08 1.9350969e-08 2.3182515e-08 2.3852497e-08 1.8250535e-08
2.3836105e-08 2.2075312e-08 1.6332514e-08 2.2093351e-08 2.088538e-08 2.1372829e-08 2.1839405e-08 2.1115238e-08
2.084737e-08 1.6180088e-08 1.9917618e-08 1.9876955e-08 2.1210615e-08 2.0885597e-08 2.0247693e-08 1.9083238e-08
1.5433487e-08 1.7438376e-08 1.4514564e-08 1.4869104e-08 1.862611e-08 1.507236e-08 1.4217213e-08 1.3981618e-08
1.3253457e-08 1.5486203e-08 1.6223712e-08 1.31204425e-08 1.562631e-08 1.6401897e-08 1.3846681e-08 1.4044783e-08
1.3623024e-08 1.3870779e-08 1.3926571e-08 1.3754109e-08 1.3897402e-08 1.245953e-08 1.4986531e-08 1.4458368e-08
1.4740327e-08 1.509686e-08 1.6009977e-08 1.6215635e-08 1.37612e-08 1.360823e-08 1.3760508e-08 1.3815315e-08
1.3720092e-08 1.36761535e-08 1.3636289e-08 1.3123887e-08 1.2081854e-08 1.2271201e-08 1.2365318e-08 1.2392987e-08
1.2216584e-08 1.208316e-08 1.1666525e-08 1.3830204e-08 1.3915207e-08 1.3889411e-08 1.3770497e-08 1.3744856e-08
1.371039e-08 1.35641995e-08 1.3865396e-08 1.3808442e-08 1.3707246e-08 1.36649865e-08 1.37060505e-08 1.3837846e-08
1.36476475e-08 1.3034277e-08 1.3013985e-08 1.2982629e-08 1.2976484e-08 1.3027008e-08 1.30625954e-08 1.2871297e-08
1.4058747e-08 1.4071269e-08 1.4053461e-08 1.4051062e-08 1.4069906e-08 1.4073082e-08 1.40678384e-08 1.2268888e-08
1.2268549e-08 1.2252975e-08 1.2264836e-08 1.2266772e-08 1.2270647e-08 1.227232e-08 1.415027e-08 1.4150626e-08
1.4151363e-08 1.4148136e-08 1.4131343e-08 1.4145648e-08 1.4148985e-08 1.3082968e-08 1.3121157e-08 1.3095384e-08
1.3105787e-08 1.3079764e-08 1.3097295e-08 1.3091791e-08 1.2201798e-08 1.2207714e-08 1.2213047e-08 1.2202253e-08
1.221106e-08 1.2215012e-08 1.2203646e-08 1.2477819e-08 1.2512663e-08 1.2510898e-08 1.2513335e-08 1.2543612e-08
1.250944e-08 1.2515318e-08 4.840531e-08 5.312838e-08 5.3546255e-08 5.2939807e-08 5.2685003e-08 4.9062233e-08
5.0545804e-08 4.317653e-08 4.4404345e-08 4.487465e-08 4.712478e-08 4.417384e-08 5.0349016e-08 4.7391296e-08
5.246414e-08 4.5723155e-08 4.631137e-08 4.4121542e-08 4.7057814e-08 4.4141355e-08 4.9587435e-08 3.7490434e-08
4.3192106e-08 3.7626265e-08 3.6723264e-08 4.2788823e-08 4.9070078e-08 3.587753e-08 3.7589686e-08 3.866079e-08
3.9842906e-08 3.967628e-08 4.0338307e-08 4.1090964e-08 3.59579e-08 3.881738e-08 4.1780524e-08 4.607763e-08
4.3067764e-08 5.0046168e-08 4.8867975e-08 3.558318e-08 2.315038e-08 3.2544417e-08 3.0748208e-08 2.1694202e-08
00000000: 8c9b 8a33 38b8 9633 8664 8233 bb97 6f33
00000010: d678 6c33 3142 6b33 3a64 8433 0167 4c33
00000020: 0382 4133 7831 6933 1bb0 5533 35cb 7b33
00000030: 5fb2 5633 4745 6233 decf 4a33 11bc 4633
00000040: d684 4a33 3068 5133 96bc 4133 d04c 5333
00000050: 5bab 5533 d278 2333 f86e 4833 7aa8 2f33
00000060: 2caa 2733 1b16 3933 c3b0 3e33 306f 3633
00000070: ee70 3933 314c 2c33 e9d8 4433 cf05 2c33
00000080: e462 3433 e80e 2c33 d2a9 2933 9756 2e33
00000090: ee18 3c33 492d 5433 2100 3833 c309 3833
000000a0: 4f6f 4033 26d2 2933 51a5 c632 919f ff32
000000b0: a783 0633 a489 c832 d361 0633 f4d9 0933
000000c0: bc14 ff32 3765 1733 4ec3 f232 9adc e032
000000d0: 2f94 2233 e7de df32 c65b 0533 8c97 0733
000000e0: 05af ee32 80d9 fd32 b9b5 f432 179a 0533
000000f0: 140a 0333 2716 1433 3204 9e32 e940 e432
00000100: 0fbd e332 b5ee f932 ae4e 0033 6a43 0333
00000110: 1284 f232 9fd7 9932 a207 9832 f129 a932
00000120: ec4d 9832 c0a6 9e32 0ea3 b032 4b3e 9f32
00000130: cea4 8032 525e ba32 e099 a432 42a5 ac32
00000140: 3df7 bb32 3ef9 b232 7911 aa32 73a9 8332
00000150: 3b39 a632 e422 c732 32e4 cc32 5ac5 9c32
00000160: 26c0 cc32 20a0 bd32 944b 8c32 cbc7 bd32
00000170: 7067 b332 5997 b732 5c99 bb32 e660 b532
00000180: da13 b332 64fc 8a32 4e17 ab32 e3bd aa32
00000190: a332 b632 ea67 b332 26ed ad32 7cec a332
000001a0: 9992 8432 65cb 9532 ba5b 7932 0373 7f32
000001b0: 40ff 9f32 7878 8132 f73f 7432 ce33 7032
000001c0: 52b1 6332 8506 8532 525c 8b32 5168 6132
000001d0: 9e3a 8632 27e4 8c32 59e2 6d32 9c49 7132
000001e0: b10a 6a32 554c 6e32 b541 6f32 364b 6c32
000001f0: 6cc1 6e32 980d 5632 bbbb 8032 9364 7832
00000200: a53c 7d32 59ae 8132 5086 8932 8f4a 8b32
00000210: 666a 6c32 a1c9 6932 5b67 6c32 6658 6d32
00000220: 9ab5 6b32 5cf4 6a32 0945 6a32 7777 6132
00000230: 8e90 4f32 50d1 5232 3e6f 5432 efe8 5432
00000240: 1be1 5132 4d96 4f32 eb6d 4832 e199 6d32
00000250: ba0f 6f32 479e 6e32 4993 6c32 8422 6c32
00000260: ef8a 6b32 fb07 6932 a834 6e32 2c3a 6d32
00000270: 1b7d 6b32 3fc3 6a32 d977 6b32 7ebb 6d32
00000280: fd76 6a32 5bed 5f32 1c94 5f32 350a 5f32
00000290: 2eef 5e32 63cd 5f32 e769 6032 9020 5d32
000002a0: 0687 7132 18be 7132 c66f 7132 3965 7132
000002b0: 1ab8 7132 12c6 7132 02af 7132 24c7 5232
000002c0: a6c5 5232 2781 5232 52b5 5232 d5bd 5232
000002d0: e0ce 5232 3cd6 5232 8c19 7332 1c1b 7332
000002e0: 5a1e 7332 2910 7332 4ec6 7232 3805 7332
000002f0: e513 7332 80c3 6032 756b 6132 1cfa 6032
00000300: dc27 6132 69b5 6032 8302 6132 4eea 6032
00000310: 13a0 5132 18ba 5132 8cd1 5132 14a2 5132
00000320: cfc8 5132 31da 5132 34a8 5132 075e 5632
00000330: 46f7 5632 83ef 5632 3bfa 5632 647f 5732
00000340: 19e9 5632 f302 5732 34e6 4f33 462f 6433
00000350: bbfa 6533 ef5f 6333 c647 6233 7fb8 5233
00000360: b317 5933 1971 3933 18b7 3e33 33bc 4033
00000370: 3e66 4a33 a7b9 3d33 543f 5833 488b 4b33
00000380: ef54 6133 2461 4433 e4e7 4633 2680 3d33
00000390: 9d1c 4a33 ef95 3d33 f6f9 5433 2b05 2133
000003a0: 3982 3933 849a 2133 a8b9 1d33 cfc6 3733
000003b0: 1fc1 5233 c317 1a33 4c72 2133 fd0b 2633
000003c0: bd1f 2b33 8868 2a33 7040 2d33 fe7b 3033
000003d0: 2170 1a33 29b8 2633 2c72 3333 e4e6 4533
000003e0: 82f9 3833 58f2 5633 e8e2 5133 1fd4 1833
000003f0: 39dc c632 f7c6 0b33 0310 0433 0e5a ba32

exp_avg f4 [256]
1.8722689e-06 -2.0213981e-06 2.0355188e-05 6.702883e-05 -4.5807396e-06 5.6170284e-05 -9.782604e-06 -2.4649058e-05
6.2773324e-05 1.6047214e-05 1.1689138e-05 5.1582192e-05 -3.4072105e-05 1.0799781e-05 -8.323939e-06 2.2059725e-05
4.7004847e-05 2.736716e-05 3.519307e-05 6.585677e-05 -5.7537604e-06 1.497994e-05 6.5831737e-06 6.071409e-05
-4.2367603e-05 7.775667e-06 2.6594837e-06 2.047168e-05 3.2076845e-05 2.9671903e-05 8.868826e-06 -1.9012987e-05
2.3387915e-05 -2.9249908e-05 -7.1763225e-06 9.378895e-05 -2.4075522e-05 2.557029e-05 -2.1679913e-05 -2.5470377e-05
5.292111e-05 -6.2096487e-06 4.254587e-05 2.5121333e-05 1.5335685e-05 7.770375e-05 1.2954056e-05 5.618292e-06
-7.8818397e-07 3.0301737e-05 1.4633415e-05 -5.4598328e-05 -2.9205562e-06 8.0825055e-05 7.301873e-05 3.3980356e-05
1.0568927e-05 -1.1070718e-05 -1.6354126e-05 3.5075784e-05 4.7505226e-05 4.375198e-05 -9.01679e-06 -3.4692257e-05
-3.938109e-06 6.9256326e-05 1.6492666e-06 1.374721e-05 -2.0847578e-05 4.2888823e-07 2.8271204e-05 2.0849237e-05
4.5892113e-05 1.7495908e-05 -2.3427476e-05 3.9534196e-05 5.8450838e-05 -2.6019216e-05 2.480172e-05 1.5375614e-05
5.3838874e-05 5.991991e-06 1.3783021e-05 -1.1249889e-05 4.421151e-05 3.1143467e-05 2.3897778e-06 2.1951735e-05
-2.462121e-05 1.7924032e-05 8.389914e-06 6.352e-05 -1.9696365e-05 6.7660453e-06 6.437982e-05 -1.0011987e-06
5.2411076e-05 -3.0445299e-05 -1.7154965e-05 5.4670647e-05 4.6229976e-05 4.9206534e-05 8.068155e-07 -1.0677674e-05
-5.173436e-06 3.296444e-05 8.1100125e-06 7.166322e-05 1.3277663e-05 7.693437e-06 -1.2933185e-05 6.408314e-05
-2.7451759e-05 -8.281839e-06 -1.8333747e-05 -1.8688546e-06 6.673535e-06 1.159938e-05 -4.607038e-06 7.172882e-07
4.891099e-05 7.103709e-05 -1.4969415e-06 7.218067e-05 4.5155113e-05 3.8059665e-05 1.1182489e-05 -4.726502e-05
-9.984035e-06 -1.8531975e-05 4.7932932e-05 2.8085997e-05 2.5453563e-05 3.8621645e-05 2.313597e-06 1.7876126e-05
-1.4347049e-05 1.7848897e-05 1.0999481e-05 2.4110688e-05 -3.3979853e-05 9.638228e-06 9.442042e-06 7.979568e-06
-1.1316449e-05 3.1399527e-06 4.4577337e-05 6.9127935e-05 2.9248065e-05 6.33392e-05 1.2883896e-05 1.5706331e-05
5.589677e-05 -3.7528655e-05 3.858414e-08 -1.01704345e-05 3.898002e-05 -3.7548489e-06 5.1946336e-05 -3.5242717e-06
8.100781e-06 -1.6792283e-05 4.821564e-05 -1.9924226e-05 6.73186e-05 2.2062106e-05 1.9819072e-05 6.4442014e-05
1.013908e-05 2.5462863e-05 3.2570213e-05 1.854823e-05 -4.2109077e-05 -2.5829393e-06 1.7193379e-05 2.0050586e-05
4.9518374e-05 1.8211736e-05 2.805201e-05 5.0992578e-05 -1.3654351e-05 3.6027366e-05 3.3127024e-05 5.510795e-05
1.16418005e-05 6.224627e-05 1.01688875e-05 5.6077188e-05 6.200055e-06 8.123189e-06 5.058829e-06 -2.2500388e-05
4.016956e-06 3.2008556e-05 3.842816e-05 1.0008947e-06 -2.1038615e-05 -2.9322991e-05 3.1247026e-05 -2.5747046e-05
2.3510495e-06 -5.586975e-07 2.6902639e-05 -2.7768197e-05 2.1088113e-05 7.75242e-05 -1.2481441e-05 7.3015626e-06
7.255493e-05 2.8908455e-05 -1.4981031e-05 -3.700404e-05 -1.6725811e-05 6.2531006e-05 1.0886104e-05 1.5348888e-06
5.557795e-05 1.6189932e-05 3.891249e-05 1.3420215e-05 2.3601047e-05 4.6025227e-05 -1.1984975e-05 8.37274e-06
1.023013e-05 -3.0232128e-05 5.2232194e-06 1.7353144e-05 5.042374e-05 2.9302051e-05 -8.626741e-07 4.267546e-05
7.572676e-05 -2.7195904e-06 -4.4052917e-06 6.0760285e-06 -3.4645294e-05 -1.0457464e-05 1.4996734e-05 1.8339793e-05
4.604823e-05 5.7794605e-05 -4.9689803e-05 -1.288336e-06 8.452612e-05 5.0871775e-05 1.0660852e-05 1.0805713e-05
6.394403e-05 7.5178577e-06 3.81275e-05 2.4082188e-05 -1.1593099e-06 -1.4452902e-06 2.4469837e-05 5.41035e-06
00000000: ab4a fb35 5ba7 07b6 6fc0 aa37 d491 8c38
00000010: 41b4 99b6 6298 6b38 f71f 24b7 73c5 ceb7
00000020: 2ca5 8338 219d 8637 771c 4437 f559 5838
00000030: a5e8 0eb8 b530 3537 0ca7 0bb7 e60c b937
00000040: 1227 4538 8792 e537 459c 1338 961c 8a38
00000050: 6d10 c1b6 5a52 7b37 08e5 dc36 42a7 7e38
00000060: deb3 31b8 3c74 0237 9579 3236 99ba ab37
00000070: 408a 0638 ede7 f837 51cb 1437 147e 9fb7
00000080: 2a31 c437 b35d f5b7 24cc f0b6 8fb0 c438
00000090: caf5 c9b7 c87f d637 42dd b5b7 38a9 d5b7
000000a0: 9cf7 5d38 7a5c d0b6 4873 3238 a7bb d237
000000b0: 22a5 8037 e2f4 a238 3f55 5937 c384 bc36
000000c0: 9793 53b5 7c30 fe37 0a82 7537 8200 65b8
000000d0: c6fe 43b6 9f80 a938 a221 9938 2186 0e38
000000e0: 3251 3137 5fbc 39b7 3830 89b7 561e 1338
000000f0: 5940 4738 5582 3738 d146 17b7 8782 11b8
00000100: 1924 84b6 b53d 9138 5e5c dd35 d1a3 6637
00000110: d5e1 aeb7 f341 e634 f327 ed37 65e5 ae37
00000120: 487c 4038 2dc4 9237 1f86 c4b7 85d1 2538
00000130: 1c29 7538 d743 dab7 4a0d d037 e1fa 8037
00000140: 0dd1 6138 d00e c936 a03d 6737 e8bd 3cb7
00000150: bf6f 3938 0ba0 0238 1260 2036 fe24 b837
00000160: a589 ceb7 915b 9637 68c2 0c37 0a36 8538
00000170: 9f39 a5b7 e307 e336 a703 8738 ed60 86b5
00000180: f7d3 5b38 c864 ffb7 02e8 8fb7 294e 6538
00000190: 0fe7 4138 1d63 4e38 f093 5835 4324 33b7
000001a0: 7a97 adb6 4c43 0a38 3d10 0837 e649 9638
000001b0: 21c3 5e37 0f13 0137 9bfb 58b7 6064 8638
000001c0: 3448 e6b7 3af2 0ab7 6ccb 99b7 5bd5 fab5
000001d0: 3bed df36 f59a 4237 2896 9ab6 ab8b 4035
000001e0: c725 4d38 bff9 9438 85ea c8b5 b45f 9738
000001f0: ef64 3d38 41a2 1f38 6d9c 3b37 6e3e 46b8
00000200: 1b81 27b7 1d75 9bb7 980b 4938 389a eb37
00000210: 1c85 d537 adfd 2138 4b43 1b36 b0f4 9537
00000220: 1bb4 70b7 37ba 9537 698a 3837 4f41 ca37
00000230: 9785 0eb8 e0b3 2137 4369 1e37 fcdf 0537
00000240: c7db 3db7 fab7 5236 8df8 3a38 c7f8 9038
00000250: be59 f537 f9d4 8438 e927 5837 17c1 8337
00000260: b372 6a38 1668 1db8 b6b7 2533 afa1 2ab7
00000270: 7a7e 2338 d0fb 7bb6 f4e0 5938 8782 6cb6
00000280: 97e8 0737 27dd 8cb7 263b 4a38 f322 a7b7
00000290: 662d 8d38 0312 b937 2241 a637 0b25 8738
000002a0: 041b 2a37 1599 d537 009c 0838 0598 9b37
000002b0: 479e 30b8 8f56 2db6 803a 9037 4e32 a837
000002c0: f3b1 4f38 68c5 9837 3c51 eb37 dde0 5538
000002d0: fe14 65b7 171c 1738 dff1 0a38 b623 6738
000002e0: 2751 4337 368a 8238 0a9b 2a37 6c34 6b38
000002f0: 110a d036 d548 0837 03bf a936 37bf bcb7
00000300: 64c9 8636 ed40 0638 ec2d 2138 7b56 8635
00000310: 157c b0b7 a5fa f5b7 3d0f 0338 5cfb d7b7
00000320: b9c6 1d36 66f9 15b5 faac e137 c0ef e8b7
00000330: 61e6 b037 7d94 a238 6267 51b7 f2ff f436
00000340: a228 9838 6f80 f237 0a57 7bb7 c934 1bb8
00000350: 684e 8cb7 1423 8338 76a3 3637 6102 ce35
00000360: 5f1c 6938 9dcf 8737 f835 2338 6227 6137
00000370: ddfa c537 360b 4138 1313 49b7 a578 0c37
00000380: 13a2 2b37 009b fdb7 1d43 af36 9891 9137
00000390: 147e 5338 adcd f537 8392 67b5 6dfe 3238
000003a0: 7fcf 9e38 3582 36b6 2bd1 93b6 b0e0 cb36
000003b0: 1a50 11b8 7772 2fb7 7b9a 7b37 68d8 9937
000003c0: e923 4138 7c68 7238 056a 50b8 e3ea acb5
000003d0: 9d43 b138 275f 5538 03dc 3237 2f4a 3537
000003e0: b119 8638 e841 fc36 17eb 1f38 1b04 ca37
000003f0: 9699 9bb5 cbfb c1b5 9344 cd37 8d8a b536

exp_avg_sq f4 [256]
2.5853616e-08 2.353053e-08 2.4394545e-08 3.568174e-08 2.4029163e-08 2.9455574e-08 3.1308684e-08 2.8886415e-08
3.3281538e-08 3.2121715e-08 2.4156654e-08 2.9894693e-08 3.0176324e-08 2.488959e-08 3.807264e-08 3.2005033e-08
3.0302367e-08 2.7591184e-08 2.7926825e-08 3.6796216e-08 2.7421432e-08 2.959745e-08 2.982492e-08 3.6783877e-08
3.233601e-08 3.568205e-08 2.7012206e-08 2.7276105e-08 3.3242422e-08 2.9076796e-08 2.1207319e-08 2.505786e-08
2.7145846e-08 3.1229128e-08 2.2951795e-08 4.2306976e-08 3.0556226e-08 2.9373695e-08 3.1200248e-08 2.8168937e-08
3.567311e-08 2.3147335e-08 3.967022e-08 3.415775e-08 3.2991156e-08 3.5707586e-08 2.9654851e-08 2.867821e-08
2.5495073e-08 3.039453e-08 2.6739743e-08 3.8019007e-08 2.4160178e-08 3.033028e-08 2.9549094e-08 2.1067468e-08
2.0411472e-08 2.7924628e-08 2.9937937e-08 4.6430973e-08 3.5046767e-08 2.7257798e-08 2.9783457e-08 3.4611787e-08
2.878649e-08 3.356009e-08 2.7063463e-08 2.4429253e-08 3.0690977e-08 2.9636368e-08 3.0114066e-08 2.4028026e-08
3.0851677e-08 1.9196907e-08 3.1572903e-08 2.6846726e-08 3.4024044e-08 2.7108756e-08 3.8742403e-08 3.3406895e-08
3.514641e-08 2.7459153e-08 2.7971303e-08 2.5248037e-08 2.8592678e-08 3.8554223e-08 2.2740188e-08 2.5000984e-08
2.6981557e-08 2.7652328e-08 2.8424079e-08 2.311317e-08 3.0393107e-08 2.7385147e-08 3.485992e-08 2.8697658e-08
2.8269566e-08 3.2635842e-08 3.451031e-08 2.9865614e-08 4.292016e-08 3.0132412e-08 3.396255e-08 2.616224e-08
1.7765599e-08 2.9047907e-08 2.6761477e-08 3.4854715e-08 3.1532604e-08 3.183829e-08 2.3494756e-08 3.618333e-08
3.8197047e-08 2.5916751e-08 2.3259977e-08 2.8170222e-08 2.365109e-08 2.9493442e-08 2.8454577e-08 3.3257805e-08
2.5440906e-08 3.2150847e-08 3.3858203e-08 2.8482347e-08 3.3754226e-08 2.4613287e-08 2.7627701e-08 4.672141e-08
2.8636114e-08 2.9398155e-08 3.489145e-08 2.8958016e-08 3.6277655e-08 3.892048e-08 3.343267e-08 3.7343316e-08
2.6423821e-08 1.8507246e-08 3.2049797e-08 3.5682632e-08 3.185137e-08 3.0974107e-08 2.6595941e-08 3.3506044e-08
2.4505797e-08 4.1122927e-08 3.8194358e-08 2.9739015e-08 2.57032e-08 3.1690515e-08 2.8707973e-08 3.1087115e-08
3.3081285e-08 3.6047485e-08 2.3739231e-08 3.2077985e-08 2.6012508e-08 3.3759093e-08 3.1248433e-08 2.1723366e-08
3.240965e-08 3.1589405e-08 2.9593133e-08 3.32926e-08 2.9311582e-08 2.111394e-08 2.8188564e-08 3.0207918e-08
3.0624207e-08 3.2018896e-08 3.961094e-08 3.5932533e-08 2.5801643e-08 3.2035445e-08 3.0817183e-08 2.2542059e-08
2.9065978e-08 2.1252719e-08 2.6894304e-08 2.5176892e-08 2.6218888e-08 2.6248353e-08 2.2246303e-08 2.7129312e-08
3.4957846e-08 3.2976214e-08 2.8774556e-08 3.2301323e-08 2.84483e-08 2.9227362e-08 2.9768406e-08 4.18166e-08
2.9597057e-08 2.980563e-08 3.0609634e-08 2.3945697e-08 3.565799e-08 2.9529211e-08 2.5918265e-08 2.9977702e-08
2.8248596e-08 3.3742346e-08 3.2223376e-08 4.1980893e-08 4.18728e-08 3.6568913e-08 2.6249115e-08 2.263035e-08
4.120145e-08 2.8042004e-08 1.6460099e-08 3.9621757e-08 2.550881e-08 3.0510773e-08 4.2227697e-08 2.3776323e-08
3.280977e-08 2.6395835e-08 2.6133828e-08 2.5452179e-08 3.177105e-08 4.0803247e-08 3.128975e-08 2.5596844e-08
3.777985e-08 3.2057113e-08 3.547813e-08 2.8184864e-08 3.7368487e-08 3.1022438e-08 2.9804145e-08 2.2899949e-08
3.3259493e-08 3.9519357e-08 3.263228e-08 3.1947113e-08 4.1805155e-08 3.00418e-08 3.7769595e-08 2.2067082e-08
2.5803404e-08 2.743775e-08 4.46756e-08 3.4993487e-08 2.8453023e-08 2.6540457e-08 2.494848e-08 2.6389655e-08
3.6954688e-08 2.98832e-08 3.6367677e-08 3.211972e-08 2.8159294e-08 2.62881e-08 2.8667376e-08 3.05523e-08
00000000: b414 de32 2f20 ca32 2c8c d132 7d40 1933
00000010: b068 ce32 7e05 fd32 4378 0633 e621 f832
00000020: 70f1 0e33 33f6 0933 0b81 cf32 9065 0033
00000030: 389b 0133 cacc d532 4f85 2333 e875 0933
00000040: ce25 0233 a801 ed32 bde3 ef32 de09 1e33
00000050: 5e8c eb32 7b3d fe32 d918 0033 4dfc 1d33
00000060: d2e1 0a33 d440 1933 7808 e832 ca4c ea32
00000070: 6ec6 0e33 8dc4 f932 632b b632 d13e d732
00000080: 592e e932 ca20 0633 8827 c532 03b5 3533
00000090: ed3c 0333 7051 fc32 0901 0633 26f8 f132
000000a0: 0037 1933 87d5 c632 de61 2a33 d8b4 1233
000000b0: 29b2 0d33 e85c 1933 b5bb fe32 0d58 f632
000000c0: 4200 db32 248b 0233 51b1 e532 574a 2333
000000d0: cb88 cf32 7f44 0233 25d3 fd32 daf7 b432
000000e0: 4d55 af32 e8de ef32 1c95 0033 656b 4733
000000f0: 5486 1633 8824 ea32 84d6 ff32 10a8 1433
00000100: 2946 f732 b623 1033 2f79 e832 7fd8 d132
00000110: 16d1 0333 1093 fe32 c456 0133 3066 ce32
00000120: c781 0433 72e6 a432 c69a 0733 939c e632
00000130: d521 1233 c9dc e832 b965 2633 457b 0f33
00000140: e3f3 1633 51df eb32 8c45 f032 05e1 d832
00000150: f79b f532 d196 2533 3456 c332 bfc1 d632
00000160: 12c5 e732 1d88 ed32 3629 f432 668a c632
00000170: 9389 0233 933c eb32 e3b8 1533 d182 f632
00000180: 6fd5 f232 7d2b 0c33 7d38 1433 9745 0033
00000190: 3757 3833 f06a 0133 38de 1133 60bb e032
000001a0: f79a 9832 0685 f932 1ce1 e532 2ab3 1533
000001b0: 776e 0733 92be 0833 84d1 c932 fe67 1b33
000001c0: 190e 2433 8a9f de32 3bcd c732 f9fa f132
000001d0: 4c29 cb32 c458 fd32 476c f432 58d7 0e33
000001e0: 2589 da32 3b16 0a33 7d6b 1133 58a9 f432
000001f0: 2af9 1033 316d d332 f551 ed32 bcaa 4833
00000200: 7bfb f532 3a87 fc32 8edb 1533 5abf f832
00000210: b4cf 1b33 8529 2733 9c97 0f33 6963 2033
00000220: 99fa e232 ddf9 9e32 20a7 0933 7841 1933
00000230: f4cc 0833 6408 0533 1875 e432 49e8 0f33
00000240: d180 d232 239f 3033 240b 2433 c974 ff32
00000250: efc9 dc32 171c 0833 8099 f632 a584 0533
00000260: 4215 0e33 a1d2 1a33 1feb cb32 1ec6 0933
00000270: 1c72 df32 84fe 1033 0436 0633 309a ba32
00000280: c932 0b33 ebac 0733 fd33 fe32 9afd 0e33
00000290: dac8 fb32 0c5e b532 4f23 f232 f5bd 0133
000002a0: ac87 0333 2685 0933 b020 2a33 3d54 1a33
000002b0: 6aa2 dd32 5897 0933 da5b 0433 83a2 c132
000002c0: c3ac f932 398f b632 3305 e732 9244 d832
000002d0: f237 e132 bd78 e132 2318 bf32 fd09 e932
000002e0: 8f24 1633 bba1 0d33 eb2b f732 aebb 0a33
000002f0: 795e f432 a60f fb32 6bb5 ff32 d799 3333
00000300: 9e3c fe32 a303 0033 a677 0333 25b1 cd32
00000310: 6026 1933 6ca7 fd32 dea2 de32 d5c0 0033
00000320: 52a7 f232 1aec 1033 fa65 0a33 7b4e 3433
00000330: a1d7 3333 f20f 1d33 6a7a e132 aa64 c232
00000340: 79f5 3033 05e1 f032 2464 8d32 952c 2a33
00000350: 771e db32 f30a 0333 d85d 3533 b03c cc32
00000360: b9ea 0c33 0ebd e232 e57c e032 efa1 da32
00000370: a474 0833 a53f 2f33 7263 0633 0ee0 db32
00000380: 6243 2233 2baf 0933 9e60 1833 2c1b f232
00000390: 167f 2033 883d 0533 0102 0033 85b5 c432
000003a0: 33d9 0e33 febb 2933 9227 0c33 3936 0933
000003b0: 418d 3333 4f07 0133 1c38 2233 078e bd32
000003c0: 49a6 dd32 40b0 eb32 57e1 3f33 bf4b 1633
000003d0: dc68 f432 15fb e332 4a4e d632 77af e232
000003e0: 1cb8 1e33 ed58 0033 af32 1c33 01f4 0933
000003f0: f1e2 f132 25d0 e132 3a40 f632 9c38 0333
