mcao/neural/unsupervised/trained/2019-02-08-12:19:52.pth (torch_old, 835359 bytes, 12 tensors)

layer1.weight f4 [256, 210]
-0.04275937 0.053464066 -0.04371543 0.04040554 0.053224843 0.06726171 0.011268807 0.029953541
0.06334938 0.037148457 0.0012621658 0.042553645 0.006587373 -0.009062454 0.011580949 -0.0014928353
0.021824535 0.079279706 -0.020185022 -0.0033624026 0.081525035 0.047271322 0.07656459 0.05756561
0.017300658 -0.072478406 0.06711176 0.01990569 0.050952975 0.011913816 0.05802089 -0.06292524
-0.042317864 -0.07579038 0.04538172 0.027122516 0.05080801 -0.022975355 0.014286327 0.0321455
-0.0340039 0.049094535 -0.005241879 -0.07934281 0.051981237 0.02451767 -0.024846775 -0.009631007
-0.02394616 -0.057331253 0.09059034 -0.08680001 -0.030629175 -0.015885035 -0.023463521 -0.03410645
0.01675041 -0.014376261 0.041972075 -0.0017660869 0.066217735 -0.017240813 0.014969603 -0.052463528
0.017557075 0.042105533 -0.038458277 -0.039973915 0.017764172 0.047101088 -0.0017104802 -0.0378473
0.10119356 0.09901384 -0.024487624 0.042558853 -0.0066248495 -0.06571455 -0.073344804 -0.08548147
-0.03172882 -0.0798048 0.029806122 -0.011865747 -0.02725134 -0.051412415 -0.06186242 -0.10550298
-0.07810035 -0.036942866 -0.008368328 -0.07848451 -0.025037851 -0.09199917 0.059982147 -0.07105933
-0.08611199 0.07218055 0.00958694 -0.06131412 -0.035817277 -0.039365858 -0.08561772 0.0040006526
0.014461939 0.07989642 0.030803608 0.06557928 0.054546792 -0.0059637125 0.02376902 0.10000006
0.009991022 0.041873723 0.06682094 -0.07215422 -0.000721103 0.03215563 -0.10611124 0.039323047
-0.005459974 0.08833858 -0.0060103806 -0.004025737 0.03503549 0.06464565 -0.030508107 -0.019973475
-0.06426731 0.06985805 0.041785453 0.024912732 0.048717625 -0.08350405 -0.07599197 -0.05537465
-0.065779045 -0.01973313 -0.033387434 0.007622613 -0.0067808796 -0.10195606 -0.03931135 -0.045780297
0.05766669 -0.0042889523 -0.02628495 0.013622327 -0.065268576 -0.037375975 -0.02254825 -0.131946
-0.025548069 -0.00027387153 0.06678924 0.051520433 0.048952788 0.011921908 0.06297133 0.0042837933
-0.03191868 0.00034592042 -0.07820299 0.00857154 0.0099926675 0.042183965 -0.07232027 -0.025134156
0.013124285 0.018024668 -0.058459826 -0.0027663847 0.023632845 -0.07156909 -0.030973986 -0.0057360507
-0.05736202 0.004480383 0.007940888 0.059145205 -0.009770823 -0.009138066 0.010995733 -0.021195909
-0.053133223 -0.019785997 -0.10688136 -0.089708686 -0.017849563 0.037081 -0.017805124 -0.051795647
-0.08546917 -0.09012694 0.026090154 -0.08941533 -0.045060497 -0.08106482 0.0043074163 -0.014012573
0.048162557 0.017460171 0.026485706 0.022176098 0.032894865 0.03577386 -0.058202144 -0.008148134
0.018618478 -0.0010752524 -0.08585385 0.033850074 0.02146916 0.028937481 0.003674966 -0.08502182
0.034250617 -0.061329935 -0.015987942 0.010425551 -0.005014424 -0.013233343 -0.061164755 0.0047294796
-0.072308026 0.063477196 0.034498334 0.0015107758 -0.012507887 -0.0032409534 -0.0056379284 -0.018644366
0.0817205 -0.01839461 0.005859791 0.03498641 0.07819732 -0.034294102 -0.045010686 0.036549833
-0.0389754 0.029898912 0.04630833 -0.0010652362 0.022421777 0.026221426 -0.07083857 -0.008487592
-0.01899125 0.076284476 0.024231723 0.014758011 0.03935057 0.061713118 0.06053514 0.07154266
00000000: 7324 2fbd 23fd 5a3d f30e 33bd 4880 253d
00000010: 4b02 5a3d 82c0 893d cda0 383c 2161 f53c
00000020: 52bd 813d fb28 183d 426f a53a bb4c 2e3d
00000030: e4da d73b b07a 14bc 05be 3d3c 3eab c3ba
00000040: 5ec9 b23c 665d a23d 0f5b a5bc c15b 5cbb
00000050: 99f6 a63d 939f 413d e5cd 9c3d ebc9 6b3d
00000060: 1cba 8d3c 8f6f 94bd e471 893d 4211 a33c
00000070: 11b4 503d 2b32 433c 50a7 6d3d f3de 80bd
00000080: 7f55 2dbd fd37 9bbd 2fe2 393d 0a30 de3c
00000090: 0f1c 503d d036 bcbc 3311 6a3c 00ab 033d
000000a0: ac47 0bbd 5a17 493d 11c4 abbb 7c7e a2bd
000000b0: 47ea 543d 48d9 c83c 778b cbbc 5fcb 1dbc
000000c0: bd2a c4bc 2dd4 6abd 6e87 b93d 34c4 b1bd
000000d0: 09ea fabc 5521 82bc 9236 c0bc 34b3 0bbd
000000e0: 2838 893c 698a 6bbc e9ea 2b3d 0b7c e7ba
000000f0: 2a9d 873d 9b3c 8dbc 1143 753c ffe3 56bd
00000100: dbd3 8f3c da76 2c3d 6d86 1dbd b0bb 23bd
00000110: 2b86 913c 12ed 403d 3132 e0ba c505 1bbd
00000120: 923e cf3d c5c7 ca3d 459a c8bc 3152 2e3d
00000130: 4415 d9bb 5a95 86bd cd35 96bd e910 afbd
00000140: 14f6 01bd b370 a3bd f82b f43c 8d68 42bc
00000150: 343e dfbc d395 52bd 7363 7dbd f211 d8bd
00000160: 14f3 9fbd 6751 17bd 501b 09bc 7dbc a0bd
00000170: 2e1c cdbc 106a bcbd d7af 753d 8e87 91bd
00000180: 7c5b b0bd 65d3 933d 8a12 1d3c 8424 7bbd
00000190: 23b5 12bd 183e 21bd 5858 afbd e817 833b
000001a0: c5f1 6c3c bca0 a33d d957 fc3c 6e4e 863d
000001b0: 756c 5f3d 3f6b c3bb 3fb7 c23c d5cc cc3d
000001c0: 62b1 233c c883 2b3d 6bd9 883d 97c5 93bd
000001d0: 6708 3dba 9fb5 033d da50 d9bd 3411 213d
000001e0: 95e9 b2bb dcea b43d baf2 c4bb 54ea 83bb
000001f0: 6081 0f3d f064 843d 23ec f9bc 6a9f a3bc
00000200: 949e 83bd bd11 8f3d 3927 2b3d c915 cc3c
00000210: 228c 473d 2c04 abbd aea1 9bbd 87d0 62bd
00000220: 2ab7 86bd 5fa7 a1bc 43c1 08bd 1dc7 f93b
00000230: 2432 debb 57ce d0bd f004 21bd 1f84 3bbd
00000240: e833 6c3d 578a 8cbb 8953 d7bc 2e30 5f3c
00000250: 88ab 85bd 8d17 19bd 1cb7 b8bc da1c 07be
00000260: 2f4a d1bc 6a96 8fb9 ccc8 883d 1707 533d
00000270: b882 483d 1b54 433c 1df7 803d 105f 8c3b
00000280: 29bd 02bd a75c b539 e428 a0bd a56f 0c3c
00000290: 49b8 233c 18c9 2c3d a61c 94bd 25e6 cdbc
000002a0: 3e07 573c 78a8 933c 9273 6fbd 3c4c 35bb
000002b0: ab99 c13c d192 92bd 28bd fdbc 7bf5 bbbb
000002c0: 70f4 6abd 2dd0 923b 801a 023c 3e42 723d
000002d0: cd15 20bc d4b7 15bc 7227 343c 0ba3 adbc
000002e0: 39a2 59bd 3e16 a2bc 9de4 dabd 30b9 b7bd
000002f0: 3f39 92bc 3fe2 173d 0ddc 91bc ac27 54bd
00000300: 760a afbd 7994 b8bd 05bb d53c 621f b7bd
00000310: 5b91 38bd 5005 a6bd 3a25 8d3b fe94 65bc
00000320: 1a46 453d a208 8f3c 8df8 d83c a6aa b53c
00000330: c4bc 063d 9c87 123d 5f65 6ebd c07f 05bc
00000340: c785 983c 7cef 8cba 25d4 afbd 60a6 0a3d
00000350: 18e0 af3c 4c0e ed3c b3d7 703b ec1f aebd
00000360: 604a 0c3d 1935 7bbd 25f9 82bc eecf 2a3c
00000370: 0a50 a4bb aad0 58bc e587 7abd c0f9 9a3b
00000380: 3b16 94bd 5500 823d 204e 0d3d 3905 c63a
00000390: e1ed 4cbc 2d66 54bb 5fbe b8bb 12bc 98bc
000003a0: 145d a73d 4bb0 96bc 7d03 c03b e94d 0f3d
000003b0: eb25 a03d f977 0cbd 205d 38bd 47b5 153d
000003c0: aba4 1fbd 90ee f43c cead 3d3d 659f 8bba
000003d0: e0ad b73c 51ce d63c d013 91bd 8b0f 0bbc
000003e0: 8a93 9bbc 093b 9c3d 9b81 c63c 96cb 713c
000003f0: 102e 213d e5c6 7c3d b2f3 773d f584 923d

layer1.bias f4 [256]
0.17558068 0.21342307 0.13115983 0.09489362 0.13149516 0.08793164 0.15578672 0.09308362
0.10558539 0.14167038 0.12340933 0.09928776 0.07178411 0.16221142 0.07755804 0.1423264
0.057514682 0.058890905 0.08273385 0.17721814 0.16660643 0.10058191 0.111528724 0.17543076
0.11916896 0.13548045 0.18655613 0.15738524 0.08612299 0.10454373 0.117743604 0.09871842
0.050609395 0.09290457 0.1672009 0.18408322 0.16014744 0.1678677 0.1425299 0.16269915
0.14860006 0.15434948 0.17150553 0.16264448 0.15728712 0.06646688 0.17532343 0.20105894
0.2071406 0.10887111 0.08072044 0.1975104 0.08068602 0.09986097 0.17834279 0.05520292
0.15948093 0.08138516 0.11045119 0.039286803 0.18415008 0.12980333 0.11396514 0.12406174
0.15288185 0.108748406 0.14214754 0.06752489 0.17307511 0.10001982 0.07922813 0.15495943
0.17853674 0.16075888 0.14546102 0.11830785 0.13579121 0.19465823 0.11171775 0.18684013
0.20137112 0.15943398 0.16437294 0.071924105 0.0656637 0.20704715 0.11480269 0.10218077
0.11724835 0.16133544 0.12064675 0.19361345 0.16271362 0.05558207 0.09122391 0.12641884
0.09238583 0.15080892 0.08286953 0.19242503 0.17988281 0.1334592 0.08878394 0.20403862
0.14744505 0.13210262 0.1373949 0.08319313 0.07298262 0.09564336 0.101631336 0.17084213
0.15948096 0.19642244 0.040603373 0.123501986 0.1867515 0.16825235 0.056926798 0.12045176
0.11019064 0.050523903 0.09136627 0.0947804 0.15849933 0.10566908 0.12328569 0.13546884
0.10782096 0.18501171 0.110224664 0.120673224 0.16997667 0.07297804 0.10878268 0.10656999
0.096624225 0.16120939 0.1720917 0.1396294 0.12689237 0.1089076 0.094994724 0.079911366
0.15665647 0.19386686 0.057663284 0.122338764 0.11644522 0.117077 0.16309181 0.11111241
0.11169429 0.18833311 0.14129736 0.21965875 0.15698515 0.1366527 0.12372495 0.10628846
0.07800931 0.12615575 0.10791874 0.14322113 0.15659389 0.1814048 0.1943272 0.113802746
0.14733186 0.11982555 0.08975204 0.14187428 0.11394179 0.1248141 0.12438965 0.1264499
0.08348493 0.076579526 0.16894445 0.15135048 0.16521558 0.15711932 0.14356896 0.042301655
0.08092391 0.12871459 0.20037442 0.08846901 0.20461695 0.10591807 0.052643247 0.092766955
0.18811125 0.18182522 0.21512856 0.12647475 0.20721546 0.08007447 0.12655422 0.06430191
0.15016194 0.07939417 0.1765702 0.119395725 0.17156033 0.16952318 0.13918851 0.17744714
0.21306735 0.18032753 0.07222972 0.1393398 0.11628426 0.15047698 0.15197432 0.13400845
0.16974767 0.16118133 0.211853 0.046702106 0.15338418 0.17452171 0.08405075 0.029918445
0.08572529 0.21815458 0.097769275 0.1621345 0.06141326 0.12158262 0.051699664 0.18367837
0.0658952 0.11698404 0.10699855 0.09902296 0.16282597 0.1301123 0.10302479 0.14472958
0.09098114 0.10911023 0.18117958 0.15609929 0.090396896 0.15135674 0.13589822 0.16914588
0.14982577 0.13325825 0.05886632 0.16934568 0.115996495 0.20768036 0.086601876 0.14455603
00000000: 6ccb 333e 948b 5a3e c34e 063e 9657 c23d
00000010: aba6 063e 8115 b43d 8e86 1f3e a0a2 be3d
00000020: 273d d83d 0a12 113e 08be fc3d 6257 cb3d
00000030: 8c03 933d c01a 263e c0d6 9e3d 03be 113e
00000040: 8494 6b3d 9737 713d 5d70 a93d ac78 353e
00000050: e09a 2a3e e3fd cd3d 2c69 e43d 1fa4 333e
00000060: db0e f43d 63bb 0a3e 9208 3f3e 9929 213e
00000070: 4061 b03d 061b d63d 8f23 f13d e22c ca3d
00000080: cc4b 4f3d c044 be3d b636 2b3e 5080 3c3e
00000090: b1fd 233e 83e5 2b3e 5cf3 113e 9b9a 263e
000000a0: 9d2a 183e ca0d 1e3e 259f 2f3e 468c 263e
000000b0: e00f 213e ca1f 883d fc87 333e 65e2 4d3e
000000c0: aa1c 543e d1f7 de3d c250 a53d 2b40 4a3e
000000d0: b63e a53d e983 cc3d 7e9f 363e 751c 623d
000000e0: f84e 233e 43ad a63d 3c34 e23d 33eb 203d
000000f0: d791 3c3e 2aeb 043e 8e66 e93d 1514 fe3d
00000100: 0f8d 1c3e 7cb7 de3d 208f 113e 7d4a 8a3d
00000110: 9a3a 313e 31d7 cc3d 5c42 a23d afad 1e3e
00000120: 56d2 363e fa9d 243e bcf3 143e 634b f23d
00000130: da0c 0b3e 7d54 473e 47cc e43d 0553 3f3e
00000140: 3b34 4e3e a942 233e 6151 283e f24c 933d
00000150: b17a 863d 2b04 543e ac1d eb3d 2744 d13d
00000160: e71f f03d 1e35 253e a515 f73d 9b42 463e
00000170: 669e 263e 06aa 633d 9ad3 ba3d f173 013e
00000180: c834 bd3d a76d 1a3e 80b7 a93d 110b 453e
00000190: 3333 383e 87a9 083e 5bd4 b53d 80ef 503e
000001a0: d6fb 163e e945 073e 40b1 0c3e 2961 aa3d
000001b0: e977 953d aae0 c33d 1724 d03d 3df1 2e3e
000001c0: fa4e 233e f722 493e b94f 263d 9cee fc3d
000001d0: c93b 3f3e 584a 2c3e 132c 693d 6aaf f63d
000001e0: a1ab e13d 27f2 4e3d 3d1e bb3d 3a1c c23d
000001f0: a64d 223e 0869 d83d 357d fc3d 58b8 0a3e
00000200: 3cd1 dc3d b673 3d3e 78bd e13d 8623 f73d
00000210: 5d0e 2e3e 8375 953d 74c9 de3d 5e41 da3d
00000220: ece2 c53d 1314 253e ce38 303e 02fb 0e3e
00000230: 13f0 013e f30a df3d 988c c23d 92a8 a33d
00000240: 8e6a 203e 0985 463e 5630 6c3d bf8c fa3d
00000250: d57a ee3d 11c6 ef3d 8a01 273e e78e e33d
00000260: fabf e43d 65da 403e 41b0 103e 39ee 603e
00000270: b7c0 203e afee 0b3e 8263 fd3d c4ad d93d
00000280: 58c3 9f3d f92e 013e 8004 dd3d 8fa8 123e
00000290: 265a 203e 2ec2 393e b6fd 463e 6a11 e93d
000002a0: 2ade 163e 1967 f53d ebcf b73d 7e47 113e
000002b0: 505a e93d 899e ff3d 00c0 fe3d 157c 013e
000002c0: 26fa aa3d bad5 9c3d c6ff 2c3e 9ffb 1a3e
000002d0: 462e 293e e3e3 203e be03 133e 8044 2d3d
000002e0: 6fbb a53d c2cd 033e f42e 4d3e 3e2f b53d
000002f0: 1b87 513e 93eb d83d 72a0 573d 9afc bd3d
00000300: 3ca0 403e 6430 3a3e a94a 5c3e 9982 013e
00000310: 4a30 543e 15fe a33d 6e97 013e b8b0 833d
00000320: 0dc4 193e 6999 a23d d2ce 343e bf85 f43d
00000330: 83ad 2f3e 7c97 2d3e 6f87 0e3e b4b4 353e
00000340: 542e 5a3e c8a7 383e 2ded 933d 18af 0e3e
00000350: 7126 ee3d a316 1a3e 289f 1b3e 8339 093e
00000360: 55d2 2d3e b80c 253e feef 583e b54a 3f3d
00000370: be10 1d3e d2b5 323e cd22 ac3d 8717 f53c
00000380: be90 af3d ea63 5f3e 423b c83d 9606 263e
00000390: 788c 7b3d 4f00 f93d 07c3 533d 2f16 3c3e
000003a0: 10f4 863d 5495 ef3d 0e22 db3d 8dcc ca3d
000003b0: dabb 263e 293c 053e a9fe d23d fe33 143e
000003c0: 5254 ba3d 2f75 df3d 2487 393e 7ed8 1f3e
000003d0: 0222 b93d 43fd 1a3e e728 0b3e 9434 2d3e
000003e0: ed6b 193e da74 083e cf1d 713d f468 2d3e
000003f0: 928f ed3d 29aa 543e 535c b13d 7f06 143e

layer2.weight f4 [60, 256]
0.041979477 -0.035753943 -0.009923229 0.014432552 -0.053979844 0.027673015 0.041340496 0.081678994
-0.05219799 0.06570099 -0.0040514106 -0.0010942459 -0.026277991 0.026361734 -0.06049526 -0.07114545
0.03577226 0.005250818 -0.0014413142 0.030845173 -0.02864976 -0.040688913 0.022336606 0.054728057
0.015190101 -0.0131644225 0.020504167 0.030131312 0.026094051 0.005412559 0.012661288 -0.020936755
-0.058163635 -0.063641906 -0.014088472 -0.00615604 -0.006559933 -0.057204403 0.022670893 0.016262809
-0.02186953 0.036974218 -0.058176387 -0.049703684 -0.018312259 0.0037993588 0.034224633 -0.048488706
0.021189354 -0.03295076 0.05382306 0.0028797314 -0.03536031 -0.0149374 0.016017571 -0.03713704
0.010531708 -0.04043411 0.030779121 -0.023747398 -0.018278446 -0.07188252 -0.067658745 -0.06870245
-0.0107900705 -0.025324166 0.087254286 0.018133715 -0.04736377 -0.008713256 0.026022138 0.043936763
-0.05867182 -0.00047026863 0.05077289 0.00039259717 0.078192435 0.022219956 -0.054006975 0.093547575
0.012495774 0.06828519 -0.03446617 0.06345397 0.030011136 0.08069244 -0.023222163 0.018833555
0.029011652 -0.02255899 -0.0472497 -0.025066689 0.019405153 -0.049308177 0.015758166 -0.013891478
0.009514766 -0.017975437 -0.01927613 0.0070041073 -0.047652222 0.030060291 0.077703886 -0.035411127
0.030575022 0.02256601 -0.033188853 0.0122565795 0.013706843 -0.035472546 -0.0075896643 -0.0148536805
0.054406628 0.0012152573 0.021956583 0.046261508 0.0053630276 -0.007109902 0.010323708 0.030597512
0.018063352 0.017080886 0.054675017 0.0011397685 -0.05679983 0.039010122 -0.034045547 0.038314927
-0.038894217 -0.04488713 -0.041861415 -0.0066508646 0.045197934 0.03440517 -0.022303045 0.037569616
0.022710051 0.094279654 0.017490339 0.031886466 0.0023734965 0.07988957 0.072983414 0.036091894
-0.027685165 -0.01909736 -0.0035244923 -0.065977305 -0.04198588 0.055789895 0.037547097 -0.07520265
-0.0027257304 0.011727215 -0.070010684 0.03867546 -0.020098044 -0.005084051 -0.08935302 0.043608744
0.030934876 -0.061493177 -0.026376395 0.046375573 -0.009903072 0.026462754 -0.07727548 -0.009908448
-0.0052789007 -0.025011478 -0.062351152 -0.031605177 -0.019350007 0.04126731 -0.00877564 0.047823854
0.048161566 0.026341842 -0.01903345 -0.036202278 0.0033301406 -0.041614726 -0.041965652 0.03363888
-0.013169316 0.031082192 0.06109638 -0.04164259 0.007190173 -0.017205032 0.059919573 -0.0057287486
-0.03337316 -0.022279724 -0.0409909 0.034863446 0.031365756 -0.0064819204 -0.033547286 0.049095646
-0.036478486 0.049641475 -0.016532514 0.0032369802 0.0015916886 -0.057769578 -0.0029737654 -0.05947404
0.020744368 -0.03844121 -0.030823428 -0.054021597 0.010940142 0.00371288 0.0016179682 -0.036368422
-0.03621462 0.025314195 -0.024430376 0.009005618 0.035350554 0.0014905152 -0.007889495 -0.02412241
0.0365463 0.06588747 0.010658993 -0.025229076 0.045010615 0.08078772 0.04651718 0.046943754
-0.014934169 0.04838707 -0.034778427 -0.032694537 -0.027617754 0.013118751 0.017836154 -0.053604815
-0.07694776 0.016983796 -0.03535007 0.03811619 0.03590766 0.013170116 0.00952509 0.019331083
-0.027386542 -0.04640494 0.027071916 -0.048716754 -0.020498337 0.04838912 -0.011114996 -0.060741868
00000000: acf2 2b3d ba72 12bd 0a95 22bc 8376 6c3c
00000010: f819 5dbd 85b2 e23c a754 293d 5147 a73d
00000020: 8fcd 55bd 3e8e 863d b2c1 84bb cd6c 8fba
00000030: f144 d7bc 90f4 d73c e1c9 77bd b5b4 91bd
00000040: ef85 123d 0e0f ac3b 7bea bcba 04af fc3c
00000050: e7b2 eabc 6ba9 26bd 42fb b63c 872a 603d
00000060: e7df 783c 97af 57bc 5bf8 a73c f1d5 f63c
00000070: 31c3 d53c d65b b13b 4a71 4f3c 8f83 abbc
00000080: fe3c 6ebd b056 82bd 56d3 66bc 9bb8 c9bb
00000090: b5f4 d6bb 2a4f 6abd 4fb8 b93c 9539 853c
000000a0: bb27 b3bc 4772 173d 5d4a 6ebd 1796 4bbd
000000b0: 9703 96bc aafe 783b 212f 0c3d 189c 46bd
000000c0: 4c95 ad3c 60f7 06bd 9275 5c3d e0b9 3c3b
000000d0: f9d5 10bd ffbb 74bc 4837 833c 021d 18bd
000000e0: 2f8d 2c3c 3d9e 25bd 7f24 fc3c e789 c2bc
000000f0: aebc 95bc 2537 93bd ab90 8abd dfb3 8cbd
00000100: d6c8 30bc a074 cfbc 60b2 b23d 288d 943c
00000110: 8300 42bd 0bc2 0ebc 612c d53c 09f7 333d
00000120: dd51 70bd 638e f6b9 3cf7 4f3d 80d5 cd39
00000130: 5b23 a03d a006 b63c 6b36 5dbd df95 bf3d
00000140: 13bb 4c3c 1bd9 8b3d 662c 0dbd 28f4 813d
00000150: ead9 f53c 1442 a53d 683c bebc d448 9a3c
00000160: d8a9 ed3c a2cd b8bc e788 41bd a858 cdbc
00000170: 8ef7 9e3c 5ff7 49bd 4517 813c 1599 63bc
00000180: d2e3 1b3c 3941 93bc f9e8 9dbc b682 e53b
00000190: fa2e 43bd 0041 f63c 3723 9f3d 420b 11bd
000001a0: 7878 fa3c 5adc b83c 09f1 07bd d2cf 483c
000001b0: ab92 603c a94b 11bd b8b2 f8bb da5c 73bc
000001c0: 7cd9 5e3d 4549 9f3a 4bde b33c b57c 3d3d
000001d0: 56bc af3b 2efa e8bb c524 293c a2a7 fa3c
000001e0: 98f9 933c 37ed 8b3c e9f2 5f3d 4964 953a
000001f0: f0a6 68bd 14c9 1f3d 5873 0bbd 1df0 1c3d
00000200: 8b4f 1fbd 91db 37bd e076 2bbd 7fef d9bb
00000210: 7821 393d 6fec 0c3d e0b4 b6bc 99e2 193d
00000220: 6e0a ba3c b115 c13d e647 8f3c 629b 023d
00000230: aa8c 1b3b 259d a33d 5478 953d 18d5 133d
00000240: 00cc e2bc 1172 9cbc 2bfb 66bb 1c1f 87bd
00000250: 63f9 2bbd f283 643d fcca 193d d903 9abd
00000260: 2ba2 32bb 8123 403c c361 8fbd 296a 1e3d
00000270: a7a4 a4bc 1c98 a6bb b7fe b6bd 159f 323d
00000280: 236b fd3c 45e0 7bbd 4f13 d8bc 50f4 3d3d
00000290: 7f40 22bc 6bc8 d83c 9b42 9ebd 0b57 22bc
000002a0: a1fa acbb dfe4 ccbc ec63 7fbd 6e74 01bd
000002b0: e883 9ebc e907 293d b4c7 0fbc f2e2 433d
000002c0: 1045 453d d9ca d73c 0aec 9bbc d748 14bd
000002d0: 7d3e 5a3b 3474 2abd 2de4 2bbd ecc8 093d
000002e0: 1dc4 57bc 15a0 fe3c 3340 7a3d 6c91 2abd
000002f0: 8b9b eb3b 91f1 8cbc 3a6e 753d 3ab8 bbbb
00000300: 4bb2 08bd f883 b6bc 13e6 27bd f9cc 0e3d
00000310: 6179 003d 4a66 d4bb e168 09bd 8418 493d
00000320: 776a 15bd dc54 4b3d 326f 87bc 8423 543b
00000330: 35a0 d03a cb9f 6cbd 81e3 42bb 0d9b 73bd
00000340: 18f0 a93c 8874 1dbd 6a81 fcbc c045 5dbd
00000350: 483e 333c ca53 733b 0112 d43a 0ef7 14bd
00000360: c855 14bd b75f cf3c 3622 c8bc 4d8c 133c
00000370: becb 103d 645d c33a f142 01bc 5c9c c5bc
00000380: 93b1 153d 03f0 863d 0fa3 2e3c 35ad cebc
00000390: 0d5d 383d 0874 a53d cc88 3e3d 1848 403d
000003a0: 72ae 74bc 8531 463d d373 0ebd b5ea 05bd
000003b0: a13e e2bc 08f0 563c 201d 923c b990 5bbd
000003c0: ca96 9dbd 9a21 8b3c 3ccb 10bd b91f 1c3d
000003d0: e913 133d 78c7 573c 200f 1c3c 385c 9e3c
000003e0: be59 e0bc 1b13 3ebd ecc5 dd3c 388b 47bd
000003f0: 21ec a7bc ab33 463d ac1b 36bc 77cc 78bd

layer2.bias f4 [60]
0.024585424 0.046131425 -0.032958865 0.034670565 0.009935801 0.007509996 0.044973493 0.045549143
-0.038968783 -0.012145734 -0.015340941 0.0033378778 -0.025115201 -0.048664954 0.008199879 0.006222802
0.037837382 -0.027111942 -0.0067361807 -0.010100042 -0.021483768 0.048723623 -0.040365312 0.018494561
0.022873852 0.009649851 0.030383606 -0.050015163 0.045859374 0.028709669 -0.01934205 -0.0191073
0.0017271712 0.021658635 0.027382357 0.04768035 -0.0048204167 0.010565622 0.0387388 0.016167281
0.055452187 -0.0077834665 -0.021060629 -0.015031272 0.032846965 -0.034028795 0.020845944 0.00051335635
-0.04696028 0.01801739 0.017145818 0.056411114 -0.023400363 0.022192521 -0.020683344 -0.060278196
0.007363278 -0.014180154 -0.041080523 0.029594524
00000000: 5f67 c93c 4ef4 3c3d e0ff 06bd b902 0e3d
00000010: c5c9 223c 6a16 f63b 2036 383d bd91 3a3d
00000020: bb9d 1fbd e7fe 46bc 9258 7bbc 4cc0 5a3b
00000030: 65be cdbc e754 47bd c958 063c a6e8 cb3b
00000040: 5ffb 1a3d dd19 debc 2ebb dcbb a67a 25bc
00000050: bafe afbc 6c92 473d 1956 25bd e881 973c
00000060: f261 bb3c 691a 1e3c 0ae7 f83c b3dc 4cbd
00000070: 0ad7 3b3d 8a30 eb3c 3873 9ebc ea86 9cbc
00000080: 4062 e23a 736d b13c f750 e03c 784c 433d
00000090: 96f4 9dbb 6e1b 2d3c 93ac 1e3d 3f71 843c
000000a0: d521 633d 730c ffbb 5787 acbc b945 76bc
000000b0: 8a8a 063d c761 0bbd 1dc5 aa3c c392 063a
000000c0: 6c59 40bd 3599 933c 6375 8c3c 570f 673d
000000d0: 1eb2 bfbc 17cd b53c 1e70 a9bc 45e6 76bd
000000e0: a747 f13b e053 68bc 0d44 28bd 3770 f23c

exp_avg f4 [256, 210]
2.621767e-05 0.00020216256 0.00018367298 0.00010515858 0.0002552165 0.00021033868 0.00021559867 -7.7769284e-05
-0.00011871318 0.00017629002 0.00015410209 9.879318e-05 -1.47972605e-05 1.32159075e-05 -0.0001180592 -1.7023123e-05
-3.4885386e-05 -0.00010821204 1.4204432e-05 -2.1268876e-05 -3.902289e-05 -0.00013634312 -3.300656e-05 -0.0001321859
-0.00012066522 -0.00011755536 -0.00012672448 -8.387289e-05 -5.7091096e-05 4.7018093e-05 5.9388356e-05 9.303977e-05
7.9829914e-07 3.210291e-05 -2.4412147e-05 0.00014027834 -2.0784479e-05 -2.2370197e-05 0.000197313 8.5717205e-05
0.00013995157 9.580358e-05 0.00023747123 0.00018500784 0.00012415736 0.00010320611 0.00010258616 0.00011092839
0.000110355395 4.2147454e-05 0.00012218053 0.00010745914 5.309368e-05 -1.8162503e-06 3.5595673e-05 7.624704e-06
0.00011501558 0.000107166394 -7.7941164e-05 -1.8571151e-06 0.0001242451 6.0034286e-05 3.3532328e-05 -5.0624836e-05
-0.000106856016 -5.5022094e-05 -0.00023244116 9.254323e-05 -7.411849e-05 -4.271384e-05 9.7161465e-05 -3.3014487e-05
-6.4448766e-05 0.00010170824 0.00015238207 0.00011403022 1.122814e-05 -9.270866e-05 4.4878245e-05 -4.513323e-05
-2.7506325e-05 -9.358717e-05 -0.00011322504 -0.00011120308 -8.648382e-05 -6.995933e-05 -6.0709026e-05 3.7440794e-05
6.015855e-05 -0.00020713038 -8.443901e-05 6.2342656e-06 3.4692584e-06 6.986014e-05 0.00017168267 -4.3367207e-05
-2.182276e-07 0.00011309343 -1.0879209e-05 7.795331e-05 2.0771082e-05 3.0386933e-05 -4.5809364e-05 4.134621e-07
-4.9401297e-05 -9.644546e-06 2.9033413e-07 -5.9964917e-05 -0.00012699631 -8.636716e-05 -2.6269523e-05 -1.5107664e-05
1.4655302e-05 1.1235726e-05 2.5957832e-05 -1.5817815e-05 -4.3479624e-05 6.772614e-07 1.0546715e-07 -3.7236085e-05
8.2799725e-06 1.7311291e-05 -1.4755757e-05 -1.2121536e-05 -2.0243155e-05 -9.558809e-06 2.1266645e-05 2.3972423e-05
7.3382967e-06 -7.062432e-05 -0.000103951825 -2.5358502e-05 -2.2640705e-05 2.5287007e-05 -2.9989515e-05 -2.206829e-05
4.4545985e-05 0.00010321208 9.440426e-05 3.4002886e-05 4.4602246e-05 9.477103e-06 1.7427139e-05 6.2336825e-05
9.855569e-05 9.067328e-05 5.3078824e-05 7.796092e-06 2.5284891e-05 3.5897294e-05 2.6836964e-05 9.007764e-06
2.1889064e-06 1.7876517e-05 -3.402081e-05 -4.573771e-05 -5.5089404e-05 -5.4081043e-05 -4.520589e-05 -3.3311077e-05
-4.4162844e-05 5.9439688e-05 5.4634504e-05 6.299411e-05 7.242769e-05 8.0324025e-05 7.1468785e-05 6.7286746e-05
-1.0299574e-06 -9.984755e-07 -7.220764e-07 -2.6040777e-07 1.4668755e-06 -1.9158902e-07 -1.0452795e-06 -7.8917565e-06
-7.699651e-06 -8.105565e-06 -1.0183084e-05 -7.3484944e-06 -8.81291e-06 -9.822561e-06 -2.6191901e-05 -2.564724e-05
-2.5528541e-05 -2.5495787e-05 -2.4947247e-05 -2.5745077e-05 -2.5174839e-05 -1.7706134e-05 -1.7744605e-05 -1.7280941e-05
-1.8689123e-05 -1.9928419e-05 -1.729299e-05 -1.6679503e-05 6.559554e-06 6.6164134e-06 6.476932e-06 6.419886e-06
8.872143e-06 5.685383e-06 6.423762e-06 -2.506377e-06 -2.1071867e-06 -2.8619509e-06 -7.435537e-07 -1.2968509e-06
-1.6482909e-06 -2.1846085e-06 -1.6019869e-05 8.4938736e-05 3.6181034e-05 6.4172e-05 1.6049971e-05 -5.7372334e-05
0.00013445338 -0.00015263952 -5.444613e-05 2.3906914e-05 1.4789409e-05 -0.0002468732 1.094458e-05 -0.00010636266
0.00020808344 9.6045005e-05 3.524264e-05 7.504301e-05 0.00018191285 0.00017536254 0.00023759773 -6.3311454e-05
8.196336e-05 -0.000109191365 -7.733606e-05 4.2161548e-05 7.298993e-05 0.00014762829 0.00012284463 -1.3678622e-06
0.00022225836 0.0001535779 1.3424577e-05 0.000101285914 3.126362e-05 -0.00020027751 5.2473847e-06 -0.000120410674
-0.00024274795 -8.7547276e-05 -0.0001247167 1.0784564e-05 -2.8928915e-05 -8.705943e-05 -0.00015968463 -9.740376e-05
00000000: 05ee db37 99fb 5339 5798 4039 9588 dc38
00000010: 94ce 8539 5c8e 5c39 5412 6239 1118 a3b8
00000020: a7f5 f8b8 7eda 3839 7796 2139 2f2f cf38
00000030: c041 78b7 e4b9 5d37 8d96 f7b8 e1cc 8eb7
00000040: e651 12b8 e6ef e2b8 924f 6e37 906a b2b7
00000050: 82ac 23b8 54f7 0eb9 8670 0ab8 629b 0ab9
00000060: a60d fdb8 0e88 f6b8 58e1 04b9 eae4 afb8
00000070: 1975 6fb8 4b35 4538 c317 7938 591e c338
00000080: b34a 5635 3da6 0638 b0c8 ccb7 ae17 1339
00000090: 545a aeb7 a2a7 bbb7 cee5 4e39 13c3 b338
000000a0: f7bf 1239 28ea c838 b301 7939 aafe 4139
000000b0: 3d30 0239 5c70 d838 8623 d738 3aa2 e838
000000c0: 9a6e e738 7cc7 3038 961d 0039 b05b e138
000000d0: e8b0 5e38 e3c5 f3b5 904c 1538 b5d7 ff36
000000e0: 8534 f138 85be e038 5874 a3b8 fd41 f9b5
000000f0: ca47 0239 53cd 7b38 10a5 0c38 0156 54b8
00000100: e317 e0b8 86c7 66b8 73bb 73b9 c513 c238
00000110: 1070 9bb8 a327 33b8 2ac3 cb38 0979 0ab8
00000120: ab28 87b8 324c d538 c0c8 1f39 8223 ef38
00000130: 7e60 3c37 956c c2b8 a63b 3c38 704d 3db8
00000140: 62bd e6b7 3b44 c4b8 3b73 edb8 b335 e9b8
00000150: a65e b5b8 21b7 92b8 d2a1 7eb8 bf09 1d38
00000160: c052 7c38 2331 59b9 d914 b1b8 ef2f d136
00000170: 68d1 6836 e181 9238 b705 3439 2fe5 35b8
00000180: f251 6ab4 932c ed38 d985 36b7 dd7a a338
00000190: 8f3d ae37 71e7 fe37 6e23 40b8 ccf9 dd34
000001a0: 3d34 4fb8 02cf 21b7 38df 9b34 d782 7bb8
000001b0: 502a 05b9 0420 b5b8 5f5d dcb7 ec76 7db7
000001c0: 0be0 7537 1381 3c37 05c0 d937 80b0 84b7
000001d0: e45d 36b8 0dcd 3535 2e7d e233 f12d 1cb8
000001e0: 36ea 0a37 b737 9137 7e8f 77b7 9a5d 4bb7
000001f0: d8cf a9b7 c65e 20b7 c665 b237 6318 c937
00000200: 7d3b f636 251c 94b8 b600 dab8 f8b8 d4b7
00000210: 8bec bdb7 6f1f d437 fe91 fbb7 4b1f b9b7
00000220: e3d6 3a38 9073 d838 e7fa c538 529e 0e38
00000230: 4c13 3b38 d9ff 1e37 7f30 9237 d4ba 8238
00000240: afaf ce38 d927 be38 f4a0 5e38 f6cb 0237
00000250: e41a d437 6d90 1638 f11f e137 0d20 1737
00000260: 20e5 1236 87f5 9537 91b1 0eb8 7ed6 3fb8
00000270: cc0f 67b8 14d5 62b8 749b 3db8 7fb7 0bb8
00000280: 7e3b 39b8 e14e 7938 5a27 6538 b51b 8438
00000290: 52e4 9738 a273 a838 83e1 9538 4c1c 8d38
000002a0: 113d 8ab5 5b03 86b5 b6d4 41b5 2cce 8bb4
000002b0: 75e1 c435 97b7 4db4 884b 8cb5 d666 04b7
000002c0: c02d 01b7 23fd 07b7 03d8 2ab7 1693 f6b6
000002d0: 29db 13b7 94cb 24b7 aeb6 dbb7 0725 d7b7
000002e0: 2026 d6b7 c9df d5b7 ce45 d1b7 22f7 d7b7
000002f0: 8e2e d3b7 a287 94b7 40da 94b7 8af6 90b7
00000300: 96c6 9cb7 f42b a7b7 6a10 91b7 f6ea 8bb7
00000310: 241a dc36 8f02 de36 6c54 d936 676a d736
00000320: 90d9 1437 11c5 be36 b28b d736 3b33 28b6
00000330: 3169 0db6 f10f 40b6 9f98 47b5 750f aeb5
00000340: d83a ddb5 4a9b 12b6 6862 86b7 2321 b238
00000350: 17c1 1738 1594 8638 0da3 8637 13a3 70b8
00000360: 0efc 0c39 dc0d 20b9 165d 64b8 b58b c837
00000370: 0720 7837 c36e 81b9 9d9e 3737 050f dfb8
00000380: f930 5a39 c56b c938 7fd1 1338 6960 9d38
00000390: dcbf 3e39 86e1 3739 a823 7939 14c6 84b8
000003a0: bee3 ab38 abfd e4b8 7b2f a2b8 9ed6 3038
000003b0: 2c12 9938 abcc 1a39 dbcf 0039 6397 b7b5
000003c0: 060e 6939 c109 2139 1f3a 6137 7669 d438
000003d0: 0e21 0338 9601 52b9 b112 b036 fd84 fcb8
000003e0: 288a 7eb9 9699 b7b8 62c6 02b9 5aef 3437
000003f0: 5fac f2b7 ad93 b6b8 0471 27b9 3f45 ccb8

exp_avg_sq f4 [256, 210]
7.394482e-07 1.2533128e-06 9.932222e-07 6.907397e-07 4.7409358e-07 4.8271596e-07 9.841785e-07 4.832808e-07
4.2205127e-07 7.47487e-07 7.207322e-07 4.312773e-07 4.00193e-07 5.390899e-07 7.868897e-07 5.551888e-07
4.3649715e-07 5.849931e-07 8.578723e-07 7.496726e-07 9.3808364e-07 4.6986509e-07 5.5926427e-07 5.5643716e-07
4.2275954e-07 3.6039071e-07 4.6907385e-07 3.3558575e-07 3.904054e-07 4.3547004e-07 4.4336312e-07 5.122016e-07
4.7614242e-07 4.3389042e-07 4.3597103e-07 4.850666e-07 4.4421523e-07 4.2887535e-07 4.2791643e-07 4.1108134e-07
3.5510075e-07 3.106918e-07 2.9848252e-07 3.0250337e-07 3.0810384e-07 1.9611987e-07 3.558529e-07 3.9483743e-07
3.4700733e-07 3.0104835e-07 3.0015693e-07 3.1788088e-07 4.065989e-07 2.7518567e-07 3.0456374e-07 3.2935915e-07
3.038442e-07 3.5098316e-07 2.673013e-07 3.384841e-07 2.7031058e-07 2.5761295e-07 1.7195183e-07 2.3719028e-07
2.9735082e-07 2.933243e-07 5.486612e-07 2.5828234e-07 3.384543e-07 1.4811172e-07 1.6133791e-07 2.3476386e-07
2.9941086e-07 2.1678666e-07 2.0064581e-07 2.0204217e-07 1.2888027e-07 2.1121978e-07 1.8364157e-07 1.8004422e-07
2.1180102e-07 1.8189519e-07 1.8627865e-07 1.351786e-07 1.7625207e-07 1.7019164e-07 3.230732e-07 2.8480721e-07
2.0062679e-07 2.7834662e-07 1.6011437e-07 1.8037439e-07 1.6469416e-07 1.5058767e-07 1.834647e-07 1.6813301e-07
1.6536532e-07 1.1733241e-07 1.8732317e-07 1.6426132e-07 1.9609227e-07 2.6160694e-07 2.6768765e-07 1.6185997e-07
1.5804925e-07 1.2611389e-07 1.15226825e-07 1.19194596e-07 1.5920241e-07 1.1348653e-07 8.816633e-08 1.2743416e-07
8.901984e-08 1.0931606e-07 1.388706e-07 7.891771e-08 1.1564346e-07 1.0713188e-07 1.08534316e-07 8.095342e-08
7.729122e-08 9.165236e-08 8.9839055e-08 1.02625386e-07 9.535869e-08 3.907833e-08 7.675121e-08 9.57428e-08
7.679987e-08 8.646559e-08 8.468927e-08 8.583974e-08 4.1706226e-08 7.602532e-08 8.187293e-08 9.725458e-08
9.539122e-08 8.775855e-08 8.297157e-08 5.707566e-08 7.6999e-08 7.92547e-08 7.1916325e-08 7.3677285e-08
7.682702e-08 7.4035384e-08 4.3109647e-08 9.841387e-08 8.651307e-08 7.622497e-08 6.91181e-08 7.3912105e-08
9.466936e-08 5.626015e-08 4.290518e-08 4.3506706e-08 5.1027108e-08 5.3127252e-08 5.130387e-08 4.9676736e-08
3.4805936e-08 6.6368024e-08 6.179203e-08 5.301383e-08 5.4170243e-08 5.977114e-08 6.383042e-08 4.6326925e-08
4.3761936e-08 4.3788347e-08 4.382858e-08 4.3728857e-08 4.3782343e-08 4.3658183e-08 4.3804576e-08 3.9926007e-08
4.0164807e-08 3.9932388e-08 3.987481e-08 4.0198774e-08 4.01528e-08 4.040282e-08 5.3575192e-08 5.340225e-08
5.3624866e-08 5.3535473e-08 5.3315983e-08 5.365564e-08 5.345015e-08 4.5703295e-08 4.54687e-08 4.4766313e-08
4.5755645e-08 4.4704827e-08 4.5487198e-08 4.5097952e-08 4.2983583e-08 4.2942546e-08 4.2648335e-08 4.2930047e-08
4.2711015e-08 4.2719737e-08 4.303627e-08 4.523537e-08 4.5539704e-08 4.555414e-08 4.4735405e-08 4.540381e-08
4.5460666e-08 4.544654e-08 5.825233e-07 3.8685909e-07 3.7110578e-07 3.6847607e-07 3.0785156e-07 4.0772565e-07
3.3291877e-07 3.8726103e-07 2.990326e-07 2.9435583e-07 3.7842088e-07 3.1222336e-07 3.26062e-07 3.4208813e-07
2.8819014e-07 3.0203347e-07 2.687405e-07 3.0546573e-07 3.2127647e-07 3.107011e-07 3.046022e-07 2.5771433e-07
3.4939518e-07 3.208306e-07 5.59329e-07 3.5782645e-07 2.9374465e-07 2.6185631e-07 3.6161015e-07 4.22088e-07
2.704601e-07 4.1222e-07 3.0862782e-07 3.4454249e-07 3.4119242e-07 3.135486e-07 5.324394e-07 2.8713202e-07
2.8861675e-07 2.4273587e-07 5.7176584e-07 3.17814e-07 1.5499205e-07 2.2182589e-07 1.7709806e-07 1.691687e-07
00000000: 7e7e 4635 8037 a835 db4e 8535 456b 3935
00000010: ed86 fe34 fd93 0135 1e18 8435 ceba 0135
00000020: 4996 e234 eaa6 4835 5778 4135 4d8a e734
00000030: 1bda d634 fab5 1035 a63a 5335 4908 1535
00000040: b657 ea34 6b08 1d35 8948 6635 1c3d 4935
00000050: 9ed0 7b35 c441 fc34 5920 1635 125e 1535
00000060: a1f7 e234 b97b c134 05d5 fb34 8e2a b434
00000070: e998 d134 8cca e934 5d07 ee34 3a7e 0935
00000080: 84a0 ff34 72f1 e834 670f ea34 8635 0235
00000090: 7a7c ee34 2e40 e634 63bc e534 97b2 dc34
000000a0: ada4 be34 28cd a634 203f a034 bf67 a234
000000b0: 7869 a534 0595 5234 0d0c bf34 0bfa d334
000000c0: 534c ba34 c59f a134 4125 a134 37a9 aa34
000000d0: 874a da34 3bbd 9334 ec82 a334 c7d2 b034
000000e0: 0720 a334 c26e bc34 9c81 8f34 e7b8 b534
000000f0: 341f 9134 0e4e 8a34 c2a1 3834 5eae 7e34
00000100: 96a3 9f34 2f7a 9d34 b647 1335 0eaa 8a34
00000110: ceb4 b534 a408 1f34 3a3c 2d34 6613 7c34
00000120: b7be a034 ddc5 6834 1a71 5734 eef0 5834
00000130: 5762 0a34 a7cb 6234 032f 4534 2e52 4134
00000140: 6c6b 6334 f84e 4334 e303 4834 9c25 1134
00000150: cd3f 3d34 ecbd 3634 d872 ad34 9be7 9834
00000160: df6b 5734 ab6f 9534 e7eb 2b34 efac 4134
00000170: c9d6 3034 39b1 2134 65fe 4434 0d88 3434
00000180: 468f 3134 2df8 fb33 0023 4934 cf5f 3034
00000190: 6f8d 5234 fc72 8c34 b6b6 8f34 bbcb 2d34
000001a0: 3fb4 2934 ec69 0734 9e72 f733 ecf7 ff33
000001b0: 3af1 2a34 e1b5 f333 f455 bd33 d6d4 0834
000001c0: 2d2b bf33 24c1 ea33 761c 1534 7879 a933
000001d0: aa57 f833 6010 e633 5f13 e933 9dd8 ad33
000001e0: 4cfb a533 6bd2 c433 8bed c033 e762 dc33
000001f0: ffc7 cc33 14d7 2733 6dd2 a433 299b cd33
00000200: 2ded a433 f6ae b933 6bde b533 e556 b833
00000210: 7b20 3333 5d43 a333 1fd2 af33 45da d033
00000220: e1d9 cc33 c675 bc33 1a2e b233 5a23 7533
00000230: a65a a533 bb32 aa33 6b70 9a33 8438 9e33
00000240: 1afc a433 62fd 9e33 8f27 3933 9957 d333
00000250: 10c9 b933 1fb1 a333 146e 9433 9cb9 9e33
00000260: 084d cb33 b0a2 7133 bf46 3833 21dc 3a33
00000270: e628 5b33 082e 6433 3459 5c33 265c 5533
00000280: 887d 1533 3586 8e33 87b2 8433 53b1 6333
00000290: d0a8 6833 885b 8033 2513 8933 fef8 4633
000002a0: c2f4 3b33 cc11 3c33 093e 3c33 63d0 3b33
000002b0: 320b 3c33 ae82 3b33 a423 3c33 1c7b 2b33
000002c0: ac81 2c33 2082 2b33 d142 2b33 05a7 2c33
000002d0: 7874 2c33 5f87 2d33 8c1a 6633 655c 6533
000002e0: 2a51 6633 e0ee 6533 8bfd 6433 0073 6633
000002f0: 1091 6533 4e4b 4433 5d49 4333 1545 4033
00000300: dd84 4433 7a01 4033 b45d 4333 b9b1 4133
00000310: f39c 3833 d46f 3833 572c 3733 1662 3833
00000320: 4271 3733 d97a 3733 e1d6 3833 d148 4233
00000330: 6f97 4333 4ea7 4333 1923 4033 0402 4333
00000340: 8840 4333 0031 4333 b25e 1c35 82b1 cf34
00000350: 643c c734 f7d2 c534 cc46 a534 63e5 da34
00000360: 02bc b234 c0e8 cf34 ba8a a034 f507 9e34
00000370: c529 cb34 a79f a734 9f0d af34 3ca8 b734
00000380: 8db8 9a34 2a27 a234 6a47 9034 e4fe a334
00000390: e77b ac34 6fce a634 3588 a334 fd5b 8a34
000003a0: 8294 bb34 9f3e ac34 cc24 1635 4b1b c034
000003b0: f5b3 9d34 4295 8c34 5223 c234 559b e234
000003c0: c133 9134 164f dd34 7cb1 a534 8ff9 b834
000003d0: 212d b734 cb55 a834 f5ec 0e35 2027 9a34
000003e0: 2ff3 9a34 5d51 8234 737b 1935 06a0 aa34
000003f0: e46b 2634 092f 6e34 5828 3e34 bda4 3534

exp_avg f4 [256]
-0.00023797604 -0.0003637913 -8.4828425e-05 -0.0003274368 -0.0002902764 -0.00031956536 -0.00014554152 -0.00027430835
-0.0003413038 -0.00029122608 -0.00018064179 -0.0002285292 -0.000262326 -0.0002516598 -0.00013193785 -0.00010114802
-0.00020078992 -0.00024833187 -0.00021224332 -0.00029578625 -0.00017501648 -0.00036458147 -0.0002385243 -0.00018330757
-0.00013840586 -0.00016809152 -0.00030052202 -0.00020343071 -0.00018424718 -0.00010185762 -0.000278378 -0.0002517386
-0.00028914804 -0.00016572575 -0.00021068638 -0.00024318337 -0.00029663998 -0.00042902995 -7.988604e-05 -0.0002540338
-0.00024096605 -0.0002042936 -0.00026433246 -0.00034518712 -0.00015017577 -0.00018730604 -0.00018136328 -0.00023788323
-7.1191236e-05 -0.00017513659 -0.00015394231 -0.0003021239 -0.00014833217 -0.00020451465 -0.00015783646 -0.00022578414
-0.00033530607 -0.0001218567 -0.00031739072 -0.00020882633 -0.00030839423 -0.00038185366 -0.00020346571 -0.0002001676
-0.00029996032 -0.0003076943 -0.00022805677 -0.00017537014 -0.0001862589 -0.00019315309 -0.00025098902 -0.0003459553
-0.00032053373 -0.00021428788 -0.0002459273 -0.00023627332 -0.00018903732 -0.00022838224 -0.00034257243 -0.00031584408
-0.00015953292 -0.00024736585 -0.00034039028 -0.00015496583 -0.0002648038 -0.0002784307 -0.00042015786 -0.00021547402
-0.00022085915 -0.00022737535 -0.00025313074 -0.00025399483 -0.00013911127 -0.0002398974 -0.000269867 -0.00024723238
-0.00017470251 -0.00021191723 -0.00020277895 -0.00023617227 -0.00031669115 -0.00035577148 -0.00019843013 -0.00029737072
-0.00024318832 -0.000183286 -0.00020694945 -0.00025310795 -7.396465e-05 -0.00017014731 -0.00013149684 -0.00022259848
-0.00024034944 -0.00026636003 -0.00014371102 -0.0003037212 -0.00036579603 -0.00029514218 -0.00020307128 -0.0003453367
-0.00026509314 -0.00029284076 -0.0001852502 -0.00019843553 -0.00033991633 -0.00036642246 -0.00024031912 -0.00023923624
-0.0001937139 -0.00041634584 -0.00025384396 -0.00029376766 -0.00012745011 -5.648899e-05 -0.00037119057 -0.00023027728
-0.0002986062 -0.00024606803 -0.00042565653 -0.00017229254 -0.00020586303 -0.0003442961 -0.00029394956 -0.00019743493
-0.00010541655 -0.00024198058 -0.0003206802 -0.00021995074 -0.00026988977 -0.0003811996 -0.00014752301 -0.00018274435
-0.0002996155 -0.00029439954 -9.327179e-05 -0.00037803495 -0.00018420961 -0.00021136548 -0.00019436039 -0.00024692639
-6.3189924e-05 -0.00037395468 -0.00029978598 -0.00034687333 -0.00048205565 -0.00017886455 -0.00022032067 -0.00020536943
-0.00020420784 -0.00033928 -0.00020619988 -0.00035178853 -0.000118890646 -0.000299764 -0.00020980906 -0.000122023965
-0.00024921854 -0.00020738825 -0.00023966443 -0.0002807048 -0.00012786 -0.00018331934 -0.00029293055 -0.00021094132
-0.00027362187 -0.0002075838 -0.00015155828 -0.00026235782 -0.00021263245 -0.00021776286 -0.00023786948 -0.00031320608
-0.00032074106 -0.00033620288 -0.00023490172 -0.00026163537 -0.00041038854 -0.00034390052 -0.00021397496 -0.00035959276
-0.00023586217 -0.00020547055 -0.00020291461 -0.00016487419 -0.0002508987 -0.00018061917 -0.00030717952 -0.00017254596
-0.00029344714 -0.00030817694 -0.00021002983 -7.2797186e-05 -0.0002194871 -0.00035016684 -0.00029652374 -0.00024040884
-6.9470385e-05 -0.00023174165 -0.00029090408 -0.00011587893 -0.00039665264 -0.000115678224 -0.00016182971 -0.00019974525
-0.0003952192 -0.00028561812 -0.00010801728 -0.00018360555 -0.00025468742 -0.00019499143 -0.00020576548 -0.00035664305
-0.0002691143 -0.0002996632 -0.00025692827 -0.00033981435 -0.0004203906 -9.688487e-05 -0.00037670633 -6.683477e-05
-0.00014967361 -0.00028125368 -0.00026331254 -6.232072e-05 -0.00036776255 -0.0002883211 -0.00022760428 -0.00020701719
-0.00038731645 -0.00024830888 -0.00014824021 -0.00029527154 -0.00024443262 -0.00025640783 -0.00023470848 -0.00024125332
00000000: 3589 79b9 3ebb beb9 eae5 b1b8 d3ab abb9
00000010: 3d30 98b9 568b a7b9 819c 18b9 0bd1 8fb9
00000020: 05f1 b2b9 b4af 98b9 a96a 3db9 57a1 6fb9
00000030: cd88 89b9 35f1 83b9 cc58 0ab9 6e1f d4b8
00000040: 228b 52b9 8a32 82b9 a28d 5eb9 c213 9bb9
00000050: a184 37b9 4c25 bfb9 611c 7ab9 4036 40b9
00000060: 0a21 11b9 b941 30b9 628f 9db9 0450 55b9
00000070: 7a32 41b9 659c d5b8 43f3 91b9 c8fb 83b9
00000080: cb98 97b9 abc6 2db9 b2eb 5cb9 0aff 7eb9
00000090: 5886 9bb9 6def e0b9 7e88 a7b8 d72f 85b9
000000a0: d5ab 7cb9 a537 56b9 1a96 8ab9 3bfa b4b9
000000b0: 8078 1db9 9567 44b9 562c 3eb9 4b70 79b9
000000c0: 814c 95b8 dfa4 37b9 936b 21b9 6266 9eb9
000000d0: 9d89 1bb9 fc72 56b9 e780 25b9 78c0 6cb9
000000e0: 05cc afb9 518d ffb8 7667 a6b9 64f8 5ab9
000000f0: f9af a1b9 8833 c8b9 6959 55b9 15e4 51b9
00000100: fe43 9db9 0852 a1b9 8622 6fb9 90e3 37b9
00000110: 7e4e 43b9 2389 4ab9 2d97 83b9 5661 b5b9
00000120: 4f0d a8b9 77b2 60b9 ceef 80b9 23c0 77b9
00000130: 5238 46b9 e479 6fb9 4b9b b3b9 e097 a5b9
00000140: 4b48 27b9 e2b0 81b9 6976 b2b9 537e 22b9
00000150: 5dd5 8ab9 56fa 91b9 a248 dcb9 def0 61b9
00000160: 6d96 67b9 9b6b 6eb9 a2b6 84b9 9c2a 85b9
00000170: 66de 11b9 f88c 7bb9 f07c 8db9 f89e 81b9
00000180: 5930 37b9 1936 5eb9 0fa1 54b9 03a5 77b9
00000190: 9109 a6b9 d786 bab9 af11 50b9 6ce8 9bb9
000001a0: 5e00 7fb9 7630 40b9 9200 59b9 93b3 84b9
000001b0: 781d 9bb8 9269 32b9 6ae2 09b9 5369 69b9
000001c0: 5006 7cb9 3da6 8bb9 22b1 16b9 c53c 9fb9
000001d0: 50c8 bfb9 50bd 9ab9 88ef 54b9 4f0e b5b9
000001e0: 33fc 8ab9 6c88 99b9 b93f 42b9 2213 50b9
000001f0: cc36 b2b9 641c c0b9 2cfe 7bb9 7ddb 7ab9
00000200: ae1f 4bb9 fe48 dab9 5c16 85b9 d404 9ab9
00000210: 21a4 05b9 97ee 6cb8 5b9c c2b9 9676 71b9
00000220: 3f8e 9cb9 b102 81b9 a72a dfb9 6da9 34b9
00000230: f0dc 57b9 a482 b4b9 3e1d 9ab9 8906 4fb9
00000240: 1413 ddb8 2bbc 7db9 f820 a8b9 94a2 66b9
00000250: fe7f 8db9 bfdb c7b9 68b0 1ab9 109f 3fb9
00000260: b615 9db9 a359 9ab9 e99a c3b8 fe32 c6b9
00000270: 6428 41b9 fda1 5db9 38cd 4bb9 e675 81b9
00000280: d584 84b8 590f c4b9 982c 9db9 8ddc b5b9
00000290: 6abc fcb9 968d 3bb9 e105 67b9 7058 57b9
000002a0: a020 56b9 64e1 b1b9 5c37 58b9 4270 b8b9
000002b0: ee54 f9b8 a529 9db9 3100 5cb9 1ee7 ffb8
000002c0: 8ca9 82b9 5c76 59b9 6e4e 7bb9 8f2b 93b9
000002d0: 2812 06b9 6939 40b9 7994 99b9 2130 5db9
000002e0: e874 8fb9 daaa 59b9 9eeb 1eb9 128d 89b9
000002f0: 17f6 5eb9 4657 64b9 9a6c 79b9 cf35 a4b9
00000300: 2329 a8b9 6344 b0b9 f34f 76b9 1b2c 89b9
00000310: 6b29 d7b9 8c4d b4b9 775e 60b9 b987 bcb9
00000320: c551 77b9 9573 57b9 7ac5 54b9 14e2 2cb9
00000330: 0e8b 83b9 9764 3db9 f00c a1b9 74ed 34b9
00000340: cfd9 99b9 cf92 a1b9 743b 5cb9 b1aa 98b8
00000350: 1f26 66b9 9996 b7b9 be76 9bb9 4216 7cb9
00000360: a1b0 91b8 adff 72b9 7c84 98b9 0704 f3b8
00000370: d1f5 cfb9 4698 f2b8 d5b0 29b9 b572 51b9
00000380: 6c35 cfb9 04bf 95b9 5687 e2b8 3d86 40b9
00000390: 9187 85b9 9d76 4cb9 c0c2 57b9 d2fb bab9
000003a0: e917 8db9 1d1c 9db9 54b4 86b9 1c29 b2b9
000003b0: df67 dcb9 ab2e cbb8 ab80 c5b9 a529 8cb8
000003c0: b4f1 1cb9 3b75 93b9 360d 8ab9 2fb2 82b8
000003d0: 41d0 c0b9 ce29 97b9 0fa9 6eb9 c112 59b9
000003e0: bc10 cbb9 742f 82b9 ee70 1bb9 adce 9ab9
000003f0: 3127 80b9 7a6e 86b9 141c 76b9 f2f8 7cb9

exp_avg_sq f4 [256]
2.8788935e-07 1.9098005e-07 3.5280686e-07 2.6452602e-07 3.2234564e-07 4.3364398e-07 2.2319097e-07 3.9302085e-07
2.5836337e-07 3.9807924e-07 2.38782e-07 3.623922e-07 3.1007295e-07 4.2584955e-07 3.5788187e-07 4.1189134e-07
1.9418593e-07 3.7108603e-07 2.637026e-07 4.2368535e-07 2.3582211e-07 4.3733624e-07 2.2797336e-07 2.531016e-07
2.4686267e-07 3.1896036e-07 3.4185837e-07 2.5756543e-07 2.8227004e-07 2.5339367e-07 3.593513e-07 2.77494e-07
2.4962196e-07 2.794236e-07 3.929057e-07 2.8738336e-07 3.2615617e-07 3.6339557e-07 2.3180718e-07 2.8335995e-07
3.9444572e-07 2.9305056e-07 2.9517378e-07 3.026892e-07 2.4709206e-07 2.633424e-07 3.5597438e-07 3.3098465e-07
3.5343274e-07 3.064062e-07 2.3990947e-07 4.2575311e-07 2.7537095e-07 3.0777335e-07 2.4008492e-07 3.45089e-07
2.4775795e-07 2.2744864e-07 3.489472e-07 2.7105136e-07 3.7040735e-07 3.021603e-07 3.239468e-07 2.2383985e-07
3.357864e-07 2.7561688e-07 3.157421e-07 2.802969e-07 5.8014695e-07 2.3220761e-07 2.9416387e-07 3.4715313e-07
4.1615428e-07 2.6944946e-07 3.850644e-07 3.4012825e-07 3.3771664e-07 3.073158e-07 3.014074e-07 3.9097927e-07
3.3210696e-07 7.212239e-07 4.7992467e-07 2.686293e-07 4.538127e-07 3.5533412e-07 5.3875135e-07 3.6029667e-07
3.436958e-07 4.803059e-07 2.8862104e-07 2.671773e-07 2.4790168e-07 4.307865e-07 3.1382197e-07 2.3036725e-07
3.303991e-07 3.0758008e-07 1.6708469e-07 2.5905018e-07 3.535375e-07 3.213955e-07 1.9445741e-07 3.156426e-07
3.5733527e-07 2.681569e-07 3.237266e-07 3.0989955e-07 2.9414764e-07 3.487447e-07 2.4355998e-07 2.5133323e-07
3.057242e-07 4.46171e-07 2.129933e-07 4.5200707e-07 2.6371916e-07 3.682227e-07 2.9179225e-07 3.3392163e-07
4.179051e-07 3.7988633e-07 1.6419837e-07 3.2264148e-07 4.1100975e-07 4.1974732e-07 3.7173348e-07 2.9837378e-07
3.1756682e-07 4.4152043e-07 3.4100202e-07 2.7625413e-07 3.3790425e-07 3.8597656e-07 3.788284e-07 2.8053464e-07
3.7534622e-07 4.1251374e-07 3.0373104e-07 4.5002153e-07 3.2879626e-07 2.3974226e-07 3.269517e-07 2.439021e-07
4.0050966e-07 3.5933346e-07 2.828955e-07 2.9533447e-07 3.484802e-07 4.5135465e-07 2.418314e-07 2.8110188e-07
3.305337e-07 2.6168144e-07 3.0612006e-07 4.1815102e-07 3.0107614e-07 3.190121e-07 3.8268496e-07 3.6893653e-07
2.377415e-07 4.3039012e-07 3.934043e-07 2.9061874e-07 3.5489717e-07 2.965063e-07 3.1746814e-07 5.602434e-07
2.877315e-07 4.1352936e-07 4.3731964e-07 4.5948224e-07 4.4998288e-07 4.0338614e-07 2.8167534e-07 2.4331598e-07
3.1229717e-07 2.5714135e-07 3.3470823e-07 2.4077912e-07 2.8096213e-07 2.6750035e-07 4.6068246e-07 2.863942e-07
2.6123814e-07 4.042483e-07 4.809052e-07 2.751299e-07 3.1120908e-07 3.049876e-07 3.83944e-07 4.0750393e-07
4.2739862e-07 4.0109674e-07 2.3897047e-07 2.8017502e-07 3.1262255e-07 2.297308e-07 2.1784473e-07 5.5602345e-07
3.3540482e-07 2.9163974e-07 2.5275637e-07 3.3601674e-07 2.986774e-07 4.490711e-07 4.2736792e-07 2.526854e-07
2.9795166e-07 3.7952725e-07 3.335782e-07 4.4944017e-07 2.643011e-07 4.274257e-07 3.811095e-07 3.7792356e-07
4.3589552e-07 3.7829014e-07 3.372988e-07 2.0146577e-07 3.998957e-07 3.5219742e-07 4.8780424e-07 2.7943372e-07
3.8162116e-07 3.049827e-07 4.582194e-07 2.7029847e-07 3.2238253e-07 3.1099157e-07 4.489163e-07 2.655397e-07
3.041289e-07 3.750347e-07 2.6534315e-07 4.726626e-07 4.1026837e-07 1.7615382e-07 2.7908624e-07 2.7772577e-07
3.5040918e-07 3.770957e-07 3.2378847e-07 4.167038e-07 3.9807767e-07 3.2688257e-07 3.5636265e-07 3.873105e-07
3.681951e-07 3.2732297e-07 3.298423e-07 3.2785857e-07 2.5114534e-07 4.0556688e-07 2.9244597e-07 3.647747e-07
00000000: 368f 9a34 3210 4d34 6869 bd34 2e04 8e34
00000010: d90e ad34 93cf e834 44a6 6f34 6000 d334
00000020: 31b5 8a34 98b7 d534 f331 8034 ce8e c234
00000030: 1a78 a634 51a0 e434 e922 c034 ea21 dd34
00000040: 6c81 5034 ad39 c734 0293 8d34 df76 e334
00000050: 4a36 7d34 09cb ea34 d7c8 7434 05e2 8734
00000060: 8c88 8434 943d ab34 a888 b734 8647 8a34
00000070: e68a 9734 290a 8834 deec c034 7cfa 9434
00000080: c803 8634 b003 9634 8cf0 d234 ab49 9a34
00000090: 901a af34 b518 c334 ace6 7834 b220 9834
000000a0: 35c4 d334 9054 9d34 6078 9e34 4981 a234
000000b0: 13a8 8434 8161 8d34 bf1c bf34 2fb2 b134
000000c0: 6dbf bd34 2680 a434 e8cc 8034 1093 e434
000000d0: b2d6 9334 0c3c a534 05e5 8034 ac44 b934
000000e0: 9803 8534 9b38 7434 f056 bb34 0485 9134
000000f0: 66dc c634 9838 a234 e9ea ad34 a158 7034
00000100: 2246 b434 7ff8 9334 4483 a934 b67b 9634
00000110: 65bb 1b35 be54 7934 93ed 9d34 5d60 ba34
00000120: cf6b df34 daa8 9034 d9ba ce34 df9a b634
00000130: 6c4f b534 29fd a434 1ed1 a134 c8e7 d134
00000140: 6f4c b234 219a 4135 2cd4 0035 2138 9034
00000150: 8ba3 f334 c0c4 be34 b69e 1035 cc6e c134
00000160: 3185 b834 5fee 0035 c6f3 9a34 9270 8f34
00000170: 5917 8534 d946 e734 5d7b a834 de5a 7734
00000180: b561 b134 7c21 a534 e467 3334 9613 8b34
00000190: d3cd bd34 438c ac34 0ccc 5034 9775 a934
000001a0: c9d7 bf34 34f7 8f34 a5cc ad34 4560 a634
000001b0: 58eb 9d34 1b3b bb34 a1c2 8234 faee 8634
000001c0: 6a22 a434 4689 ef34 27b3 6434 61ab f234
000001d0: 4995 8d34 24b0 c534 9fa7 9c34 d745 b334
000001e0: 715c e034 2ef3 cb34 814e 3034 8237 ad34
000001f0: c0a8 dc34 a259 e134 a992 c734 2e30 a034
00000200: 0d7e aa34 1b0a ed34 f612 b734 1450 9434
00000210: 3569 b534 3738 cf34 c761 cb34 639c 9634
00000220: 3183 c934 7577 dd34 7a10 a334 7d9a f134
00000230: 6a85 b034 edb5 8034 e687 af34 a6f1 8234
00000240: a105 d734 6aea c034 dde0 9734 768e 9e34
00000250: c116 bb34 b651 f234 0ed5 8134 59ea 9634
00000260: 3574 b134 397d 8c34 d258 a434 3d7e e034
00000270: 97a3 a134 b044 ab34 d273 cd34 4012 c634
00000280: e345 7f34 5e10 e734 1335 d334 5606 9c34
00000290: b288 be34 842f 9f34 7d70 aa34 a263 1635
000002a0: 8479 9a34 0b03 de34 c1c8 ea34 c2ae f634
000002b0: 2d95 f134 f890 d834 2a39 9734 18a1 8234
000002c0: cca9 a734 3d0d 8a34 f3b1 b334 6e44 8134
000002d0: 24d7 9634 f89c 8f34 b753 f734 b8c1 9934
000002e0: 4c40 8c34 7707 d934 8e17 0135 91b5 9334
000002f0: 4014 a734 2dbd a334 dd20 ce34 eac6 da34
00000300: 3875 e534 5156 d734 da4b 8034 f66a 9634
00000310: 84d6 a734 ecab 7634 b4e8 6934 a441 1535
00000320: b011 b434 a992 9c34 92b2 8734 ca65 b434
00000330: e959 a034 dd17 f134 0071 e534 d1a8 8734
00000340: 2af6 9f34 d4c1 cb34 a416 b334 964a f134
00000350: 44e5 8d34 f178 e534 4a9b cc34 6be5 ca34
00000360: 0605 ea34 cd17 cb34 fe15 b534 7d52 5834
00000370: 3fb1 d634 a515 bd34 a7f1 0235 1405 9634
00000380: 9de1 cc34 81bc a334 3201 f634 8a1d 9134
00000390: eb13 ad34 5bf6 a634 9602 f134 808f 8e34
000003a0: 2847 a334 6058 c934 7c74 8e34 41c2 fd34
000003b0: db42 dc34 cb24 3d34 52d5 9534 571a 9534
000003c0: df1f bc34 a373 ca34 26d5 ad34 56b7 df34
000003d0: 61b7 d534 667e af34 1c52 bf34 8def cf34
000003e0: 59ac c534 edba af34 2e15 b134 8a04 b034
000003f0: 27d5 8634 b0bc d934 7801 9d34 41d6 c334
