mcao/neural/unsupervised/trained/2019-02-12-14:24:05.pth (torch_old, 835359 bytes, 12 tensors)

layer1.weight f4 [256, 210]
0	0x3dd2350d	0.10264025
1	0x3d37b9d2	0.044854946
2	0x3de9e26c	0.1142014
3	0x3c749cbe	0.014929948
4	0x3cc9e618	0.02464585
5	0x3d042356	0.03226026
6	0x3dabb45d	0.08384011
7	0x3dc45837	0.09587138
8	0xbcca3fed	-0.024688685
9	0xbd80e6b7	-0.06294005
10	0x3d27cdd6	0.040967785
11	0xb89ccbd3	-7.476625e-05
12	0x3c17eeb6	0.009273222
13	0xbc3822f0	-0.0112387985
14	0xbcb78cc7	-0.022405995
15	0xbde4537b	-0.11148735
16	0xbcd7c69a	-0.026339818
17	0x3cb2cbb9	0.021825658
18	0xbdc7b203	-0.0975075
19	0xbca65a3a	-0.020306695
20	0xbcf4bce2	-0.029875223
21	0x3d7a80c4	0.061157957
22	0xbbe61160	-0.007021114
23	0x3da2fef6	0.07958786
24	0xbb74bdff	-0.0037344692
25	0xbbf98d8a	-0.0076157497
26	0x3d88be9b	0.0667698
27	0xbd89a5ec	-0.067211
28	0xbd7e234a	-0.062045373
29	0xbcc48e25	-0.023993561
30	0xbe093440	-0.13398838
31	0xbdd4dba6	-0.10393457
32	0x3d0cd969	0.034387026
33	0xbd86cede	-0.065824255
34	0xbc0886c6	-0.008332914
35	0x3df404a2	0.11914946
36	0xbd66ae2a	-0.05631844
37	0x3c4b094f	0.012392356
38	0x3d80683b	0.062698804
39	0xbdcad07a	-0.09903045
40	0xbc6e6594	-0.014550585
41	0xbcd977e4	-0.026546426
42	0xbcfdf83f	-0.031002162
43	0x3d7fef9a	0.06248436
44	0x3d804ea2	0.06264998
45	0xbb5406eb	-0.0032352756
46	0xbd154447	-0.036442067
47	0xbd882f60	-0.06649661
48	0x3c1b1abe	0.009466825
49	0x3d60d058	0.054886192
50	0x3c13850c	0.009003889
51	0x3dabb0a1	0.08383299
52	0x3cdb90a2	0.026802365
53	0x3b41adcc	0.0029553054
54	0x3d98995f	0.07451128
55	0xbcc7622c	-0.024338804
56	0xbbdecd3e	-0.006799369
57	0xbd7e6083	-0.06210376
58	0xbc85c001	-0.016326906
59	0xbda3f7ec	-0.08006272
60	0xbb458fb8	-0.0030145478
61	0x3d8a7351	0.06760276
62	0x3cb9c568	0.022677138
63	0x3db5d153	0.08877816
64	0xbd22896b	-0.039681833
65	0x3d19813d	0.037476767
66	0xbd1cef32	-0.038314052
67	0x3d9f2b5d	0.07771943
68	0x3b89ace7	0.00420152
69	0xbc81795a	-0.015804935
70	0x3d1f007c	0.03881882
71	0x3dc01c65	0.09380416
72	0x3d828d0f	0.06374561
73	0x3d85e8a5	0.06538514
74	0x3dd981fe	0.10620497
75	0x3cc78266	0.024354171
76	0x3d98ed49	0.074671336
77	0x3d3a6cff	0.045514103
78	0xb8f4f5ec	-0.00011680633
79	0x3d874d69	0.06606562
80	0x3cc9aebf	0.024619458
81	0x3d45304b	0.04814176
82	0xbca9b0b2	-0.020714138
83	0x3c5f191b	0.013616825
84	0xbc682e25	-0.014171158
85	0xbd6068d7	-0.054787483
86	0x3ca44a5c	0.020054989
87	0x3d7974e1	0.06090248
88	0xbb111b80	-0.0022141635
89	0xbc862223	-0.0163737
90	0xbda50f01	-0.080595024
91	0xbc632cd2	-0.013865666
92	0xbd7787a6	-0.0604321
93	0xbd4c0f1d	-0.0498191
94	0xbcf34585	-0.029696235
95	0xbdffe325	-0.12494496
96	0xbbc25b41	-0.0059312885
97	0xbda3551f	-0.0797522
98	0x3d59bf2e	0.05316084
99	0xbd27f119	-0.041001413
100	0x3cf42ceb	0.029806575
101	0x3d967be9	0.07347853
102	0xbd3ab228	-0.04558006
103	0x3d62f84d	0.05541258
104	0x3d580d4f	0.052747067
105	0x3b08b9c7	0.0020862685
106	0x3ddfb696	0.109234974
107	0x3d77503f	0.060379263
108	0x3cdae861	0.026722135
109	0x3d7633bc	0.06010793
110	0x3b343579	0.0027497692
111	0x3d336baa	0.04380385
112	0x3dfa8cd2	0.122338906
113	0x3d9bf369	0.07614786
114	0x3d2b4f7d	0.041823853
115	0x3de3a015	0.111145176
116	0x39e8f3bc	0.00044432085
117	0x3cffa477	0.031206353
118	0x3c32c019	0.010910057
119	0xbc839717	-0.016063256
120	0xbd8755ff	-0.06608199
121	0xbd5b797b	-0.05358265
122	0xbd9d8500	-0.07691383
123	0xbd4e461a	-0.050359823
124	0xbd2c2e53	-0.042036366
125	0xbd60fd09	-0.054928813
126	0xbbf28e60	-0.0074022263
127	0xbd0aae4d	-0.033857632
128	0xbd2f0d2b	-0.042737167
129	0xbd893d81	-0.06701184
130	0x3bb8f970	0.0056449696
131	0x3bc7621c	0.0060846936
132	0xbd937f7b	-0.07202049
133	0xbc9051f3	-0.017617201
134	0x3c7d1e3b	0.015449102
135	0xbc868c68	-0.016424373
136	0xbd983a00	-0.074329376
137	0xbcb70ea4	-0.022345848
138	0x3d21f21b	0.03953753
139	0xbd98dce9	-0.0746401
140	0x3d462f6f	0.04838508
141	0xbda19f29	-0.078916855
142	0x3d33c2b3	0.04388685
143	0xbd34c678	-0.044134587
144	0xbcc4fc7f	-0.02404618
145	0x3c1e1147	0.009647674
146	0xbcd65565	-0.026163766
147	0x3d316f84	0.04331924
148	0x3cb3626e	0.02189752
149	0xbd87ad7d	-0.06624887
150	0x3d952902	0.07283212
151	0x3d618668	0.05505982
152	0x3d1c1e42	0.038114794
153	0x3c17d812	0.009267824
154	0xbda9fffb	-0.083007775
155	0xbc4a1a7f	-0.012335419
156	0xbdd48d61	-0.103785284
157	0xbd741606	-0.059591316
158	0xbd9b811a	-0.075929835
159	0xbdb75228	-0.08951217
160	0xbdead20d	-0.11465845
161	0xbd819c8b	-0.06328686
162	0xbd92f345	-0.07175306
163	0xbb00dfdf	-0.0019664688
164	0xbbbd5071	-0.0057774116
165	0xbd98a3de	-0.0745313
166	0xbd1c94da	-0.038227893
167	0xbdc30e27	-0.09524184
168	0xbdf49731	-0.119429
169	0xbdce57c2	-0.10075332
170	0xbd9ee9f3	-0.07759466
171	0xbe124565	-0.14284284
172	0xbdbe8dd5	-0.09304396
173	0xbe04261e	-0.12905166
174	0xbd9d46e4	-0.07679537
175	0x3bdac129	0.0066758585
176	0x3e0bc773	0.13650303
177	0x3cdecca0	0.027197182
178	0x3c947ba1	0.018125357
179	0x3cd16fc1	0.025565984
180	0x3d831ec2	0.06402351
181	0x3dd11e7e	0.10210894
182	0xbd90f6e4	-0.07078341
183	0xbcb53050	-0.022117764
184	0xbdf20386	-0.11817078
185	0xbd932e17	-0.07186525
186	0xbdd900b7	-0.105958395
187	0xbd95c449	-0.07312829
188	0xbbaea4e3	-0.0053297146
189	0x3cb5ac97	0.022177024
190	0x3d8d0cbb	0.06887194
191	0xbcc37280	-0.023858309
192	0x3cc9096b	0.024540624
193	0x3c8157c9	0.01578893
194	0x3d0bdd5a	0.034146644
195	0x3da4fcda	0.0805604
196	0xbcaba0cc	-0.020950697
197	0xbd14de05	-0.036344547
198	0xbd35a822	-0.044349797
199	0xbda44f25	-0.08022908
200	0xbda18927	-0.07887488
201	0xbc59efa9	-0.013301768
202	0xbd3d6880	-0.046242237
203	0x3ce6b811	0.028163942
204	0x3ccefe02	0.025267605
205	0x3bac8804	0.0052652378
206	0x3a1ff3a9	0.0006101677
207	0x3c473cf1	0.012160526
208	0x3bec6d76	0.007215197
209	0x3de69c9c	0.112603396
210	0x3ceef548	0.029169694
211	0x3dc2f8f7	0.095201425
212	0x3e019178	0.12653148
213	0x3dc9fe9b	0.09863015
214	0x3ba5f4c8	0.0050645806
215	0xbd625fa5	-0.055266995
216	0x3d162f06	0.03666594
217	0x3c3f16ef	0.011663183
218	0xbd34caa7	-0.044138577
219	0xbd7c7c43	-0.061641943
220	0xbc6c36ee	-0.014417393
221	0xbd887561	-0.06663013
222	0xbbe0ced6	-0.0068605943
223	0x3c6e3756	0.01453956
224	0x3c8c7d5a	0.017149616
225	0x3c93bf6b	0.018035611
226	0x3d6dc8ec	0.058052942
227	0xbce17299	-0.027520465
228	0x3d08787b	0.033318024
229	0xbcd7cee4	-0.02634377
230	0x3cd922c6	0.02650584
231	0xbdde265f	-0.108471625
232	0xbd1c891b	-0.03821669
233	0xbc8d30b2	-0.017235134
234	0xbc56a139	-0.013099962
235	0xbd56d60d	-0.05245023
236	0xbcf7f511	-0.030268224
237	0xbcc586e5	-0.024112174
238	0x3d93764d	0.072002985
239	0xbc815f25	-0.015792439
240	0xbd0e6db8	-0.034772605
241	0x3e0d08de	0.13772914
242	0xbcce31e6	-0.025170278
243	0x3da5163a	0.0806088
244	0xbc4035e3	-0.011731598
245	0x3c2f7e07	0.0107112
246	0xbe056f35	-0.13030703
247	0xbd2e0784	-0.042487636
248	0xbdc126c7	-0.09431224
249	0xbcdd2014	-0.026992835
250	0xbe14f9ba	-0.14548388
251	0xbd28830a	-0.041140594
252	0xbb9788d2	-0.0046244645
253	0x3d16f8d9	0.036858413
254	0xbcb7b74c	-0.02242627
255	0x3ca94b30	0.020665735

layer1.bias f4 [256]
0	0xbd239ed1	-0.03994638
1	0x3c64fead	0.013976735
2	0x3c071708	0.008245237
3	0x3dea4735	0.11439363
4	0x3f058d96	0.5216917
5	0x3f035eb7	0.513164
6	0x3ec52d04	0.38510907
7	0x3ef0c46c	0.47024858
8	0xbc105580	-0.008809447
9	0x3ed8b6cb	0.4232696
10	0x3cf27db1	0.02960095
11	0x3ee59df7	0.4484708
12	0x3efa5620	0.48893833
13	0x3e4094b0	0.1880672
14	0x3ee4c276	0.44679612
15	0x3e58a978	0.21158397
16	0x3f0885c9	0.5332914
17	0x3be1f324	0.0068954397
18	0x3f09c5ab	0.5381724
19	0xbd9ed1de	-0.07754873
20	0x3edf28ee	0.43585914
21	0x3d194534	0.037419513
22	0x3d12150d	0.035664607
23	0xbd8487a7	-0.06471186
24	0x3ccaba14	0.024746932
25	0x3d869f2e	0.0657333
26	0x3da62365	0.0811222
27	0xbd39d3b9	-0.04536793
28	0x3ee645aa	0.44975024
29	0xbc1fac7e	-0.009745715
30	0x3d5d4aea	0.05402652
31	0x3e9dccc3	0.30820283
32	0xbdaac81c	-0.08338949
33	0x3d1a627c	0.03769158
34	0x3c879896	0.01655225
35	0x3defce6a	0.11709292
36	0x3ef0a3e1	0.4700003
37	0xbd6f6156	-0.058442436
38	0x3d368bf6	0.04456707
39	0x3e029ddd	0.12755533
40	0xbdff812c	-0.124758095
41	0x3f2b75b9	0.66976506
42	0x3eeb5e20	0.4597025
43	0x3f04f402	0.51934826
44	0x3db6bff2	0.089233294
45	0x3d6bf4c1	0.057606462
46	0x3c2c7bd0	0.010527566
47	0x3ac0edff	0.0014719366
48	0xbd2e83fe	-0.042606346
49	0xbbff5a25	-0.0077927285
50	0x3f0e5044	0.55591226
51	0xbca80120	-0.020508349
52	0xbd4d3200	-0.05009651
53	0xbd4fcf75	-0.050734956
54	0x3d8a920d	0.06766138
55	0xbaaad169	-0.001303238
56	0xbc864e12	-0.016394649
57	0x3dfbf051	0.12301696
58	0xbd187325	-0.037219185
59	0x3d5c9c6d	0.053860117
60	0x3ea64dd1	0.32481244
61	0x3d790213	0.060792994
62	0xbcae77d0	-0.021297365
63	0x3f1151d5	0.5676549
64	0x3ede81cc	0.43458402
65	0x3c16f650	0.009213999
66	0xbd4ffac3	-0.050776254
67	0xbcc50488	-0.024050012
68	0xbda17e44	-0.078854114
69	0xbbb5d50d	-0.0055490793
70	0x3bb210b8	0.005434122
71	0x3e743973	0.2385004
72	0xbc09cdfe	-0.008410929
73	0xbdb9b534	-0.09067765
74	0x3b2f03a5	0.0026705053
75	0x3ef59940	0.47968483
76	0x3be154f9	0.0068765846
77	0x3ca00410	0.019533187
78	0x3eff7fc1	0.49902156
79	0x3eec90c9	0.46204212
80	0x3d094c8d	0.03352027
81	0x3efb158d	0.4903988
82	0xbd808e0f	-0.062770955
83	0x3d5d1a74	0.053980306
84	0x3f15b007	0.5847172
85	0xbd5831be	-0.052781813
86	0xbd37b81a	-0.044853307
87	0xbd526b87	-0.051372077
88	0xbd183039	-0.037155364
89	0x3ef15897	0.471379
90	0x3cad14ae	0.021128025
91	0x3cf2a03c	0.029617421
92	0x3d98105b	0.074249946
93	0xbd012a1e	-0.031534307
94	0xbe14ea78	-0.14542568
95	0xbdd2b046	-0.10287528
96	0x3d09b404	0.033618942
97	0x3ea4d3f1	0.32192948
98	0x3eb15f18	0.34642863
99	0x3f1af520	0.6053028
100	0xbca72a02	-0.020405773
101	0x3eba648c	0.36404836
102	0x3efbd399	0.49184874
103	0x3c9f2962	0.019428913
104	0x3eab920a	0.33509856
105	0x3ea22ff7	0.3167722
106	0x3d3d2b40	0.046183825
107	0x3f09fc98	0.5390105
108	0x3c679bc0	0.014136255
109	0x3d516898	0.05112514
110	0xbda325de	-0.07966207
111	0x3cbb9537	0.0228983
112	0x3d78904c	0.060684487
113	0xbb11b645	-0.0022233885
114	0x3af49db8	0.0018662727
115	0x3f0fb082	0.56128705
116	0x3f223227	0.63357776
117	0xbd281757	-0.041037884
118	0x3dc5af3b	0.09652563
119	0x3f13c73a	0.5772587
120	0x3d5255fa	0.051351525
121	0xbbe2d5b4	-0.006922448
122	0x3ca13aa3	0.01968128
123	0xbd5b41c8	-0.05352953
124	0xbc2fb29d	-0.010723737
125	0x3e826ea5	0.2547504
126	0xbd217aff	-0.03942394
127	0x3c68a1e7	0.014198757
128	0xbd8da7d7	-0.069167785
129	0x3b9c4ffe	0.004770278
130	0xbd08cea4	-0.033400193
131	0xbdc87379	-0.0978765
132	0x3c3691df	0.011143177
133	0xbcb3a320	-0.02192837
134	0x3f029df9	0.510223
135	0xbb639104	-0.0034723887
136	0x3c127d13	0.008940953
137	0x3e43cfd1	0.19122244
138	0x3d33e498	0.043919176
139	0x3d582648	0.052770883
140	0xbdf7420a	-0.12073143
141	0x3e455892	0.19272068
142	0x3d66a271	0.05630726
143	0x3f09a079	0.53760487
144	0x3f038230	0.51370525
145	0xbd9d5b4a	-0.07683428
146	0x3f1c3d02	0.6103059
147	0xbcc1bee2	-0.02365059
148	0x3ccb1f27	0.024795128
149	0xbcf7ffc2	-0.030273322
150	0x3f198154	0.59962964
151	0x3eb0bc79	0.34518793
152	0x3ef7bc22	0.4838572
153	0xbc854c97	-0.016271872
154	0x3ef05e02	0.46946722
155	0x3b064777	0.0020489374
156	0xbb981213	-0.0046408265
157	0x3d53e041	0.051727537
158	0x3d8d67cb	0.069045626
159	0xbd8f0592	-0.06983484
160	0x3e5ddea8	0.21666968
161	0xbca253d5	-0.019815365
162	0x3e84e472	0.2595554
163	0xbcd702d2	-0.026246462
164	0xbd0d1baf	-0.03445023
165	0xbd5bb635	-0.053640563
166	0xbcf217ad	-0.029552305
167	0xbd97c6d6	-0.07410972
168	0x3d57347f	0.0525403
169	0x3d94700a	0.07247932
170	0x3d171ae1	0.036890868
171	0xbd827997	-0.06370848
172	0x3d2e115d	0.042497028
173	0x3d2e2ffa	0.042526223
174	0xbd011b45	-0.031520147
175	0x3d7c8a71	0.061655466
176	0xbd5caa61	-0.053873423
177	0x3db3181e	0.08744834
178	0xbcdf3225	-0.02724559
179	0x3d550ed1	0.052016083
180	0x3cc6814e	0.02423158
181	0xbd3dce7d	-0.0463395
182	0xbd23b522	-0.039967664
183	0x3ef7f484	0.48428738
184	0x3edc8b22	0.430749
185	0x3d97a077	0.07403653
186	0x3d84c93d	0.06483696
187	0x3d45abfa	0.048259713
188	0x3d0ce90c	0.03440194
189	0x3f043f07	0.5165867
190	0x3db9ace6	0.09066181
191	0xbc58901b	-0.013217951
192	0x3ee82623	0.45341596
193	0xbdd0696e	-0.10176359
194	0x3db82ea1	0.08993269
195	0xbd12422a	-0.03570763
196	0x3cf61432	0.030038927
197	0xbc9cba32	-0.019131754
198	0x3f03522f	0.5129728
199	0xbd518598	-0.051152796
200	0x3ee136af	0.43987033
201	0x3edbdf6d	0.42943898
202	0x3d42336b	0.047412317
203	0x3d4b397c	0.04961537
204	0x3d155396	0.036456667
205	0x3cd9cd99	0.026587294
206	0x3bd939fe	0.0066292277
207	0xbbe2ff17	-0.0069273817
208	0x3f0f2557	0.5591635
209	0x3d1b4289	0.03790525
210	0x3d9bafc7	0.07601886
211	0xbd9e578b	-0.07731541
212	0x3edc55fa	0.43034345
213	0xbd3d901b	-0.046280008
214	0x3f20041c	0.6250627
215	0x3f10cb13	0.56559867
216	0x3c2e63e2	0.010643931
217	0x3f0c4fd1	0.5480929
218	0x3d2a1214	0.041521147
219	0xbc2fdbc7	-0.010733551
220	0x3f1f797e	0.6229476
221	0x3c98028a	0.018555898
222	0x3dae41db	0.08508655
223	0x3f33299a	0.69985354
224	0x3d6818d9	0.05666432
225	0x3eef5a47	0.46748564
226	0x3b482b63	0.0030543439
227	0x3cfb7128	0.030693606
228	0xbe53069e	-0.20607993
229	0xbc0ff66c	-0.008786779
230	0xbc44fc18	-0.012022994
231	0xbbd736d6	-0.0065678163
232	0xbca2bbd0	-0.019864947
233	0x3f1e0283	0.6172258
234	0x3ed8e2b6	0.42360467
235	0xbd85dd45	-0.065363444
236	0xbd135e6e	-0.035978727
237	0x3cac49c1	0.021031262
238	0x3f109fa1	0.56493574
239	0x3e9dac97	0.30795738
240	0x3cd8f30a	0.026483078
241	0x3d2b4c58	0.041820854
242	0x3ee6ea8a	0.45100814
243	0x3d4c0fc0	0.049819708
244	0x3ea03c6e	0.31296104
245	0x3e76a2c0	0.24085522
246	0x3d29f659	0.0414947
247	0xbca4a1ea	-0.020096738
248	0xbdbec689	-0.09315211
249	0xbd1a04ad	-0.037602115
250	0x3ca6aa75	0.020344952
251	0x3ee37b0d	0.44429818
252	0x3f228d9b	0.6349732
253	0x3c2617a5	0.010137473
254	0x3d355193	0.04426725
255	0x3d979621	0.07401682

layer2.weight f4 [60, 256]
0	0x3db33aa5	0.0875142
1	0x3da80123	0.08203342
2	0xbc8a02f5	-0.016847113
3	0x3ac3c18b	0.0014935
4	0x3d4b1482	0.049580105
5	0x3d109c2e	0.035305195
6	0xbd62b9c7	-0.055352952
7	0xbcc72585	-0.024309883
8	0x3d248b41	0.040171865
9	0x3d8627c4	0.065505534
10	0x3c8ef69d	0.017451579
11	0x3bd49233	0.006487155
12	0x3d284595	0.041081984
13	0xbd94ed0b	-0.07271775
14	0x3d433047	0.047653463
15	0x3b3d2d63	0.0028866164
16	0x3c44689a	0.01198783
17	0xbbfe8ab4	-0.0077679995
18	0x3d86a797	0.06574934
19	0x3c8abcee	0.016935792
20	0xbc1d78fe	-0.009611366
21	0x3cc5c7e0	0.02414316
22	0xbd06abfb	-0.032878857
23	0x3d12e686	0.035864376
24	0x3d381bf7	0.044948544
25	0x3d93472f	0.071913116
26	0xbd3f6ed8	-0.04673657
27	0x3e0dd03c	0.13848966
28	0xbc1f1e7f	-0.009711861
29	0x3d25e8da	0.040505268
30	0x3b0da4ed	0.0021613196
31	0xbccd41f3	-0.025055861
32	0x3d581016	0.052749716
33	0xbdb621d5	-0.08893172
34	0x3da9f3ed	0.08298478
35	0xbab7b7d6	-0.0014016579
36	0xbd2a311c	-0.04155074
37	0xbd80204a	-0.06256159
38	0xbc4c597a	-0.012472505
39	0x3d5d80fc	0.054078087
40	0x3d46b486	0.048512004
41	0xbb2a0680	-0.0025943816
42	0x3bcc1952	0.0062286044
43	0xbd1d03d9	-0.038333748
44	0xbd22e43d	-0.039768446
45	0x3a0bcad4	0.0005332653
46	0xbd390326	-0.04516902
47	0xbcfeb3b1	-0.031091543
48	0xbc90293d	-0.017597789
49	0xbd0e9106	-0.034806274
50	0x3cf2bf27	0.029632164
51	0x3c71d1fb	0.014759536
52	0xbd939dc6	-0.07207827
53	0xbb99eb9e	-0.004697277
54	0xbc97fc3a	-0.018552888
55	0xbd82f985	-0.06395248
56	0xbdc05058	-0.09390324
57	0x3bc04c8b	0.0058684996
58	0xbc5cfb2f	-0.013487621
59	0x3acb7996	0.0015523906
60	0xbd484c6e	-0.048901014
61	0xbd84dbbf	-0.06487226
62	0xbd85f355	-0.065405525
63	0x3c185827	0.009298361
64	0xbcba0c36	-0.0227109
65	0x3cacff80	0.021117926
66	0x3d82a302	0.063787475
67	0xbcb0a186	-0.021561395
68	0x3d1869c2	0.037210234
69	0xbcaeada9	-0.021323042
70	0x3c8dc80d	0.017307306
71	0xbc95f319	-0.018304395
72	0x3c87f91b	0.016598275
73	0x3d057b2a	0.03258816
74	0x3c900922	0.01758248
75	0xbc9df973	-0.019283986
76	0xbd4432a4	-0.047899857
77	0x3d7b4a29	0.06135002
78	0xbcf52bf8	-0.029928192
79	0x3d43426f	0.047670778
80	0x3a6a3829	0.000893476
81	0xbad32a57	-0.0016110641
82	0x3b99d0a2	0.0046940604
83	0x3d8174b7	0.0632109
84	0x3b3038d5	0.0026889343
85	0x3ad1944e	0.0015989633
86	0xbda3c88e	-0.07997237
87	0x3c3dd4fb	0.011586423
88	0x3d9acc15	0.07558457
89	0x3cf1753c	0.029474847
90	0x3cd9ba7e	0.026578184
91	0x3d3a1c6c	0.04543726
92	0x3d3516fa	0.044211365
93	0x3d31119a	0.043229677
94	0x3cbf26da	0.023333956
95	0x3d5e92a2	0.05433906
96	0x3d3a967b	0.045553666
97	0x3b363523	0.0027802668
98	0x3b85eb95	0.0040869215
99	0x3c2ede70	0.01067315
100	0xbd4d4c2a	-0.050121464
101	0x3cf92b0d	0.030416036
102	0xbc63a178	-0.013893478
103	0xbd458d02	-0.04823018
104	0xbca63709	-0.020289915
105	0xbb031c9d	-0.0020006069
106	0x3cfa780a	0.030574817
107	0xbc5f06cb	-0.013612459
108	0x3d548d73	0.05189271
109	0x3d1da6c2	0.03848911
110	0x3c4170fd	0.011806724
111	0x3d306f4d	0.043074895
112	0x3d382fc1	0.044967417
113	0xbdd1011f	-0.10205292
114	0x3dc56621	0.0963862
115	0x3cd08f7d	0.025459046
116	0x3cdf9956	0.027294796
117	0xbca30a7f	-0.019902466
118	0xbd7b11fe	-0.061296456
119	0x3d118e40	0.03553605
120	0xbda06ff5	-0.07833854
121	0xbaf450a1	-0.0018639752
122	0xbd009f11	-0.031401698
123	0xbd5520b7	-0.052033152
124	0xbd4823af	-0.048862156
125	0x3b82fc35	0.0039973506
126	0x3d4ceb98	0.050029367
127	0xbceace58	-0.028662845
128	0xbd5351c0	-0.051591635
129	0x3c4957ed	0.01228903
130	0xbd3e89f7	-0.046518292
131	0x3c018614	0.007905502
132	0x3d043f0a	0.03228668
133	0x3d6a1276	0.057146512
134	0xbd113db3	-0.03545923
135	0xbc431e29	-0.011909046
136	0x3d670b1d	0.056407083
137	0x3d57555a	0.052571632
138	0x3d70bdc9	0.058774743
139	0x3c7d09eb	0.015444259
140	0x3cc6cd70	0.024267882
141	0xbd56da88	-0.0524545
142	0x3da6c128	0.081423104
143	0x3c95759c	0.018244557
144	0x3aae0821	0.0013277569
145	0xbd2b9e1b	-0.041898828
146	0x3c9f9288	0.019479051
147	0xbcc24efc	-0.023719303
148	0xbb6d0029	-0.0036163426
149	0x3cb5ae73	0.02217791
150	0xbd69546e	-0.056965284
151	0x3d66dd2f	0.05636328
152	0xbc7d20e8	-0.01544974
153	0xbd8575fb	-0.065166436
154	0x3c5c34a3	0.013440284
155	0x3bcee2de	0.006313666
156	0x3a83faff	0.001006931
157	0xbd1e68c9	-0.03867415
158	0x3d3447c5	0.044013757
159	0xbd8f5f22	-0.07000567
160	0xbc8f9481	-0.017526867
161	0xbd42bf2e	-0.047545604
162	0xbd561b99	-0.052272413
163	0xbcfb7810	-0.030696899
164	0xbd003e26	-0.03130927
165	0x3c2d5468	0.010579206
166	0xbd4abd47	-0.049496915
167	0x3d4df6ac	0.050284073
168	0xbc1495e4	-0.00906894
169	0xbd21f990	-0.039544642
170	0xbd5637a9	-0.052299175
171	0x3d15cd4b	0.036572736
172	0x3d9f5810	0.077804685
173	0xbd5d03d7	-0.05395874
174	0x3c874856	0.016513985
175	0xbc16e50c	-0.0092098825
176	0x3d0cce49	0.034376416
177	0x3ada8bee	0.0016673782
178	0xbd0566ac	-0.03256862
179	0xbc871829	-0.016491013
180	0xbb11caa9	-0.002224604
181	0x3d89599a	0.06706543
182	0xbc73f7b9	-0.014890605
183	0xbae3cc3e	-0.0017379595
184	0x3d495fe4	0.049163714
185	0xbd461949	-0.048363958
186	0xbd88af31	-0.0667404
187	0xbbedf264	-0.007261561
188	0x3cf56313	0.029954469
189	0xbcf36a4d	-0.029713774
190	0x3ce17a4c	0.027524136
191	0xbd06686d	-0.032814432
192	0xbb821cae	-0.003970704
193	0xbd60497b	-0.054757576
194	0x3d19b0aa	0.037521996
195	0xbd887d25	-0.066644944
196	0xbd79ec9f	-0.061016675
197	0x3ce6e817	0.028186841
198	0xbd3a89a7	-0.04554143
199	0x3dc7fa18	0.097644985
200	0xbc9585bb	-0.018252244
201	0x3ca29bf4	0.019849755
202	0x3d203a85	0.03911831
203	0xbc98ca7c	-0.01865124
204	0xbceedc59	-0.029157804
205	0x3d109131	0.035294715
206	0x3c70169e	0.01465383
207	0xbd81bd18	-0.06334895
208	0xbd908177	-0.070559435
209	0xbd2d7c9a	-0.042355157
210	0x3d60f44c	0.05492048
211	0x3d091759	0.03346953
212	0xbc0b1714	-0.008489389
213	0x3d2b6ed1	0.04185373
214	0x3cee81e4	0.029114671
215	0xbd87b313	-0.066259526
216	0xb8cd189c	-9.7797456e-05
217	0xbb86e7a1	-0.004116968
218	0x3d72c5f0	0.0592708
219	0x3db3cb67	0.0877903
220	0xbbfbc11b	-0.007682932
221	0x3bb1ef9a	0.005430174
222	0x3d274de7	0.040845778
223	0xbdab645a	-0.0836875
224	0x3d5e3351	0.054248158
225	0x3d3ae487	0.045628097
226	0xbc6bd189	-0.014393219
227	0xbc736da4	-0.014857683
228	0x3d34e6c8	0.044165403
229	0xbd3f9e38	-0.04678175
230	0xbcfdf2e0	-0.0309996
231	0x3b93f688	0.004515473
232	0x3d5a0dac	0.053235695
233	0xbca2cf13	-0.019874131
234	0xbc07c6ca	-0.008287141
235	0xbd906e9e	-0.070523486
236	0x3d5aa7db	0.053382736
237	0x3c440c4a	0.011965821
238	0xbcfee58b	-0.031115314
239	0x3d79468e	0.0608583
240	0x3d0bf788	0.03417161
241	0x3d29db81	0.0414691
242	0x3c87f5de	0.01659673
243	0xbc3c50f4	-0.01149391
244	0x3d277357	0.04088148
245	0x3c800968	0.015629485
246	0xbb289e77	-0.0025729218
247	0xbcf6fce0	-0.030149877
248	0xbd14d20b	-0.036333125
249	0x3d17f32b	0.037097137
250	0xbd376757	-0.044776287
251	0x3afd5848	0.0019328678
252	0x3d46a810	0.04850012
253	0xbddb8f19	-0.10720653
254	0xbd7a64fa	-0.061131455
255	0xbc12e696	-0.008966109

layer2.bias f4 [60]
0	0xbcd6d832	-0.026226137
1	0x3b6139fe	0.0034366841
2	0x3d22325d	0.03959881
3	0xbd740f35	-0.059584815
4	0xbc6c332c	-0.014416497
5	0x3b3e9dcb	0.002908575
6	0xbc7d6ec4	-0.015468303
7	0xbca9ce69	-0.020728307
8	0x3ce37d2b	0.027769646
9	0x3d244914	0.040108755
10	0xbcd02572	-0.02540848
11	0xbbd72f85	-0.006566944
12	0x3d0e59d5	0.03475364
13	0xbcb2f7f3	-0.021846747
14	0xbc658ccf	-0.014010622
15	0xbc2d53ad	-0.010579032
16	0xbcbc2064	-0.022964664
17	0xbba24de7	-0.0049531343
18	0x3baae799	0.005215597
19	0x3cbd5926	0.023113798
20	0xbbadf557	-0.005308788
21	0xbd63421e	-0.055482976
22	0xbc0312f5	-0.008000125
23	0x3ce6c8f9	0.028172003
24	0xbd28f97b	-0.041253548
25	0xbb585662	-0.0033010473
26	0xbc8013ba	-0.015634406
27	0x3d4d59ee	0.05013459
28	0xbce3e4b7	-0.02781902
29	0x3ce8b1af	0.028405039
30	0xbb9fbe2d	-0.0048749656
31	0xbcb4c15d	-0.022064859
32	0xbd799de8	-0.060941607
33	0xbc4d6681	-0.012536646
34	0xbd0faecb	-0.035078805
35	0x3cee7d72	0.029112551
36	0x3c7df701	0.015500785
37	0x3d7b4868	0.06134835
38	0xba5c6d87	-0.0008408655
39	0x3d42bbd0	0.047542393
40	0x3c9afea7	0.018920256
41	0xbca96dbf	-0.020682214
42	0xbb9f4587	-0.004860583
43	0x3c7dcf91	0.015491382
44	0xbd3b34b6	-0.045704566
45	0x3d6bf817	0.057609644
46	0xbce59dd6	-0.028029364
47	0x3d439181	0.047746185
48	0xbceb40b1	-0.02871737
49	0x3d1d2c86	0.03837254
50	0x3cab6ca7	0.020925833
51	0xbcc56bcf	-0.024099259
52	0xbc25a8cf	-0.010111048
53	0xbd36b40e	-0.044605307
54	0xbd0c5422	-0.034259923
55	0x3d7c21d5	0.061555702
56	0x3bb618fa	0.0055571767
57	0x3c4a65ae	0.012353344
58	0xbc2f861a	-0.010713125
59	0xbaa0a916	-0.0012257423

exp_avg f4 [256, 210]
0	0xb7ab1998	-2.0396707e-05
1	0xb65fffc8	-3.3378474e-06
2	0x363fcfdc	2.8582208e-06
3	0xb62b60bc	-2.5537292e-06
4	0xb56bb0b8	-8.780148e-07
5	0xb72c7ada	-1.02806025e-05
6	0xb6b660cd	-5.4352918e-06
7	0xb7e78842	-2.7600796e-05
8	0xb7a1b7ea	-1.9278337e-05
9	0x36bf1f3f	5.695881e-06
10	0x3663a851	3.392361e-06
11	0x359401bc	1.1027364e-06
12	0xb8055422	-3.1788026e-05
13	0xb70cf21f	-8.4010235e-06
14	0x3741be52	1.1548009e-05
15	0x36197826	2.2868712e-06
16	0xb60b83eb	-2.07894e-06
17	0x366287a7	3.3755584e-06
18	0xb6a3a07e	-4.8764623e-06
19	0x36832b23	3.909126e-06
20	0x3646dece	2.9633989e-06
21	0x36d87163	6.4505016e-06
22	0xb7330427	-1.0670198e-05
23	0xb7008fab	-7.662845e-06
24	0xb6999306	-4.576871e-06
25	0xb74403b9	-1.1683377e-05
26	0xb301189a	-3.0057528e-08
27	0xb7a0285d	-1.9092282e-05
28	0x373a3133	1.1097919e-05
29	0x37889cec	1.6285536e-05
30	0x35e2f966	1.6910897e-06
31	0xb655089e	-3.174449e-06
32	0x370818d0	8.112009e-06
33	0xb63a828a	-2.7792144e-06
34	0x370a35cc	8.2379665e-06
35	0x36ccc366	6.102421e-06
36	0xb55914c7	-8.0869034e-07
37	0xb5d35d56	-1.5747889e-06
38	0xb5cdd064	-1.533434e-06
39	0xb795bed7	-1.785105e-05
40	0xb7525d0a	-1.2538638e-05
41	0xb7520cd9	-1.2519967e-05
42	0xb6b49c85	-5.3826393e-06
43	0x36ab949f	5.113499e-06
44	0x375938ae	1.2947405e-05
45	0x352c86a6	6.427093e-07
46	0xb6f5f3df	-7.3299593e-06
47	0xb76e0419	-1.41868595e-05
48	0x32655761	1.3349422e-08
49	0x37ae821f	2.0803009e-05
50	0x369408b8	4.4117587e-06
51	0xb62fed58	-2.6215184e-06
52	0xb69852ee	-4.5396073e-06
53	0x361acf60	2.3068496e-06
54	0x3779672a	1.4865576e-05
55	0x367dc0cb	3.7812158e-06
56	0x365614e6	3.190065e-06
57	0x3728e238	1.0066251e-05
58	0x36cdb55a	6.130588e-06
59	0x3775a3f4	1.4641311e-05
60	0x378099cc	1.5330406e-05
61	0x361dc701	2.3510659e-06
62	0x373cc3e9	1.1251287e-05
63	0xb69ce275	-4.6755254e-06
64	0x374773f8	1.1888325e-05
65	0x350f067b	5.328108e-07
66	0x364b57e1	3.030051e-06
67	0xb6594dd6	-3.2380826e-06
68	0x368df859	4.231039e-06
69	0xb51c0940	-5.812799e-07
70	0x356a782e	8.734668e-07
71	0xb6279b88	-2.497547e-06
72	0x3601ec6c	1.9360114e-06
73	0x3680f831	3.8435905e-06
74	0x35f4abd1	1.8229422e-06
75	0x365e74c7	3.3148551e-06
76	0x3706e73e	8.040863e-06
77	0x357e6b67	9.4778665e-07
78	0x36193eac	2.2835256e-06
79	0x36a9086f	5.0375743e-06
80	0xb6168233	-2.2427528e-06
81	0x369dec8f	4.7065037e-06
82	0x369482d9	4.4259764e-06
83	0x35c320c0	1.4538164e-06
84	0xb7291c0d	-1.0079716e-05
85	0xb77746e4	-1.4738853e-05
86	0xb5e52ba1	-1.7074527e-06
87	0xb679c2a1	-3.721718e-06
88	0xb700771f	-7.65713e-06
89	0x34c53b2c	3.6737163e-07
90	0xb685782b	-3.9776983e-06
91	0x361ea129	2.3637642e-06
92	0x3663a4d9	3.392159e-06
93	0x3708ca65	8.153355e-06
94	0x36aab2f0	5.087226e-06
95	0x368800b8	4.0531995e-06
96	0xb488f0f4	-2.550729e-07
97	0x35719a06	9.000363e-07
98	0xb4857e18	-2.4864926e-07
99	0x371f0036	9.477188e-06
100	0x3711de85	8.694483e-06
101	0x35b4b8f4	1.3464874e-06
102	0x358493c5	9.877773e-07
103	0xb628dd03	-2.5162597e-06
104	0x36965cb1	4.481139e-06
105	0x33e6072e	1.07115156e-07
106	0xb6024d76	-1.9416598e-06
107	0x33873180	6.2954314e-08
108	0x36d1bbb1	6.2505355e-06
109	0x363ceb82	2.8151267e-06
110	0xb5bb3174	-1.3946978e-06
111	0xb66cf820	-3.5311168e-06
112	0xb66d9148	-3.5400317e-06
113	0xb68220df	-3.8781286e-06
114	0xb6e4ce61	-6.818955e-06
115	0xb5ed91ee	-1.7700347e-06
116	0x3693f77b	4.409752e-06
117	0xb5130423	-5.4767787e-07
118	0xb65a47a3	-3.252623e-06
119	0x36af33af	5.221423e-06
120	0xb433d75d	-1.6749023e-07
121	0xb57ca02f	-9.4110413e-07
122	0x35c792f8	1.4869429e-06
123	0xb53fa337	-7.1390554e-07
124	0x3618d7ec	2.2775448e-06
125	0x359f8918	1.1886323e-06
126	0xb647d340	-2.9776274e-06
127	0xb5b4f8ca	-1.3483452e-06
128	0xb625b6b2	-2.4693259e-06
129	0x3612213d	2.1775043e-06
130	0x36371f4a	2.7287338e-06
131	0xb681b24b	-3.8652556e-06
132	0xb58fcabb	-1.0713333e-06
133	0xb54cac8c	-7.624701e-07
134	0xb4bb1568	-3.484704e-07
135	0x343ace25	1.7397595e-07
136	0x338ec7a4	6.648705e-08
137	0xb4f395b6	-4.5371206e-07
138	0xb5899651	-1.0251043e-06
139	0xb4c48a49	-3.660846e-07
140	0x3424b0f6	1.5338068e-07
141	0x3692f9c5	4.380216e-06
142	0x36fa309e	7.4562404e-06
143	0x36d3c273	6.310927e-06
144	0x360a8fc6	2.064729e-06
145	0xb59d58ca	-1.1723253e-06
146	0x36548e0a	3.167314e-06
147	0x3683a978	3.923833e-06
148	0x36941ff7	4.414465e-06
149	0x34d6827a	3.995554e-07
150	0xb67cf5e5	-3.7694056e-06
151	0xb6941dd7	-4.4142175e-06
152	0xb5001d3f	-4.7726274e-07
153	0x3478cba0	2.3170878e-07
154	0x36885ed4	4.0641553e-06
155	0x36b4e43c	5.390988e-06
156	0x365a5b09	3.253752e-06
157	0x3402c4df	1.2178815e-07
158	0xb5b09526	-1.315643e-06
159	0x352e507a	6.493716e-07
160	0x3610b065	2.1560347e-06
161	0xb5e2c2f1	-1.6895048e-06
162	0xb69b2585	-4.623728e-06
163	0xb6fa6972	-7.462856e-06
164	0xb6eb49cf	-7.012138e-06
165	0xb68021a2	-3.8186126e-06
166	0xb59372e7	-1.0985794e-06
167	0xb68ad7d7	-4.1378476e-06
168	0xb60e3ac4	-2.1193855e-06
169	0xb60fb66e	-2.1414849e-06
170	0xb60e0b83	-2.116635e-06
171	0xb60f67b1	-2.1369017e-06
172	0xb60e84dc	-2.1236983e-06
173	0xb60d9043	-2.1094609e-06
174	0xb60f7eb2	-2.1382407e-06
175	0xb5ef4944	-1.7828211e-06
176	0xb5e3ab66	-1.6962701e-06
177	0xb5ef6afb	-1.7838023e-06
178	0xb5f01c0d	-1.7889557e-06
179	0xb5e55577	-1.7086703e-06
180	0xb5e5124c	-1.7067155e-06
181	0xb5dfe4e4	-1.6681411e-06
182	0xb50ecce2	-5.3197266e-07
183	0xb50fb432	-5.353387e-07
184	0xb510ebf5	-5.3987543e-07
185	0xb5118f3a	-5.422513e-07
186	0xb5269147	-6.2051225e-07
187	0xb510cdb4	-5.394352e-07
188	0xb50ebfb8	-5.317811e-07
189	0xb5c44963	-1.4624496e-06
190	0xb5c2c00a	-1.4510017e-06
191	0xb5bbac25	-1.3982686e-06
192	0xb5bad05c	-1.391872e-06
193	0xb5ae9f05	-1.3010291e-06
194	0xb5ba390e	-1.3874685e-06
195	0xb5abbad1	-1.2794864e-06
196	0x36a9754d	5.050248e-06
197	0x36aaadf6	5.0866465e-06
198	0x36ab484d	5.104614e-06
199	0x36aabe78	5.0885683e-06
200	0x36aaee31	5.094124e-06
201	0x36a9136c	5.0388535e-06
202	0x36aa3ad5	5.0732438e-06
203	0x365b0b9a	3.2640296e-06
204	0x365f026b	3.3230997e-06
205	0x3659a5b6	3.2431976e-06
206	0x3658c238	3.2299558e-06
207	0x36578609	3.2115515e-06
208	0x36603d7c	3.341439e-06
209	0x365f3794	3.326194e-06
210	0xb6baed9f	-5.5708947e-06
211	0x364ac443	3.0214585e-06
212	0xb7001eae	-7.636538e-06
213	0xb6ddcae3	-6.6099324e-06
214	0xb6e604a1	-6.855073e-06
215	0xb64f31f0	-3.087447e-06
216	0xb6a5648a	-4.9290875e-06
217	0xb4dcb302	-4.110844e-07
218	0xb6051cf9	-1.9835409e-06
219	0x3798c95b	1.8213575e-05
220	0x360a198b	2.057847e-06
221	0x37221c2f	9.6625145e-06
222	0xb6509707	-3.1082325e-06
223	0x36709c34	3.585371e-06
224	0x3669b3cc	3.4824361e-06
225	0x372c3677	1.026468e-05
226	0xb58159f2	-9.637427e-07
227	0xb513c0d8	-5.504239e-07
228	0xb6faaaa2	-7.470445e-06
229	0xb739d0f7	-1.1075513e-05
230	0x36c6b292	5.921648e-06
231	0x363e536b	2.8360762e-06
232	0xb73a5bc5	-1.1107831e-05
233	0xb6592cc0	-3.2361568e-06
234	0x37414de3	1.1521831e-05
235	0xb611e958	-2.1742508e-06
236	0xb7206949	-9.561257e-06
237	0xb62286b3	-2.4218286e-06
238	0x366d3485	3.5346322e-06
239	0xb61c314a	-2.3274501e-06
240	0xb5b0c75d	-1.3171044e-06
241	0x3619b683	2.2905012e-06
242	0x366d265a	3.5338076e-06
243	0x363fc7c9	2.8577508e-06
244	0x3604f00b	1.9809256e-06
245	0xb714c930	-8.86833e-06
246	0x36c0dcce	5.747751e-06
247	0x36b0a6f1	5.2646433e-06
248	0x3606f7b1	2.0111731e-06
249	0x36dbeb31	6.5540885e-06
250	0xb428fc55	-1.5738017e-07
251	0xb785c86e	-1.5948168e-05
252	0xb63d1d77	-2.8180345e-06
253	0xb6b49d02	-5.382696e-06
254	0xb649d885	-3.0077365e-06
255	0x364b873f	3.032808e-06

exp_avg_sq f4 [256, 210]
0	0x318c4125	4.0819423e-09
1	0x31687287	3.3825545e-09
2	0x317b25f2	3.6546877e-09
3	0x3170bd31	3.503214e-09
4	0x3171dc9c	3.5195518e-09
5	0x3181add7	3.7741574e-09
6	0x31947d99	4.3216457e-09
7	0x312ea79e	2.5415612e-09
8	0x31332659	2.6069726e-09
9	0x3124f5b7	2.4004814e-09
10	0x31421468	2.8242315e-09
11	0x31408be7	2.8019203e-09
12	0x312febb5	2.5599836e-09
13	0x31397c11	2.6991567e-09
14	0x312d3d65	2.5209712e-09
15	0x3166f851	3.3610557e-09
16	0x314c1f99	2.9703868e-09
17	0x312e6d53	2.5382476e-09
18	0x3132c09a	2.601189e-09
19	0x3138415c	2.6812677e-09
20	0x31323aa6	2.5935747e-09
21	0x3109b01b	2.0036228e-09
22	0x310cf909	2.0514241e-09
23	0x310de237	2.0646789e-09
24	0x31131d49	2.1407962e-09
25	0x311779d3	2.204264e-09
26	0x310cc51d	2.0484727e-09
27	0x314f0afd	3.012871e-09
28	0x3110e5c0	2.1085356e-09
29	0x310a06db	2.008554e-09
30	0x314be12d	2.9668386e-09
31	0x3131af44	2.5856517e-09
32	0x3111938b	2.1184146e-09
33	0x311e5d06	2.3044904e-09
34	0x3118540d	2.2166688e-09
35	0x313b44c5	2.7251172e-09
36	0x3113bb49	2.1497775e-09
37	0x310ab2f2	2.0183362e-09
38	0x31175c6e	2.2025932e-09
39	0x3123f392	2.3858076e-09
40	0x31086568	1.9848247e-09
41	0x310f0177	2.0810071e-09
42	0x309e7735	1.1529894e-09
43	0x30fb9d8e	1.8307433e-09
44	0x30e74082	1.6825796e-09
45	0x30af2f67	1.2746398e-09
46	0x3104da96	1.933278e-09
47	0x30e86f3d	1.6911837e-09
48	0x30ddbebb	1.6134075e-09
49	0x310c5167	2.0418953e-09
50	0x30c274e9	1.4148586e-09
51	0x30c6fa8f	1.4477609e-09
52	0x31087f1c	1.9862858e-09
53	0x30bf3c01	1.3914133e-09
54	0x30dfe4b5	1.6290388e-09
55	0x30e041ce	1.6316848e-09
56	0x30cd2586	1.4926378e-09
57	0x30bd8d8a	1.3791788e-09
58	0x30cc078d	1.48451e-09
59	0x30cea811	1.503624e-09
60	0x30c066ec	1.3999091e-09
61	0x30ca635d	1.4725675e-09
62	0x3086ae02	9.799239e-10
63	0x30b31051	1.3028602e-09
64	0x30cc95eb	1.4885563e-09
65	0x30bf471f	1.3917293e-09
66	0x30c29e81	1.4160407e-09
67	0x30bc8f2e	1.3719494e-09
68	0x30c55fc0	1.436085e-09
69	0x3086c73d	9.80641e-10
70	0x307a7b20	9.112444e-10
71	0x308636d3	9.765365e-10
72	0x307bfc15	9.16715e-10
73	0x30854d19	9.698936e-10
74	0x308d7a25	1.0293816e-09
75	0x30706489	8.745436e-10
76	0x305e5bb2	8.0893436e-10
77	0x30801573	9.319322e-10
78	0x306d3a6e	8.630313e-10
79	0x307b78e8	9.1485086e-10
80	0x308acbe2	1.0098768e-09
81	0x3087ec61	9.889726e-10
82	0x307cf0fd	9.201953e-10
83	0x304023ac	6.9899886e-10
84	0x307c4849	9.177979e-10
85	0x3081dec5	9.4493e-10
86	0x3090b2f7	1.0528244e-09
87	0x3080a523	9.36016e-10
88	0x3089ac24	1.0016987e-09
89	0x308c6aaa	1.0216656e-09
90	0x304ce5a1	7.454109e-10
91	0x306145a0	8.1953466e-10
92	0x306528c2	8.3367635e-10
93	0x306eeda4	8.6921603e-10
94	0x3068d4ff	8.4703794e-10
95	0x308901d3	9.96858e-10
96	0x30705653	8.7434165e-10
97	0x30437dc9	7.111934e-10
98	0x306a836f	8.531548e-10
99	0x30604c1e	8.1598894e-10
100	0x30752fa1	8.9198166e-10
101	0x308286de	9.497076e-10
102	0x30688ced	8.4601376e-10
103	0x3064eb19	8.328001e-10
104	0x302aa703	6.208298e-10
105	0x303b0a1f	6.8044587e-10
106	0x30031393	4.768534e-10
107	0x301708a1	5.494574e-10
108	0x3047239c	7.244638e-10
109	0x30011672	4.6961823e-10
110	0x300567a0	4.853238e-10
111	0x3015fb6c	5.4563176e-10
112	0x2ff6a523	4.4864476e-10
113	0x30299668	6.169558e-10
114	0x3026048d	6.0396915e-10
115	0x2ff6bf5a	4.4883103e-10
116	0x30364dc4	6.6321726e-10
117	0x303293e6	6.49662e-10
118	0x301bea2c	5.672145e-10
119	0x3000d01a	4.686186e-10
120	0x30036235	4.7797083e-10
121	0x3005cde5	4.867771e-10
122	0x3008f6c1	4.982717e-10
123	0x30044ed1	4.8133325e-10
124	0x3001b340	4.7184656e-10
125	0x2f7898e5	2.2609788e-10
126	0x2fe83bb3	4.2242973e-10
127	0x2ff950c4	4.5350224e-10
128	0x30043106	4.8090987e-10
129	0x30090191	4.9842536e-10
130	0x30056013	4.852165e-10
131	0x2ffb7aaa	4.5743792e-10
132	0x2f673476	2.1027965e-10
133	0x2fd22177	3.8222556e-10
134	0x2fc734a6	3.6235298e-10
135	0x2fc688f7	3.611331e-10
136	0x2fdcb1c0	4.0144066e-10
137	0x2fcf3e8e	3.7697528e-10
138	0x2fc54bbf	3.5887912e-10
139	0x2f5d5338	2.0129398e-10
140	0x2fd10a0d	3.802402e-10
141	0x2fcc5ddb	3.7174072e-10
142	0x2fc851cd	3.643791e-10
143	0x2fce7e22	3.7560804e-10
144	0x2fcbbaf4	3.7058323e-10
145	0x2fcc3fe9	3.7152795e-10
146	0x2f69d71d	2.126765e-10
147	0x2fa8662f	3.0631628e-10
148	0x2fad94a8	3.1574143e-10
149	0x2fa91bf3	3.076078e-10
150	0x2fac02b7	3.1288547e-10
151	0x2faec1aa	3.1788022e-10
152	0x2fa807df	3.0564615e-10
153	0x2f448ea6	1.7876775e-10
154	0x2f8e55a9	2.5890515e-10
155	0x2f924ee3	2.6613298e-10
156	0x2f8f438f	2.6059552e-10
157	0x2f8e67f6	2.5903518e-10
158	0x2f8d219b	2.567163e-10
159	0x2f8b5fa4	2.535191e-10
160	0x2f54f0f3	1.936689e-10
161	0x2f98d29b	2.7798283e-10
162	0x2f917aae	2.6462516e-10
163	0x2f93007b	2.6739486e-10
164	0x2f9573fc	2.7185354e-10
165	0x2f9a7706	2.8097008e-10
166	0x2fa05564	2.9164504e-10
167	0x2f66b0e5	2.0981224e-10
168	0x2f5c6023	2.0043038e-10
169	0x2f5c3933	2.0029205e-10
170	0x2f5ca338	2.006687e-10
171	0x2f5c73a3	2.0049966e-10
172	0x2f5b10f5	1.9923958e-10
173	0x2f5c7259	2.0049508e-10
174	0x2f5cc9b2	2.008054e-10
175	0x2f5a06b1	1.9829362e-10
176	0x2f5a8ab7	1.9876266e-10
177	0x2f5a6c0d	1.9865372e-10
178	0x2f597369	1.9777037e-10
179	0x2f5aa89c	1.9886887e-10
180	0x2f5a83c0	1.9873792e-10
181	0x2f5d209d	2.011142e-10
182	0x2f4f2293	1.8838824e-10
183	0x2f4f196b	1.883557e-10
184	0x2f4f570a	1.8857463e-10
185	0x2f4f3c4b	1.884796e-10
186	0x2f4e6625	1.877188e-10
187	0x2f4f447e	1.8850874e-10
188	0x2f4f16ed	1.8834685e-10
189	0x2f50f737	1.9005318e-10
190	0x2f522c31	1.9115089e-10
191	0x2f520b06	1.9103305e-10
192	0x2f515981	1.9040237e-10
193	0x2f51130d	1.9015207e-10
194	0x2f52684d	1.9136444e-10
195	0x2f51db94	1.9086449e-10
196	0x2f453c36	1.7938437e-10
197	0x2f44d542	1.790186e-10
198	0x2f444a77	1.7852551e-10
199	0x2f45b0a8	1.7979807e-10
200	0x2f4322cc	1.7747509e-10
201	0x2f44b153	1.7889094e-10
202	0x2f44fa05	1.7914921e-10
203	0x2f466715	1.8044617e-10
204	0x2f472c30	1.8114643e-10
205	0x2f46a4b6	1.8066512e-10
206	0x2f45ff9b	1.8007855e-10
207	0x2f461ed9	1.8018954e-10
208	0x2f473085	1.8116182e-10
209	0x2f46c6e7	1.807866e-10
210	0x318b5c92	4.0559565e-09
211	0x31a11da8	4.6890882e-09
212	0x31aedd94	5.089257e-09
213	0x319aa986	4.5012625e-09
214	0x318426da	3.8461225e-09
215	0x31782dff	3.6114896e-09
216	0x319cea19	4.5668114e-09
217	0x31533b26	3.0738163e-09
218	0x315d5063	3.2205427e-09
219	0x315065fc	3.0325955e-09
220	0x316bfa21	3.4339183e-09
221	0x315ddad8	3.228413e-09
222	0x314cfc5b	2.9829355e-09
223	0x317249e0	3.5257628e-09
224	0x315ae862	3.185527e-09
225	0x31509621	3.0353322e-09
226	0x3150c966	3.0382465e-09
227	0x3157b972	3.1392031e-09
228	0x315e18d7	3.2319372e-09
229	0x3164b066	3.3278638e-09
230	0x317abb34	3.64862e-09
231	0x31526328	3.0615386e-09
232	0x3134994a	2.6280582e-09
233	0x3141970c	2.8171057e-09
234	0x3137ff96	2.6775289e-09
235	0x312f12c8	2.5476528e-09
236	0x313561a6	2.6394473e-09
237	0x313de2f3	2.7632125e-09
238	0x3135b84b	2.6443725e-09
239	0x31264393	2.419459e-09
240	0x3133b8ed	2.6153046e-09
241	0x314e051a	2.9979845e-09
242	0x312beefa	2.5019617e-09
243	0x3135bb8c	2.6445575e-09
244	0x312e9313	2.5403935e-09
245	0x312e7857	2.5388738e-09
246	0x313703c4	2.6632145e-09
247	0x313b49f6	2.7254123e-09
248	0x314b54b3	2.9588534e-09
249	0x31360e75	2.6492704e-09
250	0x314a8eed	2.9476113e-09
251	0x313766ff	2.6688551e-09
252	0x30dab139	1.5911957e-09
253	0x31104d76	2.099879e-09
254	0x3103f158	1.9200197e-09
255	0x30d7f4a8	1.5712844e-09

exp_avg f4 [256]
0	0x356a4da5	8.728478e-07
1	0xb5a69ee1	-1.2414204e-06
2	0xb6e60a6b	-6.855747e-06
3	0x325f7c15	1.3008521e-08
4	0xb574d828	-9.121163e-07
5	0x35f114f9	1.7962003e-06
6	0xb6ab6d54	-5.1089246e-06
7	0x37143555	8.833905e-06
8	0x35c144cb	1.4399642e-06
9	0x3693237f	4.3850737e-06
10	0x35194696	5.709966e-07
11	0x366de584	3.5449348e-06
12	0x360c7158	2.09276e-06
13	0xb69b6e66	-4.632212e-06
14	0xb611173b	-2.1620206e-06
15	0xb4bf3f1b	-3.5622438e-07
16	0xb613d242	-2.2027093e-06
17	0x351fbb09	5.950429e-07
18	0xb7155233	-8.900231e-06
19	0xb5257ac6	-6.164595e-07
20	0xb61fb197	-2.3796217e-06
21	0xb65b3f72	-3.2670473e-06
22	0x35a089f7	1.1961082e-06
23	0x35ee1bea	1.7740506e-06
24	0xb4d4584c	-3.9552322e-07
25	0x368b8a1e	4.1586018e-06
26	0x36924169	4.358754e-06
27	0x36f0ca39	7.176099e-06
28	0xb6902821	-4.296206e-06
29	0xb63c7dea	-2.8087475e-06
30	0xb513ac45	-5.501245e-07
31	0x366376d3	3.38948e-06
32	0x35810cc3	9.614963e-07
33	0xb612c2a5	-2.1868993e-06
34	0xb68563e2	-3.9753368e-06
35	0xb62ec65a	-2.6043476e-06
36	0xb6d7d5fb	-6.43241e-06
37	0xb62b239b	-2.550171e-06
38	0x35001fbc	4.7729895e-07
39	0x36051e85	1.983631e-06
40	0x36a04f70	4.7776193e-06
41	0xb699ecb3	-4.5873107e-06
42	0xb620032e	-2.3843709e-06
43	0x35d5d967	1.5933009e-06
44	0xb6d0ae6b	-6.219188e-06
45	0x364cc695	3.0513959e-06
46	0x35441c34	7.305673e-07
47	0x35b86f43	1.374145e-06
48	0x359d30db	1.171163e-06
49	0x357d519c	9.43686e-07
50	0x354ad600	7.5562275e-07
51	0x34965783	2.800335e-07
52	0x36e1a867	6.725127e-06
53	0x34af43c3	3.2645593e-07
54	0xb66b6142	-3.507434e-06
55	0xb69cc78f	-4.672394e-06
56	0x35fe8c75	1.8965353e-06
57	0xb4bae435	-3.4811242e-07
58	0xb42048a2	-1.4927585e-07
59	0xb68c4e3b	-4.1814324e-06
60	0xb623c1b5	-2.4401645e-06
61	0xb55c56d3	-8.208273e-07
62	0xb5924ecd	-1.0900782e-06
63	0x356d07ad	8.830055e-07
64	0x36cce5a6	6.1064084e-06
65	0xb5da0738	-1.6244367e-06
66	0x355a386a	8.129342e-07
67	0x358f1777	1.0661159e-06
68	0xb6a31846	-4.8606043e-06
69	0x3615db2e	2.233031e-06
70	0xb6a6c454	-4.970041e-06
71	0xb68188e3	-3.8604353e-06
72	0x35d88abb	1.613363e-06
73	0x36c6f688	5.92956e-06
74	0xb73761c7	-1.0930416e-05
75	0x3540a8d5	7.1771257e-07
76	0xb54e819f	-7.6929604e-07
77	0x35888a0f	1.017297e-06
78	0xb70fb685	-8.56596e-06
79	0xb690d6ed	-4.316555e-06
80	0xb5ca16ce	-1.505681e-06
81	0x36bd6c11	5.6452195e-06
82	0xb6f1df12	-7.2083285e-06
83	0x3733d26f	1.0718227e-05
84	0x36a48ed5	4.9042087e-06
85	0xb6219939	-2.4080057e-06
86	0xb64870cf	-2.9867986e-06
87	0xb5052ce1	-4.961167e-07
88	0xb429f85a	-1.5829701e-07
89	0xb6e4390b	-6.80157e-06
90	0x35f33f4b	1.8123332e-06
91	0xb590e50f	-1.0795501e-06
92	0xb4bb067e	-3.4836188e-07
93	0x3633afce	2.677541e-06
94	0xb60200c9	-1.9371967e-06
95	0xb6dc9345	-6.5736554e-06
96	0xb51d6239	-5.862999e-07
97	0xb4d1263f	-3.895711e-07
98	0x36404243	2.86488e-06
99	0xb6cf8822	-6.1849287e-06
100	0x35733fc8	9.061737e-07
101	0xb6781739	-3.6968397e-06
102	0xb62bfced	-2.5628208e-06
103	0xb60997b4	-2.0502894e-06
104	0x35c75c19	1.4853459e-06
105	0xb34c8c4a	-4.7625043e-08
106	0xb62ba654	-2.5577801e-06
107	0xb628e288	-2.516581e-06
108	0xb6425b7a	-2.89615e-06
109	0x3533dcaf	6.7003833e-07
110	0x372ec5a8	1.0417229e-05
111	0xb6098b87	-2.0495806e-06
112	0xb610275a	-2.1480578e-06
113	0x36816f86	3.8574826e-06
114	0x3554b9e9	7.924669e-07
115	0xb68b1ba2	-4.1457397e-06
116	0x36a62ea6	4.952616e-06
117	0xb62cc5a1	-2.5745032e-06
118	0x361f76de	2.3762036e-06
119	0xb6c1d181	-5.7762377e-06
120	0x36543262	3.1619788e-06
121	0x36628f16	3.3759911e-06
122	0xb5e6d00c	-1.7196885e-06
123	0x3632d6da	2.6649127e-06
124	0x3162d744	3.3009693e-09
125	0x34400d6e	1.7886279e-07
126	0xb6658d22	-3.420581e-06
127	0x359777a5	1.1285198e-06
128	0x35dc874b	1.6430653e-06
129	0xb4fbaedb	-4.6879617e-07
130	0xb61526bb	-2.2225274e-06
131	0xb6b78a70	-5.4699412e-06
132	0x36a1a53a	4.817409e-06
133	0x366a08e3	3.487389e-06
134	0x345fd6c9	2.0846632e-07
135	0x358519be	9.916764e-07
136	0x368d1b45	4.205302e-06
137	0x36511f8c	3.116179e-06
138	0x34c6b906	3.7014996e-07
139	0xb670de06	-3.5892022e-06
140	0x36a6ffc3	4.97696e-06
141	0xb59eabd4	-1.1821926e-06
142	0xb589aeba	-1.0258148e-06
143	0xb47ee39a	-2.3738394e-07
144	0xb6a6c4a8	-4.9700793e-06
145	0xb6c4f37c	-5.8696005e-06
146	0xb6b36cf0	-5.3472977e-06
147	0xb60bae15	-2.0813943e-06
148	0x3683c912	3.927512e-06
149	0xb6ca6acc	-6.032502e-06
150	0x3702377e	7.761524e-06
151	0xb4a9d0e5	-3.1630694e-07
152	0x35c9341c	1.4990833e-06
153	0xb5a45481	-1.2243546e-06
154	0x3588d491	1.0194655e-06
155	0x372e4a25	1.0388471e-05
156	0xb5c72a01	-1.483888e-06
157	0x37016d35	7.714426e-06
158	0x35809bc4	9.582077e-07
159	0x3552695b	7.838441e-07
160	0xb5e0f2cf	-1.6759967e-06
161	0xb600c02f	-1.9185352e-06
162	0x34ee25d8	4.435849e-07
163	0xb6594e80	-3.2381213e-06
164	0x35b7ea58	1.3702766e-06
165	0x3658a8a2	3.2284665e-06
166	0xb655fd8d	-3.188706e-06
167	0xb69375a0	-4.3946347e-06
168	0x36929fca	4.369741e-06
169	0x35b6b16e	1.3611696e-06
170	0xb62a0807	-2.5336647e-06
171	0xb6ada758	-5.175283e-06
172	0x3634f708	2.6965881e-06
173	0xb574d250	-9.120313e-07
174	0x36870195	4.0234977e-06
175	0xb62741af	-2.4923172e-06
176	0xb6935fd9	-4.3920995e-06
177	0x36506d7c	3.1058144e-06
178	0x364d90c8	3.0631654e-06
179	0x345365f6	1.9688e-07
180	0xb5bbe511	-1.3999253e-06
181	0x3689f863	4.111834e-06
182	0xb6d076ec	-6.2127274e-06
183	0xb5ccd4f2	-1.526116e-06
184	0xb483e238	-2.4565247e-07
185	0xb610d961	-2.1584203e-06
186	0x35790504	9.2767027e-07
187	0xb5afeab8	-1.3106828e-06
188	0xb3bc0693	-8.755628e-08
189	0xb3c63110	-9.229018e-08
190	0x35e34733	1.693354e-06
191	0x35ece6da	1.7650557e-06
192	0x3587057c	1.005988e-06
193	0x35f0b6db	1.7934611e-06
194	0x36d09bba	6.217012e-06
195	0xb5d0f1ba	-1.5567559e-06
196	0xb6a4b187	-4.908248e-06
197	0x35b4f194	1.3481354e-06
198	0xb5e77c26	-1.7246973e-06
199	0x36462748	2.9527164e-06
200	0xb5fb3f66	-1.8719409e-06
201	0x369fb40a	4.7595286e-06
202	0x34d337a5	3.93423e-07
203	0xb559c4ac	-8.1124995e-07
204	0xb68f6515	-4.2734996e-06
205	0xb6838029	-3.919024e-06
206	0x3613b6cd	2.201111e-06
207	0x36740d31	3.6366512e-06
208	0x36a9e21b	5.0629146e-06
209	0xb4e5a146	-4.2771916e-07
210	0x368a88fc	4.1286676e-06
211	0xb47a1f89	-2.3294537e-07
212	0xb6ba53ea	-5.553001e-06
213	0xb6d0f89e	-6.227826e-06
214	0xb6e9b41b	-6.964908e-06
215	0xb6da2dc6	-6.502235e-06
216	0xb6e133af	-6.7115393e-06
217	0x35a05225	1.1944836e-06
218	0xb62e6ee6	-2.5992572e-06
219	0xb5e6f31b	-1.7207088e-06
220	0x35c71997	1.4834103e-06
221	0xb6e72ce7	-6.889564e-06
222	0x354f6e7e	7.7274296e-07
223	0xb6df55a0	-6.655886e-06
224	0xb6ea48fc	-6.98224e-06
225	0xb6c14746	-5.7601455e-06
226	0x363f3f91	2.8498218e-06
227	0x369df8f6	4.7079475e-06
228	0x3618b7a2	2.2756653e-06
229	0xb5bf6283	-1.425928e-06
230	0xb757b766	-1.2857699e-05
231	0x36aba678	5.1155766e-06
232	0x3693ad72	4.401133e-06
233	0xb5c02a06	-1.4317345e-06
234	0x3606bf73	2.0078994e-06
235	0xb5b7e16c	-1.3700169e-06
236	0x3635724a	2.7037627e-06
237	0xb2c0c83d	-2.24428e-08
238	0x36cc5d15	6.09051e-06
239	0x365e0154	3.308135e-06
240	0xb7153c49	-8.895128e-06
241	0x3663c48d	3.3940044e-06
242	0xb5f2d395	-1.8091984e-06
243	0xb59921d3	-1.1409232e-06
244	0xb4a1e96a	-3.0158418e-07
245	0xb4b0c573	-3.2926218e-07
246	0xb6740bec	-3.6365773e-06
247	0x3568c3d4	8.67117e-07
248	0x36c68ce1	5.9172603e-06
249	0x361adb7a	2.307554e-06
250	0xb6be849f	-5.6778804e-06
251	0xb6355072	-2.7017927e-06
252	0xb5b4301f	-1.342505e-06
253	0xb46e0bcd	-2.216977e-07
254	0xb710ba49	-8.626442e-06
255	0x36939ab8	4.398953e-06
