mcao/neural/unsupervised/trained/2019-02-08-13:07:34.pth (torch_old, 835359 bytes, 12 tensors)

layer1.weight f4 [256, 210]
00000000: 890d 3fbc 7a3f 46bd ae6c 07bd 95cd a33c
00000010: c5d9 aa3d 80a6 8f3d f3f9 203b d52b 753d
00000020: 49b0 08bd 0bcc 403c 462d 45bd 4a83 4dbd
00000030: 549b b53c 2fd6 093d 931a 3fbc e031 143d
00000040: 45e2 253d fbbc 05bd 6545 f0bc 02c3 78bc
00000050: 0e77 863c d4a3 52bd 5b71 05bd db21 5d3b
00000060: 48ed de3b 5415 a83c c0e2 14bc 6aa8 0fbb
00000070: 7b83 cf3b 69c1 81bd cca7 84bb 4ce2 2c3d
00000080: 3f64 89bc b24d 3d3b 127d 18bd 7912 dd3c
00000090: 59cf 39bc f1a2 313c 8987 ae3d 3e55 693d
000000a0: 9c35 be3c f1b5 f8bc 5b9c 96bc dafe 16bd
000000b0: 7e4e 783d fbad 06bd 54b9 94bc 05ca 31bd
000000c0: fc7c 40bd 062d 75bd 0801 5b3d d394 2f3d
000000d0: 6cbc 413d 4433 dd3c 8e87 033d 9105 1c3d
000000e0: e31d 74bd ac51 ecbd 670f c7bb 2332 02be
000000f0: d449 f63b e66a 9d3c b212 bb3b ade1 013c
00000100: 00b3 b9ba 9cee 9c3c 8446 973b 6694 f6bc
00000110: bebd 563c 894b b93b 8197 dfbd f76d ddbc
00000120: 720d 86bd ab0d 6bbd 039c 493d 356f e439
00000130: 2539 b43c be4c de3c 9076 22bd 6b8f 973b
00000140: bf0c d03c 7053 24bc 1e09 5d3d 55b5 823d
00000150: 6e3d 83bd 3445 6abd 7223 26bd aea6 35bd
00000160: ef69 2f3d f629 90bd dd9d b2bc e011 393c
00000170: 6a9b 1f3d 6594 90bc df68 263d 289e 2439
00000180: 372a 5d3d bfe7 92bd 9752 393b 0554 833b
00000190: 04ce ec3c faf8 3c3d e1bf 753c 79f4 973d
000001a0: 974e 42bb b737 2c3d f0b6 bebb a0ff b83c
000001b0: 4bfe 733c 8fd0 f83c 3f38 e1bb 0ccf d03c
000001c0: 0b31 d03c f716 b9bd 1113 84bc f71e d63c
000001d0: 3b4c abbc 872d cebc e345 eebc 3c29 b1bb
000001e0: ac91 043d 0f66 1a3d 29e9 4d3c 2ef3 ebbc
000001f0: da09 173d 6b92 f6ba e1bb 68bd 6e8d 4fbd
00000200: 3472 d1bc 1f1a 82bd d0bc b1bc 72cd 823d
00000210: d047 22bd 2bde f23c 5412 82bc ac1a 2abd
00000220: 2f76 f73c 1830 aabd e06a 6bbd e06a 5abd
00000230: 401c 80bd 50ca 4dbd b1c8 543c 51f5 89bd
00000240: 92b1 8bbc 2c48 b43c 1d6c 2cbd ad52 3dbb
00000250: 3c03 d4bc 26ae c2bc eb77 833c bddf 83bd
00000260: 53ee 93bc cf27 bdbc 736c 6dbd a8a1 23bd
00000270: 7761 5cbd e667 393d 1dea 45bd 99dd ac3c
00000280: b840 c8bc 116a 6ebd 5135 7e3d 588b 3ebc
00000290: 0a1a 173d 3cd5 90bd afc7 273d 3808 8a3c
000002a0: fd91 4c3c 52b7 78bb 4d11 30bb e431 723c
000002b0: 84c7 e13d 6b20 be3c 4e19 843d 16c8 4c3d
000002c0: 9bf4 7c3d a01b 7dbc 235f 6dbd e96d f2bc
000002d0: b613 d73c 7298 a8bb 58ff cbba 08b3 793d
000002e0: 20e0 673d 3787 c13c 827d 433d 6738 b43b
000002f0: f6b7 993d 0756 acbc b1f7 9d3d e601 b93b
00000300: a43e 923d 03b4 8a3d 3ce5 20bd 06ce 08bd
00000310: ddd3 943b f8b6 fbbc 3e57 98bd cc92 20bd
00000320: b7c2 92bd e76a 5a3d a88a 863c d8ff 7fbd
00000330: b660 d7bb 445b 603d 51af 023d 12f8 2cbd
00000340: 32ad 96bb 5e8d 643d 4462 753d fe21 333d
00000350: 0425 9ebb e0aa 84bd 9411 06bd a163 e83d
00000360: 51d1 eb3c 1a93 333a 9476 0f3d 4afe 923c
00000370: f5e6 0f3e d862 df3d 9952 663d e17e 70bb
00000380: 99ce 2bbd dd45 0c3d 0681 b33d 35f0 993d
00000390: f3f3 b13d 2c90 133d 8fea 18bc f449 5a3c
000003a0: 1e3b 113e c969 8e3c 7b5c 2e3d 4903 553d
000003b0: f739 b2bb 5033 203c f4a3 1f3d ee85 62bd
000003c0: f9d4 883c c1ac 80bc 0daf 22bd b046 fdbc
000003d0: 0870 1cbd 2087 0ebb 7b35 573d ecc6 14bb
000003e0: 23c6 2bba 1eb5 043e b7f2 6d3d 5f3e 9d3d
000003f0: c417 5bbc 1ea0 c5bd 35ea 0fbd bc4b a5bb
-0.011660942 -0.04840038 -0.03306263 0.01999549 0.083423175 0.07014179 0.0024563044 0.059856255
-0.033371244 0.011767398 -0.04813888 -0.050174035 0.022168793 0.033651527 -0.011664051 0.036180377
0.04049899 -0.03265093 -0.029329965 -0.015183212 0.016414192 -0.05142577 -0.032578807 0.0033742103
0.0068031885 0.020517983 -0.009087265 -0.002192045 0.0063328124 -0.06335718 -0.0040483233 0.042208
-0.016771434 0.0028885421 -0.03722865 0.026986348 -0.011340939 0.010842071 0.08521945 0.05696606
0.023218922 -0.030360194 -0.018385103 -0.03686414 0.06062173 -0.032880764 -0.018154778 -0.04340555
-0.046994194 -0.05985739 0.05346778 0.04286654 0.047298834 0.027001984 0.032111697 0.038091246
-0.059598815 -0.11539015 -0.006074834 -0.12714438 0.007516125 0.019216012 0.0057090158 0.00792734
-0.0014167726 0.019156747 0.0046165604 -0.030100059 0.0131067615 0.0056547564 -0.10917569 -0.027029974
-0.06545533 -0.05738608 0.04922105 0.00043570405 0.021999905 0.027136203 -0.03966385 0.004625251
0.025396703 -0.010029659 0.053963773 0.063822426 -0.06408201 -0.057194903 -0.040561147 -0.04434841
0.042825636 -0.070392534 -0.02180379 0.011295766 0.038966574 -0.017648885 0.040627357 0.00015699177
0.053995337 -0.07173108 0.0028277987 0.0040078186 0.02890683 0.04613588 0.014999361 0.07419676
-0.0029648894 0.04204532 -0.0058201477 0.022582829 0.014892171 0.030372886 -0.00687316 0.025489353
0.02541401 -0.09037583 -0.016122373 0.026137812 -0.020910373 -0.025168194 -0.029086059 -0.005406527
0.032365486 0.037694987 0.012567797 -0.02880248 0.03687463 -0.0018811947 -0.0568198 -0.050671987
-0.025567152 -0.063526385 -0.021696478 0.06386842 -0.039619267 0.029646954 -0.01587788 -0.041529343
0.030207722 -0.083099544 -0.05747497 -0.05332458 -0.06255388 -0.05024177 0.012987302 -0.067362435
-0.017052446 0.02200707 -0.042095292 -0.002888839 -0.025880449 -0.023764681 0.016048392 -0.06439159
-0.018057978 -0.023090271 -0.057964753 -0.03994909 -0.053803887 0.0452651 -0.04831897 0.02110176
-0.024444923 -0.05820662 0.062062565 -0.011629902 0.036890067 -0.07071921 0.040961917 0.016849622
0.012485978 -0.0037951064 -0.002686578 0.014782403 0.11024383 0.023208817 0.06450139 0.049995504
0.06175671 -0.015448481 -0.057952058 -0.029593425 0.026254516 -0.005145126 -0.0015563769 0.060961753
0.056610227 0.023624046 0.047727115 0.0054998877 0.07505791 -0.021037115 0.07713259 0.0056459783
0.07140854 0.06772616 -0.039281115 -0.033399604 0.0045418576 -0.030726895 -0.07438515 -0.039202496
-0.07166045 0.053324606 0.016423538 -0.06249985 -0.006572808 0.054774538 0.031905476 -0.042228766
-0.004598283 0.05579888 0.059908167 0.04373359 -0.00482619 -0.06477904 -0.032731608 0.11347128
0.028786333 0.0006850228 0.035025194 0.01794352 0.14052947 0.10907525 0.056231115 -0.003669672
-0.041945074 0.034246314 0.08764844 0.07516519 0.08689108 0.036026165 -0.009333267 0.013323296
0.14182708 0.017384427 0.042568665 0.052005086 -0.005439039 0.009777859 0.038974717 -0.055303507
0.016703116 -0.015707375 -0.039717723 -0.030917495 -0.03819278 -0.0021748021 0.052541237 -0.0022701574
-0.0006552657 0.12959716 0.0580928 0.07677912 -0.013372365 -0.096496806 -0.035135467 -0.0050444286

layer1.bias f4 [256]
00000000: fc87 0bbd ab01 993c 0f59 243d 647a 9d3d
00000010: 53f1 043d 5141 c23d 32e9 dd3e 049b 903c
00000020: 6b53 33bd ce7f f53e 68af 033f 7568 36bc
00000030: bff2 153d 6171 ce3e 6d5e a23d 6946 0d3f
00000040: df66 c53e 360b e73e 2c08 60bc 8615 0d3d
00000050: e0dd 93bc 50e7 f93b 0341 9ebb 9cd7 143f
00000060: 7559 493d d076 13bd a12a 04bc 3b2d f73e
00000070: ff97 ce3e 3aa6 6bbc 7bd2 1c3f c5d1 7cbd
00000080: c9b1 903d 2073 6bbc 6a9e 93bb 3ac8 b93d
00000090: 40b2 b13c 0a57 863d 1cce bfbd 8169 0ebe
000000a0: 6974 a1bd 99b7 95bd 4eb7 f93c 91e0 0a3f
000000b0: 4f10 15bd e21d 213f 5e02 b2bc cbc6 fbbc
000000c0: 600d 70bd 568e f43e daf2 033f e7e9 b13c
000000d0: 5b8d f9bb 3ec0 773d 0b96 133f 5cec 213f
000000e0: 64bc 41bd 3807 f83e f66b 63bc d79a 3e3f
000000f0: ea57 0e3d 3e8f e33e f104 e53e f5cc edbd
00000100: d242 5abd 68e0 8b3c 7a86 09bd cbf0 113b
00000110: 7dcb 053d 0a04 0b3c ac17 373f 1241 fe3c
00000120: 75da 223f 7569 d83e 3f73 d83e 219c f23e
00000130: a3af 1a3f 7f46 0a3d 9df6 1a3f 27db c33c
00000140: dcac 82bd 19c3 eb3e 9420 093f e0ea 9bbc
00000150: ed12 9ebc 530b 693d 71cf e43e 10b7 db3e
00000160: 4b4c bebc d973 a93c 140f f63e ae5d d73c
00000170: b39d 24bd 4be5 793d b8f3 613c 06db ea3c
00000180: c276 f53b 3990 9a3c e688 993d 7e32 173d
00000190: f557 233f 478a 5dbd 6c6d 523d fa43 143d
000001a0: f4ac 273d 74ca 08be 1ab6 a43d d4b8 df3e
000001b0: 78cf 253f e94e b93e 36cc 463c 5bf2 c4bd
000001c0: 27ad dc3d 54e5 243f a03b e43c 79c0 dd3b
000001d0: 7c71 1a3f 00c0 0a3f 04bf 803c 4f5b 56bc
000001e0: 2084 e43d 3134 25bc 2322 603d d300 db3e
000001f0: 7502 06bd 373e 18bd 7dff 5cbd 8de3 21ba
00000200: c5a7 6a3c 114a 09be 8cf7 b03b c554 a73d
00000210: b756 fe3e 76a3 013f 3a7a 393f 8b30 4a3d
00000220: c5bc da3b b554 123f 1a7c 2ebd b867 1a3f
00000230: 243a 503d 4bb2 c03e c9bb 113f 4b2c f83e
00000240: c4e5 a4bc 3599 3f3d db26 f13e bb23 1c3f
00000250: 23c1 19bd d6a4 7a3d b038 703e 43d5 273f
00000260: c87d 083f f992 fdbb 9148 7ebd c721 eb3e
00000270: a999 a63d 0611 15bd b9b9 fa3e 553b d83c
00000280: 6490 c33b 24dc b03c c70d 093c 8fa5 573c
00000290: 06ed 903e daeb 7d3d 692b d43d 45f5 eabc
000002a0: 0224 113a 672b 1e3d e54b eb3e aa01 053c
000002b0: bfbc 8b3d 87d8 e13c 57be d6bd f2e8 133d
000002c0: 8c0a f1bc 1b78 f33e 9808 cdbc 0a2f 213f
000002d0: 7e98 463d bbfa 9a3d 948d 2d3f 1abf e93c
000002e0: 4976 ce3c e905 253d bfca 29bd 9792 8ebb
000002f0: 0a19 a53c d3c5 cc3c 707a 383c 4e29 803e
00000300: edbd e43c 6fed 24bd 83ff 0c3f e109 ba3c
00000310: ac9e 2d3f 25f4 c03d 5757 0d3d adf1 9dbd
00000320: 8821 a4bd ab2a 86bc 2e36 d53e c2fe 9bbd
00000330: 1321 163d e92c d73c e224 1e3f 6bfb 9a3d
00000340: 7c4e 213d 931b 5abd 2874 b2bc e020 ca3d
00000350: 6c63 d4bc 9f1a 843d 99d6 283d 2aad 83bc
00000360: 1f4d 693e 3df8 f43e 22b7 81bc b213 8f3e
00000370: fdbc 9b3d 6d30 6f3d 2087 d83d 1858 7c3e
00000380: 1e6c 39bc 0c37 273f 581f 153f 8a97 96bd
00000390: 434c dcbd f103 0b3f 147f cabd c02b 0abd
000003a0: ba78 42bd 24e6 963d 44ac cfbc ce7c b8bd
000003b0: ab4d 353d 0584 06bd 5101 c43e d7fc e5bc
000003c0: 4170 2a3c 1bc5 ea3e 7885 5a3d eea2 b7bc
000003d0: f111 ebbc 4090 f23e 7fea 223f 67e4 2e3d
000003e0: 4167 c93d 6eae 713c a00b 96bd 95f9 88bd
000003f0: 3eab c83d ef07 b4bb c57a 7c3c bb1c dc3e
-0.03406523 0.018677553 0.040123995 0.0768936 0.032456707 0.09485114 0.43341976 0.017652042
-0.043780725 0.4794907 0.51439524 -0.011133303 0.036608454 0.40320876 0.079281665 0.5518556
0.38555047 0.4512574 -0.013673823 0.034444354 -0.018050134 0.0076264516 -0.0048295273 0.58141494
0.04915758 -0.03600198 -0.008066804 0.48276696 0.4035034 -0.014382893 0.6125867 -0.06172349
0.0706516 -0.01437071 -0.0045049684 0.09071393 0.021691442 0.0655957 -0.09365484 -0.13907434
-0.078835316 -0.07310409 0.030482914 0.5424891 -0.036392506 0.6293622 -0.021729644 -0.03073444
-0.058606505 0.47764844 0.5154244 0.021717979 -0.007615728 0.06048607 0.5765082 0.6325128
-0.047298804 0.48443007 -0.01388072 0.74455017 0.03475181 0.44445223 0.44730332 -0.11611358
-0.05328638 0.017074779 -0.033575512 0.0022268768 0.032664765 0.00848485 0.71520495 0.031036887
0.6361459 0.42267957 0.42275426 0.47384742 0.6042425 0.033758637 0.6053255 0.02390821
-0.063806266 0.46047285 0.53565335 -0.019032896 -0.019296134 0.056895565 0.44689515 0.42913103
-0.023229739 0.020685123 0.4805838 0.026289787 -0.040189456 0.061009686 0.013791017 0.028668892
0.0074909637 0.018867599 0.074968144 0.036913387 0.63806087 -0.05408695 0.051373884 0.03619764
0.040936425 -0.1335848 0.080425456 0.436957 0.647697 0.36193016 0.012133649 -0.09616538
0.10775214 0.64412427 0.027860463 0.0067673293 0.60329413 0.5419922 0.015716083 -0.013083293
0.11158013 -0.010083244 0.054720055 0.42774066 -0.032717187 -0.037168708 -0.05395459 -0.00061755703
0.014322226 -0.1340716 0.0054006036 0.081704654 0.49675533 0.50640047 0.7245213 0.0493627
0.006675335 0.571605 -0.04259882 0.6031451 0.050836697 0.37636027 0.5692716 0.48471293
-0.020129092 0.04677697 0.47099957 0.6099202 -0.037537705 0.061192356 0.23459125 0.65559787
0.53316927 -0.007738468 -0.062080923 0.45924208 0.08134777 -0.036393188 0.4896982 0.02639548
0.0059681404 0.021589346 0.008365101 0.013162031 0.28305835 0.061992504 0.10359842 -0.028681407
0.00055366766 0.03861561 0.4595634 0.0081180725 0.0682311 0.027569069 -0.10485523 0.036110826
-0.029423974 0.4755257 -0.025028512 0.629624 0.04848527 0.07567354 0.67794156 0.028533507
0.025202887 0.04028884 -0.04145312 -0.004350971 0.020153541 0.024996674 0.01125966 0.25031513
0.027922595 -0.040265497 0.5507738 0.022709789 0.6782024 0.09421567 0.034507122 -0.077121116
-0.08014208 -0.016377768 0.41642898 -0.076169506 0.036652636 0.026266532 0.6177503 0.075674854
0.03938149 -0.053248953 -0.021783903 0.09869552 -0.025926314 0.0645039 0.04122028 -0.016073782
0.22783326 0.4784564 -0.015834395 0.27944714 0.07604406 0.05839579 0.10572648 0.2464298
-0.011317281 0.6531837 0.5825095 -0.073531225 -0.10756733 0.5430289 -0.098875195 -0.03373313
-0.047478415 0.073681146 -0.025350697 -0.090081796 0.044263523 -0.032840747 0.38282254 -0.028074665
0.01040274 0.45853505 0.053349942 -0.022416558 -0.028695079 0.4737568 0.6363906 0.04269829
0.09834147 0.01475106 -0.07326436 -0.06688229 0.09798287 -0.00549411 0.01541013 0.4299067

layer2.weight f4 [60, 256]
00000000: b0cf 343d 586d 093d a0db a13c 81e6 b23d
00000010: 961b 11bd cd0a 9039 4015 d93c 8a74 8bbc
00000020: 0d16 033d 26e7 143b 1d73 aeba aa4c a9bc
00000030: 4b50 04bd 7225 ecbb d5c0 713c 81d5 903c
00000040: a0c7 cebc fd75 153d bfb8 ffbc 6ce1 bdbc
00000050: 479a ac3c b201 dbbc e81d e53b 45c5 05bd
00000060: bb19 403d a551 10bd 7188 81bd c1e1 fa3c
00000070: 00fd 6abd ca57 343d c45b 873c 1bd9 0c3d
00000080: 3545 bdbd e09a e0bc 1ef4 77bd a5eb 24bd
00000090: 09e6 543d 50dc 47bc 5300 09bc c9ac bdbb
000000a0: 4d1d 113d 5f6c 383d 5243 6dbd b139 29bd
000000b0: 6c00 8f3d c0cc 813d fa07 303d 586c c63c
000000c0: e147 d03c 3d2d ed3c f357 d5bb 81f4 8e3d
000000d0: cb96 033c eb27 1fbd 2dec 593c 269e 8ebd
000000e0: a9b7 37bd 5704 a2ba aab0 5e3d e45a c3bb
000000f0: a0e2 fc3c 810f 56bd 242c 0e3c df33 e4bb
00000100: 3880 453d b267 9d3d 9adc b63b ee4e 493d
00000110: 86ac 57bc 5835 15bd 530f 073d 193b ee3c
00000120: e7ad 7c3c 8987 07bc 83aa aabb 78c1 3d3c
00000130: 191c 47bc b56f 0f3b c47f cdba 205e 4ebd
00000140: c5f8 0e3d a47a 823d 4025 1e3a 8c25 7f3c
00000150: 0e93 ddbb 6c00 0b3d 9b11 0abc 6ed1 313d
00000160: 4a58 073d 3fa4 19bd 17df 1b3d da4c b9bc
00000170: 9c39 d53c 0da4 6c3b 00ac dc3c 40d9 2b3c
00000180: ed73 e4bb 23b8 00bd 8aa6 9e3c 1826 f5bc
00000190: 9f89 81bd aae1 96bd 87f8 42bd 615b 123d
000001a0: cc83 16bc 0deb b8bc 7528 2f3d 2e51 1d3b
000001b0: 37c9 5a3d 1c07 1d3c 952b a1bd ad77 d9bc
000001c0: 3c20 19bd a009 3b3c c7c3 0b3c 5a17 9f3c
000001d0: f5fd 153b 2d35 c4bc a6bb 85bd 3b35 b1bc
000001e0: 0c33 07bc 2080 ddbc 812d 4a3d 926c 213c
000001f0: f6e9 913b 8323 9ebc b537 f63c ee4d a0bd
00000200: f1b3 a6bc 029c 83bc 09db 25bb 1b56 033d
00000210: b6a1 543c fe0c b2bd 1471 9b3d 3c09 5f3c
00000220: c99e afbc c484 7ebb 2430 683d b3a0 c83c
00000230: 53c3 5cbd 6328 603a f2cd ba3c 7007 1a3d
00000240: 56dd 54bd d97f ddbc 0f0c f4bc 1f13 d2bb
00000250: f103 a2bd 34d1 6b3d d9ed c5bc cb15 1ebc
00000260: 142c aa3c aa52 683d 89e5 acbc ec60 9ebb
00000270: b242 71bd a2b3 15bd 4552 833d 7bc7 ea3c
00000280: 8c1e 7e3d 70fc 0bba 428c 983d 68cf f53c
00000290: 583e f4bb 2890 c8bc 9dea 143d 0c1e 8b3d
000002a0: 60eb 3f3d 8e25 7bbd 89ff 6f3d fbe5 18bd
000002b0: 9fe1 a13c 72a1 003c faa3 66bb 666a 49bd
000002c0: fdac 8c3c e6a4 a5bc b6a8 043d 004d fcba
000002d0: 0bc8 25bd 179b dc3c 5bad 15bd ada6 2cbb
000002e0: 8ad9 11bd c9b8 cabc 8cff 4f3b 35e9 28bd
000002f0: ad31 613d 7a8d 823c ae2b 73bc 1283 94bc
00000300: 2e64 833d edee 4e3d 809a 18bd 4b23 30bd
00000310: 1678 923c ff48 f23c fd78 9f3c 3ab5 cb3c
00000320: 165a 8abd 46d7 923d 2474 cabb a71f 893d
00000330: 42e3 543d 4026 f6bc d6cd 8bbb 0b80 17bd
00000340: 2362 edbb 1f1f 8abd 03e5 053d 8132 e0bb
00000350: f400 1bbd 09d6 a4bc c2a8 243c 929d dcbd
00000360: b6b9 72bd 7c93 1f3d 904d aa3c da18 2fbd
00000370: e827 cfbc 68e7 333d d443 163c 43aa 503d
00000380: 1726 8d3d 8a8d ec3b 0c1e 13bd 0cb8 adbc
00000390: f8e9 00bc 8dd1 743b 6bb4 25bd 273b d6bc
000003a0: 789b 813c 4898 843d d1af afbc 7e16 9ebc
000003b0: 6b61 94bd 9d10 46bd 8b7b 493d 645f 8b3d
000003c0: cbf7 5cbc 8ff9 193c b969 213d be02 5a3d
000003d0: 0432 533c 89eb b43c bc9f 88bd 8e36 dc3c
000003e0: ccc1 303d 10fc 0fbd 0016 89bd cb5e 46bc
000003f0: 749a 70bc fcb9 1abc 17fc f13a 70e5 f9ba
0.04414338 0.033551544 0.019758046 0.087353714 -0.0354267 0.00027473868 0.02649939 -0.017023344
0.03200345 0.0022720783 -0.0013309453 -0.02066644 -0.032303136 -0.0072066123 0.014755447 0.017679932
-0.025241673 0.036489476 -0.031216023 -0.023178779 0.021069659 -0.026734207 0.0069920905 -0.032658834
0.04689954 -0.035234112 -0.06324852 0.030625226 -0.057370186 0.044029035 0.01652325 0.034386735
-0.09241716 -0.0274176 -0.060535543 -0.04026379 0.05197719 -0.012198523 -0.008361894 -0.00578842
0.035428334 0.045025226 -0.05792553 -0.041314784 0.06982502 0.06337881 0.042976357 0.024221584
0.0254249 0.028952235 -0.0065107285 0.06980229 0.008031557 -0.038856428 0.013300938 -0.06963758
-0.044852886 -0.0012360913 0.0543677 -0.0059617627 0.030869782 -0.05226088 0.008677516 -0.0069641913
0.048217982 0.07685794 0.005580497 0.04914754 -0.013163691 -0.036427826 0.0329736 0.029080914
0.015422321 -0.00827206 -0.005208315 0.011581771 -0.012152695 0.002188665 -0.0015678336 -0.050382733
0.034905214 0.06371048 0.00060327724 0.015572917 -0.006761915 0.03393595 -0.008427049 0.04341262
0.033043183 -0.037510153 0.038054552 -0.022619653 0.026028447 0.0036108524 0.026937485 0.010488808
-0.0069718272 -0.031425606 0.019366521 -0.029925391 -0.06325077 -0.07367261 -0.047600295 0.035731677
-0.009186696 -0.022573018 0.042763192 0.0024004686 0.05341455 0.009584215 -0.07869641 -0.026546324
-0.037384257 0.011415869 0.008530564 0.019420315 0.0022886966 -0.023951137 -0.06529932 -0.021631828
-0.008251917 -0.027038634 0.049359802 0.009852545 0.004452939 -0.019304043 0.03005586 -0.07827364
-0.020349475 -0.016065601 -0.0025307557 0.03206454 0.012978008 -0.08693884 0.07589927 0.0136130415
-0.02143802 -0.0038836459 0.056686535 0.02449069 -0.053897213 0.000855094 0.02280328 0.03760475
-0.051968895 -0.027038502 -0.029790906 -0.006410971 -0.07910908 0.05757256 -0.024161266 -0.009648751
0.020772971 0.05671946 -0.021105545 -0.0048333313 -0.058901496 -0.036548264 0.06412176 0.028659573
0.06204085 -0.00053400453 0.07448627 0.030006126 -0.007453721 -0.024482802 0.036356557 0.0679284
0.04685533 -0.06131511 0.058593307 -0.0373287 0.019760905 0.007850992 -0.0035192952 -0.049173735
0.017172331 -0.020220231 0.032387458 -0.0019249022 -0.04047398 0.026929421 -0.036542278 -0.0026344464
-0.035607852 -0.024746316 0.0031738011 -0.04123803 0.054979015 0.015936602 -0.014841957 -0.018128905
0.06415592 0.050520826 -0.037256718 -0.043002408 0.017879527 0.029575823 0.019466871 0.024866689
-0.06755464 0.071699664 -0.006178396 0.0669549 0.051974542 -0.030047536 -0.004266481 -0.036987346
-0.007244365 -0.06744217 0.032689106 -0.006841958 -0.037842706 -0.020121591 0.010050001 -0.10772242
-0.05925914 0.03895901 0.020788938 -0.04274831 -0.025287583 0.043921858 0.009171445 0.050943624
0.06892031 0.007219021 -0.035917327 -0.021205924 -0.0078682825 0.0037356347 -0.040455263 -0.026151253
0.015821204 0.06474358 -0.02144614 -0.019297834 -0.072451435 -0.048355687 0.049190085 0.06805304
-0.013486813 0.009397878 0.039407466 0.05322527 0.012890343 0.022084968 -0.06671092 0.026881482
0.04315357 -0.035152495 -0.06693649 -0.012107561 -0.014685262 -0.009443756 0.001846197 -0.001906557

layer2.bias f4 [60]
00000000: cbdf 1b3d 15cc efbc f941 453c c82a 633b
00000010: 97b7 3dbc ed99 c9bc be73 363d 43cb 0abd
00000020: 09b6 f5bb e03c 773c 2ecf 1cbd 132f f43c
00000030: f74e 95bb 9998 2fbc 7541 f53c 162d 4f3d
00000040: 380a 153d 1116 423c 78eb 9a3c 99d6 15bd
00000050: 5120 cd3c e9bb 61bd 3b71 253d a0e0 54bc
00000060: f9b3 0cbd 8455 0b3c f6c7 113c 4db3 043d
00000070: 57b5 efbc 650d b73c 78a2 6cbc 12a7 a939
00000080: e51d 6fb8 8fc5 703c bf9d 43bd a97c 8a3d
00000090: 4b96 0abd eff9 32bd 427d 86bc 90a2 5dbc
000000a0: 3195 883d aebb c3bb 9fd9 95bd ad50 043d
000000b0: 7a87 c0bc b765 fabc deff 93bc 3827 b8bc
000000c0: 0101 0d3d 3fd4 303d a8c4 a4bc e342 513d
000000d0: 7925 28bd 39f4 0bbd bf26 c1bc b2e4 0fbb
000000e0: bc24 bcbc 4df3 94bd b068 dcbb 98d2 933b
0.038055222 -0.029272119 0.012039655 0.003466295 -0.011579416 -0.02460953 0.044543974 -0.03388525
-0.007498507 0.015090197 -0.03828352 0.029807603 -0.0045565325 -0.010717534 0.029938439 0.050580107
0.0363867 0.011846081 0.018911108 -0.03658161 0.025039824 -0.055110846 0.040391188 -0.012993008
-0.034351323 0.008504275 0.008897772 0.032397557 -0.029261274 0.022345254 -0.014443032 0.0003235867
-5.7009882e-05 0.014695539 -0.04775786 0.06762058 -0.033834737 -0.043695386 -0.01641715 -0.013527527
0.06669081 -0.005973301 -0.073168986 0.0323035 -0.0235021 -0.03056608 -0.018066343 -0.022479638
0.034424786 0.043171164 -0.020113304 0.05108918 -0.04105136 -0.034168456 -0.023578046 -0.0021956381
-0.022966735 -0.072729684 -0.006726347 0.0045111887

exp_avg f4 [256, 210]
00000000: 2f51 f636 ed64 f336 d167 f435 773a 5f36
00000010: c429 4c35 e45d 0036 1bbf 6536 1dd0 cab4
00000020: 97f4 3436 ebd0 c3b4 4944 fab6 7765 f5b5
00000030: f484 f4b5 dfc7 9835 e49e 9036 8bd6 de36
00000040: 219c c036 627b 83b5 b3b8 a136 e8db 9736
00000050: 9a00 6935 58cb 4434 0526 e2b3 72cc 9036
00000060: caa3 b936 53b7 63b5 28aa 22b6 ffe6 3eb6
00000070: 599d c935 3d21 f135 f3fc f6b5 f266 4434
00000080: acf8 3535 5f25 2bb3 c700 0436 3204 a2b6
00000090: 3742 aab6 647c 33b6 897f 8336 eef3 9735
000000a0: fab1 a7b5 8fe9 98b6 fce6 8b36 f3a3 f235
000000b0: 0b12 6f35 e304 4236 11dd 0936 6945 8b36
000000c0: 5175 fd35 999b 9d35 cc9e e135 3c3c 8ab6
000000d0: b43d edb6 6491 87b6 dcb7 deb5 2dc5 fb34
000000e0: 59ce 3636 cd8a 9236 e550 9936 170d a9b5
000000f0: 7eee bab6 0411 7eb6 0895 d2b5 9a60 8db6
00000100: bb2a 3335 f833 84b6 15c2 1834 fb58 38b6
00000110: bdca eb34 2a58 bbb5 d81f 8c36 cf9b 8f35
00000120: a7b8 1735 5199 9335 c3bd 0b35 eca6 5a36
00000130: 3231 8a36 1b00 1836 97a5 1d36 5d27 8e36
00000140: d750 b7b5 8a46 a435 47ae 5e35 ef9b bc34
00000150: eb84 9835 f2dc ce34 a148 9336 c8be 24b4
00000160: 1c05 01b6 5021 f035 9cf7 fb35 d762 68b6
00000170: 8e6c bcb6 9543 8bb6 1932 3cb6 1e59 88b5
00000180: 64a4 d1b6 65b7 a7b6 a0d1 1736 d9e0 5636
00000190: 61be 6035 d0b8 4835 c433 b634 8a87 8c35
000001a0: 04f3 1b36 79e4 1736 677f 4d35 510c 9335
000001b0: 8792 3636 64b4 2436 8529 1e36 c587 5935
000001c0: db16 b9b5 1c0d 29b6 195f 30b6 390a ae34
000001d0: 06ff 1436 4cf1 ec34 671a 08b5 ff99 ec35
000001e0: c074 3235 2209 d3b5 9d9f 27b6 a5e3 4eb6
000001f0: 1873 89b5 5212 70b5 383d b3b5 c550 fdb4
00000200: 195c 3bb5 4b08 3334 1e70 ee34 aac3 a7b5
00000210: e4b9 10b5 367a a4b5 3d8d d0b5 5976 38b6
00000220: 2434 81b6 e2e6 6bb6 635e 17b6 258a 2ab6
00000230: 845b 2fb4 2b85 cf34 9252 89b4 7002 b9b5
00000240: b1a0 00b6 e002 afb5 0669 46b5 a4e0 2db4
00000250: 084f 27b4 f633 bdb3 4aaa 8933 96a7 3d34
00000260: 83a2 3532 e198 97b3 7aa7 1eb6 d279 20b6
00000270: 2a43 1cb6 db6f 15b6 84de 0fb6 f685 17b6
00000280: 59d8 1cb6 92c7 0835 27f5 1e35 1c5b 2b35
00000290: 4e1e 2835 ef5b 0535 6038 f534 c693 1835
000002a0: de66 af35 89b8 b035 150d ae35 d29a b035
000002b0: f5f5 ac35 62ff ad35 d735 b035 8191 3336
000002c0: cabb 3536 2c22 3436 a765 3336 b662 3136
000002d0: f6d9 3736 2779 3636 7c34 14b5 7af6 13b5
000002e0: cefa 0cb5 bff0 14b5 23c2 16b5 5f4a 17b5
000002f0: 3b38 13b5 2504 3f35 fb8c 3e35 9f0b 3335
00000300: 7aee 3c35 8bd1 4035 2e05 3c35 f0bd 4435
00000310: 2c7e feb5 9cb6 fcb5 8685 fdb5 9520 feb5
00000320: 3285 04b6 9756 ffb5 211e fdb5 b9c6 0cb6
00000330: 87db 0db6 6b7d 09b6 e4f6 08b6 2181 0bb6
00000340: e10d 0cb6 addd 0bb6 2cfd 2035 0828 a436
00000350: 7d0c db36 e0cd 6737 92c4 5337 a2fa 2c36
00000360: 9af7 3437 9846 b5b6 447f 8cb6 d373 b4b5
00000370: 470b 6c34 6a19 bbb6 6d76 8234 45f5 9ab6
00000380: 5dd5 5736 64eb 9db5 53f7 6636 a282 fd34
00000390: 0831 0537 296b c736 6efe c736 adbc c1b4
000003a0: fc63 ec36 5360 d6b6 00f3 29b6 90ce 3337
000003b0: dff9 0eb6 8bd9 b1b6 b5fd 17b6 a1dd a334
000003c0: e534 1cb7 3da4 1d37 199a ef35 4607 2331
000003d0: fcef c0b6 e985 b136 ed20 db36 dec0 24b7
000003e0: 45a7 7934 df8a 32b6 c261 4eb6 5b0f e035
000003f0: 4451 01b6 eef3 1737 b9f5 74b6 aecf 03b6
7.3408223e-06 7.2537136e-06 1.8209631e-06 3.326362e-06 7.60567e-07 1.9128138e-06 3.4234897e-06 -3.7776854e-07
2.696446e-06 -3.6473588e-07 -7.45853e-06 -1.8283453e-06 -1.8218111e-06 1.1383053e-06 4.3100317e-06 6.6410917e-06
5.7402217e-06 -9.79617e-07 4.8196757e-06 4.525751e-06 8.680014e-07 1.8327898e-07 -1.0530861e-07 4.315335e-06
5.532497e-06 -8.483086e-07 -2.4238925e-06 -2.8446664e-06 1.5021461e-06 1.7965573e-06 -1.8402046e-06 1.8291374e-07
6.778962e-07 -3.984803e-08 1.9669985e-06 -4.8284646e-06 -5.0741032e-06 -2.6745483e-06 3.9189513e-06 1.132137e-06
-1.2494268e-06 -4.557143e-06 4.169413e-06 1.807812e-06 8.9060694e-07 2.8911097e-06 2.0543268e-06 4.150603e-06
1.8884112e-06 1.1742696e-06 1.6810022e-06 -4.1197327e-06 -7.0703336e-06 -4.040239e-06 -1.6593799e-06 4.6895858e-07
2.7240224e-06 4.3672976e-06 4.5691727e-06 -1.2595291e-06 -5.570996e-06 -3.7858854e-06 -1.5689593e-06 -4.2133734e-06
6.674488e-07 -3.9399565e-06 1.422671e-07 -2.746993e-06 4.3919673e-07 -1.3958245e-06 4.1760322e-06 1.0699677e-06
5.652059e-07 1.0996974e-06 5.2057675e-07 3.2581693e-06 4.1184476e-06 2.2649826e-06 2.349121e-06 4.2365123e-06
-1.365809e-06 1.2239482e-06 8.295505e-07 3.5131185e-07 1.1363567e-06 3.853125e-07 4.3893965e-06 -1.5343096e-07
-1.9225472e-06 1.7891089e-06 1.8773021e-06 -3.4628226e-06 -5.615474e-06 -4.1503904e-06 -2.8043344e-06 -1.0158726e-06
-6.247823e-06 -4.9983378e-06 2.2622771e-06 3.2019364e-06 8.372354e-07 7.4774744e-07 3.3937806e-07 1.047026e-06
2.3238254e-06 2.2633742e-06 7.6553846e-07 1.0955938e-06 2.7205404e-06 2.4542906e-06 2.3568002e-06 8.103637e-07
-1.3790226e-06 -2.5190593e-06 -2.6281398e-06 3.2417464e-07 2.2202162e-06 4.4133992e-07 -5.070237e-07 1.7628189e-06
6.648006e-07 -1.5723383e-06 -2.4977846e-06 -3.0828899e-06 -1.0240792e-06 -8.9433627e-07 -1.3354356e-06 -4.718369e-07
-6.979695e-07 1.6673691e-07 4.441253e-07 -1.2499415e-06 -5.3914687e-07 -1.225452e-06 -1.5538313e-06 -2.7487024e-06
-3.8505696e-06 -3.515212e-06 -2.2555694e-06 -2.5412385e-06 -1.6331438e-07 3.8653647e-07 -2.5578316e-07 -1.3784284e-06
-1.916702e-06 -1.3039353e-06 -7.3913577e-07 -1.6193604e-07 -1.5581838e-07 -8.81045e-08 6.410535e-08 1.7662964e-07
1.05725375e-08 -7.059294e-08 -2.364132e-06 -2.3912767e-06 -2.3284906e-06 -2.2267839e-06 -2.1438182e-06 -2.257873e-06
-2.3371742e-06 5.095436e-07 5.921633e-07 6.3835046e-07 6.2628976e-07 4.968014e-07 4.5675824e-07 5.683945e-07
1.3068454e-06 1.3166729e-06 1.2967818e-06 1.315808e-06 1.2886582e-06 1.2963831e-06 1.3128691e-06 2.6757773e-06
2.708041e-06 2.684198e-06 2.6732248e-06 2.6432513e-06 2.7395995e-06 2.7190633e-06 -5.521067e-07 -5.512044e-07
-5.2519033e-07 -5.548463e-07 -5.616186e-07 -5.636011e-07 -5.4843593e-07 7.1159076e-07 7.098567e-07 6.669961e-07
7.0382487e-07 7.18305e-07 7.0042995e-07 7.3292085e-07 -1.8961196e-06 -1.8828609e-06 -1.8888829e-06 -1.8933957e-06
-1.9747063e-06 -1.9024181e-06 -1.8858738e-06 -2.0977297e-06 -2.113842e-06 -2.0487594e-06 -2.0409288e-06 -2.0787777e-06
-2.0869704e-06 -2.0841646e-06 5.997306e-07 4.892241e-06 6.5281624e-06 1.3816607e-05 1.2622348e-05 2.5775885e-06
1.0786485e-05 -5.4024385e-06 -4.187141e-06 -1.3444754e-06 2.1983315e-07 -5.575993e-06 2.4300553e-07 -4.618111e-06
3.216169e-06 -1.1765919e-06 3.4416632e-06 4.721997e-07 7.938834e-06 5.9431372e-06 5.9602817e-06 -3.608633e-07
7.044988e-06 -6.3889106e-06 -2.5324407e-06 1.07173255e-05 -2.1305093e-06 -5.3003364e-06 -2.264843e-06 3.0522372e-07
-9.31064e-06 9.396169e-06 1.7851736e-06 2.3723756e-09 -5.7499838e-06 5.2906003e-06 6.5305417e-06 -9.820067e-06
2.3250784e-07 -2.66049e-06 -3.0753295e-06 1.669377e-06 -1.92698e-06 9.057096e-06 -3.6501863e-06 -1.9641407e-06

exp_avg_sq f4 [256, 210]
00000000: 4a08 da30 bcab d130 18c3 d130 dc60 d230
00000010: b0ee da30 abb7 d730 5fa9 d830 2ba8 c730
00000020: 1e9c ba30 eb66 bf30 f3e9 d730 ae9e b730
00000030: a114 be30 b023 c430 e66b bd30 a141 d730
00000040: 2fb8 ca30 fb9d c430 40bf bc30 ff26 c430
00000050: eda0 ce30 6ff1 a530 3c66 9d30 e8a4 9630
00000060: 511b 9d30 889a ae30 922e 9e30 eccb ae30
00000070: b015 a030 5f07 aa30 1185 a430 a099 ad30
00000080: 5982 a730 805f 9b30 7f4e 9630 2276 a530
00000090: c191 a130 eb4c a030 2279 a730 2119 b630
000000a0: be4c a430 01a5 9c30 c93a 3a30 653a 8030
000000b0: 73da 7b30 35f9 3a30 78ff 7230 7ba8 8030
000000c0: f767 7930 2ee8 9530 e6d1 4c30 fe60 4830
000000d0: 4753 9230 b9d8 5130 a4dd 4e30 a33c 7b30
000000e0: de2b 6330 d73a 8130 55c9 6630 c58c 7e30
000000f0: d65f 6730 636b 6230 cae5 0e30 85cb 5430
00000100: 2e78 4f30 8764 6030 44a6 6830 6400 6830
00000110: 11af 5d30 e970 0730 71c9 1230 f2df 0d30
00000120: 80b7 0830 2a8c 0f30 234a 1430 88d2 1430
00000130: c090 df2f ce34 1130 8065 0f30 c7a3 0930
00000140: 2248 2a30 3a75 0830 d4a5 1130 0b57 db2f
00000150: 5c83 0b30 dcca 1130 739b 1730 ab25 0730
00000160: 7def 2230 4e51 1330 68ce d32f 0be2 0030
00000170: 99b1 0430 e9b5 0430 5c7a 0630 b1c3 1130
00000180: beba 0b30 254e d52f 1ddd 0230 c41e 0930
00000190: 7d27 0d30 e88c 0730 47df 0730 4b63 0430
000001a0: 0005 d62f 0050 d62f 1da6 962f b223 a02f
000001b0: a2c0 df2f fb5e 9f2f 549c a02f 2e3c a82f
000001c0: e34d 942f ac76 ca2f b0b3 cd2f da12 8b2f
000001d0: e93e c72f 1ef6 d62f fc41 b42f d100 902f
000001e0: ea34 8f2f 4e19 932f 0049 9c2f 2e9d a12f
000001f0: f8b9 9b2f ac3b 112f 6e4b 962f dd51 922f
00000200: 4c82 932f a291 992f 554f 9d2f 25b1 992f
00000210: 855d 142f a709 672f 6bee 782f 40b1 7c2f
00000220: 4bf1 6d2f 6132 6d2f f7fe 6a2f 8f02 0d2f
00000230: 9139 732f bcc4 782f 3c4d 832f 8f71 812f
00000240: 4359 732f 246d 732f 7e39 102f 5094 4b2f
00000250: 8504 582f 70b2 5a2f 203a 552f f418 5a2f
00000260: e1d3 532f 5797 032f 3440 2d2f 2a24 2b2f
00000270: fc00 2c2f f446 312f 62d3 2d2f baef 2b2f
00000280: 998c 042f 02d1 232f f266 272f 0c36 2a2f
00000290: aabf 262f 8584 2a2f b2c2 2a2f 04d3 fe2e
000002a0: 3deb 072f c7f2 072f 0dea 072f 1ad2 072f
000002b0: cc68 072f 66f3 072f c811 082f 8812 062f
000002c0: ba3c 062f e242 062f c744 062f 8efc 052f
000002d0: dc9d 062f 1f3d 072f 274f 032f fc30 032f
000002e0: 9b5c 032f 9866 032f 28f6 022f db5c 032f
000002f0: 3f4c 032f 58c0 fa2e f734 fb2e 8524 fb2e
00000300: 6b4b fb2e abd2 f92e 7a29 fb2e 923c fb2e
00000310: 8cc2 f72e c012 f72e 9445 f72e d9fe f72e
00000320: d103 f52e af05 f72e 846a f72e 2d6b ea2e
00000330: 9c04 eb2e 52dd ea2e 4f65 e92e 1729 ea2e
00000340: 9fcb ea2e 87ed ea2e f775 5031 4995 4e31
00000350: 6451 4d31 a78c 4831 22dc 4031 7c74 4631
00000360: 4c90 5531 72ac 3631 ce27 2f31 1a76 2231
00000370: b96a 3131 68b9 3e31 a837 4431 c9ef 3a31
00000380: 3aec 3031 cddf 1a31 20c1 1d31 f508 3531
00000390: 6dd5 3a31 abff 3031 f970 3f31 d100 0d31
000003a0: acbb 1d31 5675 0431 6d84 0431 bed0 1831
000003b0: d93d 0f31 01ed 0f31 7854 0b31 6fc0 0f31
000003c0: 496a 0f31 9099 0631 21fd 0a31 0da5 0531
000003d0: a026 2731 be84 0131 8afd 0c31 7526 0731
000003e0: e5fc 0731 910e 1c31 f2b4 0b31 200e 0931
000003f0: 6f4b a630 169a dd30 9961 d930 32bf c030
1.5863943e-09 1.5255561e-09 1.52622e-09 1.530704e-09 1.5929427e-09 1.569551e-09 1.5764207e-09 1.4526952e-09
1.3577652e-09 1.392633e-09 1.5709801e-09 1.3360102e-09 1.3830183e-09 1.427102e-09 1.3782226e-09 1.5661962e-09
1.4749783e-09 1.4305778e-09 1.3733157e-09 1.427196e-09 1.503421e-09 1.207395e-09 1.145231e-09 1.0960806e-09
1.1431017e-09 1.2704087e-09 1.1509249e-09 1.2718124e-09 1.1647696e-09 1.2371223e-09 1.197039e-09 1.263107e-09
1.2187896e-09 1.1304877e-09 1.0936246e-09 1.2038905e-09 1.1755718e-09 1.1663394e-09 1.2185277e-09 1.3249385e-09
1.1954382e-09 1.1397391e-09 6.7749945e-10 9.329822e-10 9.1623703e-10 6.802055e-10 8.840213e-10 9.361111e-10
9.0733415e-10 1.0907166e-09 7.451305e-10 7.289741e-10 1.0646567e-09 7.634174e-10 7.5257334e-10 9.139944e-10
8.264446e-10 9.402709e-10 8.395962e-10 9.260471e-10 8.41735e-10 8.2370927e-10 5.198585e-10 7.741437e-10
7.5476947e-10 8.1633583e-10 8.4637386e-10 8.4401663e-10 8.0648116e-10 4.927317e-10 5.3400756e-10 5.1613747e-10
4.973728e-10 5.222228e-10 5.394744e-10 5.414127e-10 4.0666315e-10 5.282573e-10 5.2167337e-10 5.007305e-10
6.1948147e-10 4.96431e-10 5.298635e-10 3.9897716e-10 5.075458e-10 5.3038973e-10 5.5154387e-10 4.9166243e-10
5.927559e-10 5.359383e-10 3.8527337e-10 4.6887355e-10 4.82737e-10 4.827983e-10 4.89228e-10 5.3028787e-10
5.083328e-10 3.88e-10 4.7607945e-10 4.988403e-10 5.135162e-10 4.9312954e-10 4.943001e-10 4.8162424e-10
3.8929926e-10 3.8983217e-10 2.7402872e-10 2.9129194e-10 4.0700338e-10 2.898942e-10 2.9214908e-10 3.0601782e-10
2.6976385e-10 3.6827907e-10 3.7416958e-10 2.5297348e-10 3.624259e-10 3.910125e-10 3.2788694e-10 2.6194028e-10
2.6049146e-10 2.6757124e-10 2.8428104e-10 2.9397412e-10 2.8326474e-10 1.3208873e-10 2.7338437e-10 2.6615413e-10
2.6831726e-10 2.7934016e-10 2.8614502e-10 2.7956407e-10 1.3493746e-10 2.1012757e-10 2.2640172e-10 2.2982238e-10
2.1640749e-10 2.1572923e-10 2.1372758e-10 1.2824784e-10 2.2121173e-10 2.2625363e-10 2.388364e-10 2.3545652e-10
2.2132433e-10 2.2139496e-10 1.3117149e-10 1.8515434e-10 1.9646691e-10 1.9890378e-10 1.9392887e-10 1.983585e-10
1.9265613e-10 1.1968147e-10 1.5757068e-10 1.5565207e-10 1.5643659e-10 1.6123264e-10 1.5809357e-10 1.5637527e-10
1.205528e-10 1.4899018e-10 1.5225135e-10 1.5480611e-10 1.5165705e-10 1.550849e-10 1.553058e-10 1.15880666e-10
1.2361752e-10 1.236443e-10 1.236133e-10 1.2352822e-10 1.231541e-10 1.2364651e-10 1.2375445e-10 1.2193813e-10
1.2208803e-10 1.221099e-10 1.2211664e-10 1.2186005e-10 1.2243312e-10 1.2299893e-10 1.1942501e-10 1.1931783e-10
1.194728e-10 1.1950829e-10 1.1910883e-10 1.194737e-10 1.1941469e-10 1.1402851e-10 1.1423567e-10 1.1420646e-10
1.14275554e-10 1.1360631e-10 1.1421526e-10 1.1424918e-10 1.1266818e-10 1.123559e-10 1.1244619e-10 1.12775296e-10
1.1141988e-10 1.1233269e-10 1.12511805e-10 1.0660126e-10 1.06873815e-10 1.06804024e-10 1.0613609e-10 1.0648387e-10
1.06772584e-10 1.0683281e-10 3.033504e-09 3.0061804e-09 2.9877691e-09 2.9183782e-09 2.8064808e-09 2.8879006e-09
3.1077603e-09 2.658251e-09 2.5488478e-09 2.3641236e-09 2.5817555e-09 2.775403e-09 2.855339e-09 2.7202864e-09
2.574565e-09 2.2537165e-09 2.2956286e-09 2.6344058e-09 2.718788e-09 2.5756701e-09 2.7858376e-09 2.0518665e-09
2.2953186e-09 1.9275226e-09 1.9283803e-09 2.2237567e-09 2.0844395e-09 2.094396e-09 2.0275177e-09 2.0918625e-09
2.0869655e-09 1.9586857e-09 2.022553e-09 1.9447868e-09 2.4323654e-09 1.8847426e-09 2.0516802e-09 1.9666946e-09
1.978884e-09 2.2709268e-09 2.0330018e-09 1.9944153e-09 1.2099529e-09 1.612366e-09 1.5816567e-09 1.402418e-09

exp_avg f4 [256]
00000000: 8c24 32b5 0fa0 e8b5 f2df fd35 7d83 8ab6
00000010: d22a 66b6 5517 b5b6 1368 8ab6 f794 5f36
00000020: ba30 ac36 b4f9 c7b5 ab41 5ab6 77e8 ab35
00000030: 6334 1536 5e4a 92b6 6804 aa33 8713 c4b5
00000040: bd86 80b5 2915 9c33 03cc 2bb5 2271 8036
00000050: 21b6 7b36 493d 0db6 de73 10b7 6481 01b6
00000060: 3135 eab5 e4ae b135 6679 4bb5 9afa 5836
00000070: bdb2 0635 7aa8 8bb6 a1d1 e133 1d02 4eb5
00000080: e257 3eb6 3bf6 3536 e1ca 6036 2806 5136
00000090: e489 11b6 3623 8b34 c228 e5b5 a067 2c35
000000a0: 3704 10b6 0983 bab6 fbd6 cf35 dcca 6eb4
000000b0: fd2e ceb4 2dc3 9d35 62fd 9c35 71e4 e8b6
000000c0: a8d9 06b7 5127 d735 7409 8936 ced3 b0b4
000000d0: f264 65b5 7950 8336 b16c f0b5 cd74 c336
000000e0: ecca d4b6 92a0 bd34 cdfd aa35 1779 84b6
000000f0: f35b e6b4 8b36 1636 cde9 c9b5 c6dc 9935
00000100: 4ece 7db5 0577 81b6 3d13 db36 0338 02b4
00000110: a5d0 ecb5 f214 fd36 a020 f8b6 af54 95b6
00000120: 34cc ccb3 4164 4ab6 bebc adb5 df30 a836
00000130: b00e 42b7 3c21 35b6 635f d1b6 332a 8136
00000140: 3e3e 6db6 40d1 f035 ca1e e8b6 7853 35b6
00000150: d615 8836 d3e9 15b6 cd67 a3b6 3a67 5bb6
00000160: 34c4 d3b6 dd46 92b6 1508 d536 6f55 0836
00000170: 9c3f c4b5 d057 9336 06b0 e336 479a 60b4
00000180: c139 7536 63d0 9036 c519 e835 d0da 7fb4
00000190: da32 9e36 797c f936 e049 7035 4203 3cb6
000001a0: 1bab 71b6 7afa a7b5 eef2 2f36 343f 80b4
000001b0: e0e3 fb36 4fd2 5b35 89d2 92b6 c938 c135
000001c0: 16f3 c5b5 25a1 c3b6 f11e d235 8ca7 67b6
000001d0: 9e37 57b7 4735 2b36 9580 03b7 354a b135
000001e0: ffd8 bf34 f726 7035 254a 0ab5 d9b9 93b6
000001f0: 44c1 36b6 a507 cab5 7602 acb6 ec26 0ab7
00000200: adb2 91b2 3f5c f3b6 84c7 8436 fc83 95b3
00000210: d629 42b6 a96a 2c36 8b46 80b6 e70a 8536
00000220: b453 f235 32e5 9eb5 c8c7 f6b5 2ef2 9d36
00000230: 06ce 6436 1f66 7db6 85bc cbb6 db05 b8b6
00000240: 81ab f7b6 16b3 0b35 065a 9235 9c5c fcb6
00000250: 73f2 2437 3dd7 bcb3 e49b 09b6 d34b 0ab6
00000260: 7f9b 44b6 46e3 1036 2117 f0b6 66a6 35b7
00000270: 3e78 9a36 fbd7 44b6 0786 5b36 f993 c536
00000280: f9f2 42b6 aa35 3b37 e051 c5b5 af3a fa36
00000290: 4c4c c3b5 f4e4 6936 b1aa f4b6 ae82 6cb6
000002a0: 7db8 16b5 a1c1 3335 1818 c3b6 f266 ab35
000002b0: 58b1 62b5 af7e e835 dfe7 b936 9693 0136
000002c0: 93e6 4433 74f3 7ab6 79a6 ecb6 afe5 b436
000002d0: 9c74 d035 4efe cd36 8e10 1fb7 786a e336
000002e0: 487b 5db6 0c6a 0f37 1242 8eb5 bd96 5136
000002f0: 7f49 c4b5 e612 5936 4efc 99b3 0026 c935
00000300: fff0 3136 274b aeb5 1b4f 1f36 dca9 5136
00000310: b7ce 8936 5b3f 3436 0d94 0033 4aba 1b37
00000320: ce43 a5b6 4045 ebb5 f3bd e5b4 5240 08b6
00000330: 3d39 0334 b546 76b6 290b 7935 7615 2eb6
00000340: 477d f7b5 650a 1b35 b9e3 d136 4c8d 9fb5
00000350: b84b 40b6 9dec b736 1152 af36 6b3b cfb5
00000360: 89bb 90b6 2c7d 5332 aa5a 4ab4 66b8 80b3
00000370: 03c1 6236 830a 31b6 c28f 2836 3ff5 1136
00000380: c62f 1db6 6dc0 1c36 4ee3 8535 57b8 d5b4
00000390: dc92 0335 23e3 5bb6 bf55 1936 6b91 8936
000003a0: 5b4c 4bb6 fb47 6435 b021 1736 22a6 ddb6
000003b0: 325f 9db6 2f90 6936 082a d734 ab75 19b6
000003c0: 4b17 4936 ae54 7a34 6245 86b6 4336 33b6
000003d0: 350b 36b5 96b0 4036 b253 18b7 c09b fab5
000003e0: 7c00 0d36 66e2 c536 f961 86b6 2cb3 84b6
000003f0: a109 60b5 56b1 2636 e6cb 90b6 abce 18b4
-6.636335e-07 -1.733193e-06 1.8915146e-06 -4.1280277e-06 -3.4297595e-06 -5.3969366e-06 -4.1248363e-06 3.3316298e-06
5.131672e-06 -1.4899329e-06 -3.2522755e-06 1.2808149e-06 2.2233223e-06 -4.3597965e-06 7.9170434e-08 -1.4608821e-06
-9.575957e-07 7.268165e-08 -6.399934e-07 3.8278677e-06 3.7507928e-06 -2.104631e-06 -8.610046e-06 -1.9297813e-06
-1.7449839e-06 1.3238428e-06 -7.580005e-07 3.2332377e-06 5.017899e-07 -4.162136e-06 1.051551e-07 -7.6744055e-07
-2.836336e-06 2.7114427e-06 3.3496692e-06 3.114701e-06 -2.1686947e-06 2.5916387e-07 -1.7073692e-06 6.422579e-07
-2.1460125e-06 -5.5584865e-06 1.5485269e-06 -2.2239277e-07 -3.8404679e-07 1.1754215e-06 1.169665e-06 -6.940733e-06
-8.037699e-06 1.6030191e-06 4.0840187e-06 -3.2936663e-07 -8.545604e-07 3.9134725e-06 -1.7913027e-06 5.8250503e-06
-6.3417156e-06 3.5320824e-07 1.2739853e-06 -3.9480033e-06 -4.290774e-07 2.238349e-06 -1.5043712e-06 1.1463642e-06
-9.455006e-07 -3.8583553e-06 6.5289482e-06 -1.212757e-07 -1.7644094e-06 7.542426e-06 -7.394774e-06 -4.4504045e-06
-9.5366346e-08 -3.01587e-06 -1.2944436e-06 5.0124795e-06 -1.1566721e-05 -2.6990447e-06 -6.23979e-06 3.849412e-06
-3.5351982e-06 1.7942293e-06 -6.917723e-06 -2.7019687e-06 4.055658e-06 -2.2338834e-06 -4.8698626e-06 -3.2693629e-06
-6.311131e-06 -4.3593886e-06 6.3488355e-06 2.0315308e-06 -1.4621651e-06 4.391164e-06 6.785619e-06 -2.0917751e-07
3.6541462e-06 4.315794e-06 1.7292847e-06 -2.3828329e-07 4.714687e-06 7.435269e-06 8.951447e-07 -2.801608e-06
-3.6011395e-06 -1.2515368e-06 2.6218436e-06 -2.3887844e-07 7.506911e-06 8.1889897e-07 -4.3756486e-06 1.4396147e-06
-1.4748391e-06 -5.8302126e-06 1.5655224e-06 -3.4519207e-06 -1.2827948e-05 2.5511997e-06 -7.838146e-06 1.3209125e-06
3.5734408e-07 8.946367e-07 -5.15169e-07 -4.402577e-06 -2.7232609e-06 -1.5052398e-06 -5.126286e-06 -8.234503e-06
-1.6961474e-08 -7.252703e-06 3.9571332e-06 -6.962361e-08 -2.8932604e-06 2.5692082e-06 -3.8229095e-06 3.964978e-06
1.8054766e-06 -1.1838622e-06 -1.8386572e-06 4.707158e-06 3.409457e-06 -3.775938e-06 -6.071818e-06 -5.484309e-06
-7.3811393e-06 5.204214e-07 1.0904048e-06 -7.5209664e-06 9.831611e-06 -8.793584e-08 -2.050533e-06 -2.0607738e-06
-2.9296787e-06 2.1589963e-06 -7.15525e-06 -1.0827183e-05 4.6035557e-06 -2.9331993e-06 3.2711557e-06 5.888284e-06
-2.9049681e-06 1.1158563e-05 -1.4701473e-06 7.4574123e-06 -1.4550837e-06 3.4852974e-06 -7.2916378e-06 -3.5242806e-06
-5.614782e-07 6.6964463e-07 -5.8142577e-06 1.2770454e-06 -8.444963e-07 1.7322217e-06 5.540423e-06 1.9308404e-06
4.5844512e-08 -3.7394611e-06 -7.052728e-06 5.3911567e-06 1.5531145e-06 6.139081e-06 -9.480993e-06 6.777522e-06
-3.3003325e-06 8.548155e-06 -1.0599053e-06 3.1231168e-06 -1.4624528e-06 3.234652e-06 -7.170512e-08 1.4986726e-06
2.6515334e-06 -1.2985882e-06 2.3738892e-06 3.1242298e-06 4.106983e-06 2.6858968e-06 2.9936974e-08 9.282094e-06
-4.9252767e-06 -1.7529019e-06 -4.279278e-07 -2.0303019e-06 1.2221149e-07 -3.6698013e-06 9.277597e-07 -2.5940512e-06
-1.8439395e-06 5.7757126e-07 6.255196e-06 -1.1887546e-06 -2.8654304e-06 5.4813704e-06 5.22496e-06 -1.5439995e-06
-4.3133664e-06 1.2310277e-08 -1.88457e-07 -5.9940064e-08 3.3788972e-06 -2.6381174e-06 2.511763e-06 2.1749436e-06
-2.342263e-06 2.3357818e-06 9.975427e-07 -3.9808467e-07 4.901501e-07 -3.2765754e-06 2.2848687e-06 4.099847e-06
-3.0293802e-06 8.5041364e-07 2.2520362e-06 -6.6056537e-06 -4.690047e-06 3.4803631e-06 4.0077452e-07 -2.2867268e-06
2.9964892e-06 2.331387e-07 -4.0015884e-06 -2.6704663e-06 -6.781659e-07 2.8713016e-06 -9.079393e-06 -1.8671781e-06
2.101092e-06 5.8974138e-06 -4.0049167e-06 -3.954765e-06 -8.3460515e-07 2.483915e-06 -4.3152713e-06 -1.4231289e-07

exp_avg_sq f4 [256]
00000000: c004 5630 fab4 1531 4877 cc30 66dc 1c31
00000010: dd40 9430 02f6 fb30 da55 6c30 605d 7230
00000020: 5213 2d31 f862 ba30 c3ad 0e31 1acf 0d31
00000030: cc12 0431 9896 0731 07e3 8c30 4345 0d31
00000040: cf41 5230 20a1 9f30 1654 0531 d349 a430
00000050: 66b2 7f30 fc9b 0031 bd74 4730 295c 1531
00000060: 5859 0931 9fec 0931 d298 ee30 9ca7 a430
00000070: 6856 6330 4924 1131 f34f 5931 e88e ef30
00000080: c415 ca30 bced cc30 eeda 8f30 0f6d df30
00000090: a2e3 b530 61f6 bc30 7cca ab30 152b b230
000000a0: f246 1931 7e95 9c30 703a 3831 cf63 0031
000000b0: 8618 f830 c8aa e630 6879 e330 453f 0c31
000000c0: 552d 9c30 e07c f030 adaa 1f31 df1c 1531
000000d0: bdd6 0131 3475 1631 83fb dd30 c425 8731
000000e0: 5da9 0531 71d7 aa30 6e51 0431 3249 dd30
000000f0: a45a d630 65c5 be30 eb62 8c30 6b49 c630
00000100: 4605 a330 926d 0c31 876c b430 9bea 5231
00000110: 2467 4731 d7c7 e330 0b10 6731 6f9a 7b30
00000120: d1ac dd30 e141 8530 b7b1 0b31 a94e 1e31
00000130: c271 6d31 a878 d530 df8d 1531 44ef 1031
00000140: e53f c330 948e 5c30 f84c 1531 6c28 a430
00000150: a3ac 0b31 66d6 b130 c102 7d30 4ead 8930
00000160: fbb5 1431 a506 e530 20bd 3c31 cf28 b730
00000170: 2c9f d930 428c ed30 d146 e130 65cb 1731
00000180: c1b7 eb30 459c 6530 0d25 de2f 98a8 d530
00000190: 8a2a f830 8205 af31 29a3 bd30 3e3e d430
000001a0: 423e d930 a5f5 ff30 0849 4d30 8c09 1a31
000001b0: 7fef 5231 592b 4030 b882 0531 7c20 3731
000001c0: f701 d630 a11f e030 908b b830 71c5 4930
000001d0: 0524 9031 72a7 5031 bd99 9f30 fcb6 f930
000001e0: e4cb 7330 cf3d 0c31 4bbf b030 30f5 5030
000001f0: 8c10 3931 fdc1 d330 4b7d da30 88ce 8331
00000200: ed19 1130 edca 3231 cbaa cf30 4003 6930
00000210: c13f 8130 dbd2 ff30 b3af ee30 c906 f330
00000220: cd6c 6030 f5c2 0e31 2076 a030 81d5 3b31
00000230: 8d06 6930 4e0c 7f30 d02e 3831 0096 3e31
00000240: be28 1f31 b71b 3130 2a8c 2231 e800 2f31
00000250: c132 d130 b15b a030 d2be f42f 424e ef30
00000260: efab cb30 b27b f730 90b9 3a31 d47d 2431
00000270: 3d32 1630 173e be30 6e76 1c31 7c91 a430
00000280: 0a49 1831 25cf 6631 d51a dc30 2c09 0f31
00000290: e8ef 6530 3fea d330 4fe0 cb30 8ee7 a030
000002a0: 8441 d830 0315 3730 c08c f530 07d3 f030
000002b0: dacf 2e30 739b f52f 32f4 a730 a0ac 3430
000002c0: 092d 2f31 4c8c fb30 f49b 9030 39e9 2031
000002d0: da9f 0d30 79ec 4b30 3641 5731 89b1 8730
000002e0: 30bc 8130 66ec 0931 8d22 e530 4287 f730
000002f0: 727b 9730 07c5 ce30 fc53 0c31 6f6c 2630
00000300: dffc c231 1627 1431 6b93 1631 5d0c db30
00000310: 2c39 d130 ff06 3b30 7fb0 c630 12c8 7a30
00000320: 327b 0731 2de3 a230 8559 ea30 33ea bf30
00000330: c588 da30 51ed 0431 01b8 e730 8d33 9f30
00000340: c94e 6e30 a688 8c30 bb4c 6831 876a f130
00000350: 78dc b730 bcaf 0231 4e70 1331 b9b9 2431
00000360: f259 0a30 695d f530 65e4 2631 f8ee 6530
00000370: d161 c430 a9f6 7031 6636 8d30 27ed 7130
00000380: 447d 0a31 9ad4 8e31 2462 4b31 1bf8 4830
00000390: 9a9d 1131 ee5f d030 a8a5 d430 f4b6 cc30
000003a0: 4342 e230 4acf 2b31 7422 0e31 8ad7 c230
000003b0: 59d3 2a31 b47f bc30 dae3 a830 8df8 9530
000003c0: 2314 0731 8575 f730 e87c ed30 9cc7 ea30
000003d0: cb8e 0f31 81a2 0031 293a 4831 16fc 2330
000003e0: 7aeb 2031 e362 2d31 1c50 0431 6d9d 0031
000003f0: 5d58 7b30 7c96 e730 8a63 2731 dfaf c530
7.7859497e-10 2.1785227e-09 1.4876855e-09 2.282627e-09 1.0786853e-09 1.8332573e-09 8.59783e-10 8.817178e-10
2.5185796e-09 1.356141e-09 2.0762492e-09 2.0635924e-09 1.9219213e-09 1.9730688e-09 1.0250866e-09 2.0557571e-09
7.6491075e-10 1.1614567e-09 1.9401845e-09 1.1953553e-09 9.302198e-10 1.8715118e-09 7.2561673e-10 2.173474e-09
1.998691e-09 2.0070627e-09 1.7360213e-09 1.1980208e-09 8.270491e-10 2.1120903e-09 3.1623102e-09 1.7430155e-09
1.470362e-09 1.4910522e-09 1.0466843e-09 1.6256382e-09 1.323418e-09 1.3748825e-09 1.2499437e-09 1.2963449e-09
2.2304758e-09 1.1392982e-09 2.6808742e-09 1.8683186e-09 1.8051345e-09 1.6783241e-09 1.655093e-09 2.0408646e-09
1.1363378e-09 1.749779e-09 2.3234563e-09 2.1698765e-09 1.8894035e-09 2.1894495e-09 1.615135e-09 3.9333106e-09
1.945032e-09 1.243036e-09 1.9254816e-09 1.610067e-09 1.5596311e-09 1.3880422e-09 1.0214455e-09 1.4427263e-09
1.186131e-09 2.0434965e-09 1.3127569e-09 3.069238e-09 2.901694e-09 1.6573222e-09 3.3624044e-09 9.153273e-10
1.6128984e-09 9.695748e-10 2.0328181e-09 2.303674e-09 3.4552703e-09 1.5532082e-09 2.1762998e-09 2.1090765e-09
1.4206277e-09 8.023815e-10 2.1726105e-09 1.1944059e-09 2.0325295e-09 1.2939381e-09 9.204478e-10 1.0017318e-09
2.1640278e-09 1.6663831e-09 2.7465106e-09 1.3326601e-09 1.5834067e-09 1.7283883e-09 1.6391032e-09 2.2089008e-09
1.7150726e-09 8.3531787e-10 4.040789e-10 1.5545707e-09 1.8056465e-09 5.0937965e-09 1.3797933e-09 1.544272e-09
1.5806523e-09 1.8623508e-09 7.468235e-10 2.2415376e-09 3.069516e-09 6.9910794e-10 1.9428352e-09 2.664847e-09
1.5571108e-09 1.6307135e-09 1.3427428e-09 7.3403955e-10 4.1950465e-09 3.0363165e-09 1.1612468e-09 1.8169142e-09
8.869263e-10 2.0407815e-09 1.2860054e-09 7.601839e-10 2.693045e-09 1.5407405e-09 1.5897198e-09 3.8360817e-09
5.2787535e-10 2.601776e-09 1.5109775e-09 8.4769525e-10 9.404105e-10 1.8613621e-09 1.7366716e-09 1.7682505e-09
8.164534e-10 2.077454e-09 1.1675105e-09 2.7333444e-09 8.4774215e-10 9.2785946e-10 2.6802134e-09 2.7733904e-09
2.3160704e-09 6.443161e-10 2.3653777e-09 2.5466367e-09 1.5221177e-09 1.1667592e-09 4.4518927e-10 1.7411781e-09
1.481906e-09 1.8006772e-09 2.7172042e-09 2.3936666e-09 5.4641075e-10 1.3841966e-09 2.2768307e-09 1.197392e-09
2.216043e-09 3.3587153e-09 1.6014733e-09 2.0814452e-09 8.365064e-10 1.5418847e-09 1.4833946e-09 1.1707344e-09
1.5734689e-09 6.660487e-10 1.78661e-09 1.7522276e-09 6.3596206e-10 4.4675694e-10 1.2220254e-09 6.5728933e-10
2.5491451e-09 1.8302528e-09 1.0521704e-09 2.3415636e-09 5.1522664e-10 7.418702e-10 3.1323686e-09 9.873001e-10
9.439471e-10 2.00705e-09 1.6671763e-09 1.8010058e-09 1.1021781e-09 1.5044471e-09 2.042042e-09 6.054454e-10
5.6748912e-09 2.1559052e-09 2.191167e-09 1.5937861e-09 1.5223001e-09 6.8040146e-10 1.4456559e-09 9.1233787e-10
1.9715114e-09 1.1851619e-09 1.7051184e-09 1.3963642e-09 1.590046e-09 1.9343427e-09 1.6859759e-09 1.1583424e-09
8.6695856e-10 1.0225178e-09 3.380406e-09 1.7565335e-09 1.3377663e-09 1.9017383e-09 2.1455153e-09 2.3970712e-09
5.033193e-10 1.7852645e-09 2.4286007e-09 8.364931e-10 1.4288678e-09 3.5064807e-09 1.0274561e-09 8.8012303e-10
2.0152848e-09 4.156914e-09 2.9596174e-09 7.3112155e-10 2.1189863e-09 1.5161257e-09 1.5472112e-09 1.4894952e-09
1.6462497e-09 2.5001605e-09 2.0683304e-09 1.4176618e-09 2.4858393e-09 1.3715096e-09 1.2288368e-09 1.0911819e-09
1.9656532e-09 1.8005016e-09 1.727952e-09 1.7082473e-09 2.0890407e-09 1.8718824e-09 2.913689e-09 5.965729e-10
2.3416917e-09 2.5231024e-09 1.9254065e-09 1.8715938e-09 9.143884e-10 1.6850232e-09 2.435828e-09 1.4383622e-09
