mcao/neural/unsupervised/trained/2019-02-08-12:54:36.pth (torch_old, 835359 bytes, 12 tensors)

layer1.weight f4 [256, 210]
0	0xbda5c025	-0.08093289
1	0xbcd1d671	-0.025614949
2	0x3e0dfecb	0.13866727
3	0xbd8fcb8b	-0.070212446
4	0xbd02c57f	-0.03192663
5	0x3d3898b9	0.045067523
6	0x3db5d67a	0.08878799
7	0xbcf7e2ef	-0.030259578
8	0xbd920912	-0.07130636
9	0xbbea6bab	-0.0071539483
10	0xbd1c0166	-0.03808727
11	0x3c92e720	0.017932475
12	0x3d8309d8	0.06398362
13	0xbd2eb3c8	-0.04265192
14	0xbd1c3013	-0.038131785
15	0x3c7a2f2c	0.015270036
16	0x3d125bd9	0.035732124
17	0xbd33394e	-0.043755822
18	0xbba5a28a	-0.0050547766
19	0x3d59c7cc	0.053169057
20	0xbd3c2b96	-0.045940004
21	0xbdba5083	-0.09097388
22	0xbbf31af8	-0.0074189864
23	0x3d8843bd	0.06653545
24	0xbd009766	-0.031394385
25	0x3bf0f17a	0.007353005
26	0xbcd76ce7	-0.026297046
27	0xbd915539	-0.07096333
28	0xbcc8063d	-0.024417037
29	0xbbcfd2fc	-0.00634229
30	0xbaa33392	-0.0012451282
31	0xbd9233be	-0.07138775
32	0x3d4730f5	0.048630673
33	0x3d1fd671	0.039022867
34	0x3d5717b6	0.052512847
35	0x3d10f387	0.035388496
36	0xbcb35226	-0.021889757
37	0xbd9e74db	-0.07737132
38	0xbd351828	-0.04421249
39	0x3d128bb9	0.03577778
40	0x3d41897e	0.047250263
41	0xbd916808	-0.070999205
42	0x3cfeeba5	0.031118223
43	0x3c889405	0.016672144
44	0xb9bde8e0	-0.00036222395
45	0xbc9d011c	-0.019165568
46	0x3d36e9a9	0.04465643
47	0xbd3a74d2	-0.045521565
48	0x3d699898	0.05703029
49	0x3cfb9420	0.03071028
50	0x3d5c4089	0.053772483
51	0xbd8e13df	-0.06937384
52	0xbd874a0f	-0.066059224
53	0xbd76aa19	-0.06022081
54	0xbd11fd73	-0.0356421
55	0xbd2aff5d	-0.04174744
56	0xbd01fcb0	-0.031735122
57	0x3cf43063	0.029808229
58	0xbdb5ee7a	-0.088833764
59	0xbd060190	-0.032716334
60	0x3bf03503	0.0073305382
61	0xbb82bbbc	-0.003989665
62	0xbdc5e239	-0.09662289
63	0xbd8f0cb8	-0.06984848
64	0x3ca20e0c	0.019782089
65	0x3ca08ffc	0.019599907
66	0x3d18c9d3	0.03730185
67	0xbdc7ef1f	-0.097624056
68	0x3c8795f6	0.016551
69	0xbcab6aa3	-0.020924872
70	0x3a6a1292	0.0008929159
71	0xbc73c3c7	-0.01487822
72	0xbd17643f	-0.036960836
73	0xbd592cb9	-0.053021166
74	0xbd141986	-0.036157154
75	0x3cfa0542	0.030520085
76	0x3c9474a2	0.018122021
77	0x3d43931f	0.047747727
78	0x3d875290	0.066075444
79	0x3c2f87f6	0.010713568
80	0xbd2ad040	-0.04170251
81	0xbd15cdff	-0.036573406
82	0xbd4ca356	-0.049960457
83	0xbd8c3e7e	-0.06847857
84	0x3cb340ab	0.021881422
85	0x3cab76bc	0.02093064
86	0xbd237498	-0.039906114
87	0x3cce0201	0.02514744
88	0xbcc548a7	-0.024082495
89	0xbd98855c	-0.07447311
90	0xbd6e3f44	-0.058165804
91	0x3dbb319f	0.09140324
92	0xbc82bc43	-0.01595891
93	0x3d98f4c6	0.07468562
94	0x3dd55f4e	0.104185686
95	0x3ca2104e	0.019783165
96	0x3cc5e718	0.024158046
97	0x3dec1d64	0.11529043
98	0xbd50a614	-0.050939634
99	0x3cc23da6	0.023711037
100	0x3db5ed7e	0.08883189
101	0xbcbfd350	-0.023416191
102	0xbc3532af	-0.011059447
103	0xbd6b53a3	-0.05745281
104	0x3b9ff259	0.004881185
105	0x3c3f8f2e	0.011691852
106	0x3d7ad4c8	0.06123808
107	0x3cab0300	0.020875454
108	0x3d66dca0	0.05636275
109	0xbd0dd343	-0.034625303
110	0xbd6aa0dd	-0.057282317
111	0x3b9f01c0	0.0048525035
112	0xbcf81da7	-0.030287577
113	0x3d93d3c3	0.07218125
114	0x3d328119	0.04358015
115	0xbcc5595b	-0.02409046
116	0x3cbe45b3	0.023226595
117	0xbb6511f7	-0.0034953335
118	0xbc6a3c55	-0.014296611
119	0xbb9afc56	-0.004729788
120	0x3cafa80f	0.021442441
121	0xbd80a9df	-0.062824
122	0x3d420418	0.047367185
123	0x3c2167da	0.00985142
124	0xbd72eb50	-0.059306443
125	0xbd8b47d9	-0.06800813
126	0x3d26492c	0.040597126
127	0x3d0c73b2	0.034290023
128	0xbbb83b86	-0.00562233
129	0xbd6c336e	-0.057666235
130	0x3b6b69ed	0.003592129
131	0x3beacc8b	0.0071654967
132	0xbca39afc	-0.019971363
133	0x3d196374	0.03744836
134	0x3c2ffa74	0.010740865
135	0xbd8845bd	-0.066539265
136	0xbc7bc35b	-0.015366401
137	0xbd862b4e	-0.065512285
138	0xbd485808	-0.04891208
139	0xbc951112	-0.018196616
140	0xbd0f58bc	-0.034996733
141	0x3c3ddffd	0.0115890475
142	0xbd0ce3fd	-0.034397114
143	0xba4d9719	-0.00078426447
144	0xbc2f7406	-0.0107088145
145	0x3d1e5d65	0.038663287
146	0x3d871366	0.06595497
147	0x3da00276	0.078129694
148	0x3daa950e	0.08329211
149	0x3d17dae7	0.037073996
150	0x3d9119ea	0.07085021
151	0xbd30d07a	-0.04316757
152	0x3c0e9aa7	0.008703864
153	0xbd3b5602	-0.04573632
154	0xbcc6ce96	-0.02426843
155	0x3c2dcff3	0.010608661
156	0x3ca6bb1b	0.02035289
157	0xbd378f8d	-0.044814635
158	0x3d575135	0.05256768
159	0x3c49cbe7	0.0123166805
160	0xbd2ec5b3	-0.04266901
161	0xbd075969	-0.033044253
162	0xbdcb9266	-0.09940033
163	0xbcbf6176	-0.023361903
164	0x3bed9209	0.0072500748
165	0xbd7a1032	-0.0610506
166	0xbdc62ed3	-0.096769
167	0xbd1315ee	-0.035909586
168	0xbba03852	-0.0048895264
169	0x3d0dd620	0.034628034
170	0x3d51581a	0.05110941
171	0x3b2f5553	0.0026753738
172	0x3b96b142	0.0045987675
173	0x3cead0a9	0.02866395
174	0x3d9a945e	0.0754783
175	0xbd0f060d	-0.03491788
176	0xbd76d216	-0.060258947
177	0x3c7ee178	0.015556686
178	0x3c641a9a	0.013922358
179	0x3c17ddd3	0.009269196
180	0xbca6d003	-0.02036286
181	0xbd88edc7	-0.066859774
182	0x3b98b046	0.0046596853
183	0x3d52db9f	0.05147898
184	0xbd86e82a	-0.065872505
185	0x3c253ee8	0.010085799
186	0x3cb6f030	0.022331327
187	0xbd4e6076	-0.05038496
188	0x39e61c6c	0.00043890195
189	0xbd727932	-0.059197612
190	0x3ce6335c	0.028100662
191	0xbc4bcb6c	-0.012438636
192	0xbd20d5aa	-0.039266266
193	0xbd02bb5c	-0.03191696
194	0xbbdba160	-0.006702587
195	0x3d89109c	0.06692621
196	0x3d384dd5	0.0449961
197	0x3cd963af	0.02653679
198	0xbd0281d7	-0.031862106
199	0x3cdd734d	0.027032519
200	0xbd51e990	-0.051248133
201	0xbd291495	-0.041279394
202	0xbd90925c	-0.07059166
203	0xbd727ae8	-0.059199244
204	0xbd1e4537	-0.038640227
205	0xbce15cb0	-0.027510017
206	0xbb941a7c	-0.0045197587
207	0x3d861cb2	0.06548442
208	0x3d3e360f	0.046438273
209	0x3d604e95	0.05476244
210	0x3d045cbb	0.032314997
211	0x3d04baba	0.03240464
212	0x3d6c3333	0.057666015
213	0xbccbb33f	-0.024865745
214	0xbd3a438b	-0.04547457
215	0x3d2dabae	0.042400055
216	0xbc74e3c1	-0.014946879
217	0x3cd89ddb	0.026442459
218	0x3d03d1e0	0.032182574
219	0x3d0a7419	0.033802126
220	0x3bb7f5ee	0.005614034
221	0xbc282555	-0.010262807
222	0xbcfb254b	-0.030657431
223	0xbcc9682b	-0.024585804
224	0xbc864343	-0.016389495
225	0x3dde7326	0.108618066
226	0xbbe93731	-0.007117175
227	0x3ca4a741	0.020099284
228	0x3d7e26cd	0.062048722
229	0xbd563a99	-0.052301977
230	0xbc78ecae	-0.015193148
231	0xbd3cedad	-0.046125103
232	0xbd8fb2c3	-0.07016518
233	0xbbc29c4e	-0.005939043
234	0xbcdece13	-0.027197873
235	0xbcdadc05	-0.026716242
236	0xbc6f8996	-0.014620205
237	0xbdb6b7dc	-0.08921787
238	0xbdb01aca	-0.085988596
239	0x3c4e047d	0.012574312
240	0xbc45ca5d	-0.012072173
241	0xbd063b05	-0.03277113
242	0xbd453f83	-0.048156273
243	0xbd224a93	-0.0396219
244	0xbb4749b7	-0.0030408928
245	0xbd40efae	-0.047103576
246	0xbdbf2ecb	-0.09335097
247	0xbd4ee0c5	-0.050507326
248	0x3a97155d	0.0011526752
249	0x3c2ca4bb	0.010537322
250	0x3d46387e	0.04839372
251	0x3d0d7da3	0.034543645
252	0x3ce43494	0.027857102
253	0xbd22967a	-0.039694287
254	0x3da8125d	0.082066275
255	0x3c281472	0.010258781

layer1.bias f4 [256]
0	0x3e2b9305	0.16755302
1	0x3da24d9f	0.07924961
2	0x3d746747	0.059668805
3	0x3d87ba45	0.06627325
4	0x3e29c611	0.16579463
5	0x3e09896d	0.1343133
6	0x3e011689	0.12606253
7	0x3e256c69	0.16154636
8	0x3e1860eb	0.14880721
9	0x3da38135	0.07983629
10	0x3df5ef65	0.120085515
11	0x3d7f33f8	0.06230542
12	0x3db64519	0.08899898
13	0x3e265199	0.16242065
14	0x3e2eeea0	0.17083216
15	0x3e4a1e00	0.19738007
16	0x3de1a6a0	0.11018109
17	0x3e1ccb51	0.15311934
18	0x3db25f62	0.08709599
19	0x3d6dc32d	0.058047462
20	0x3e0f4e1d	0.13994642
21	0x3e3ae7aa	0.18252435
22	0x3d68d5b9	0.056844447
23	0x3e2f9040	0.17144871
24	0x3df383e6	0.11890392
25	0x3d5fafbf	0.054610964
26	0x3db9bc16	0.09069078
27	0x3d9eb8ed	0.077501155
28	0x3e5143e4	0.20436054
29	0x3e177b46	0.14793119
30	0x3dfd5c1a	0.123710826
31	0x3da196a7	0.07890063
32	0x3e169503	0.14705281
33	0x3dceef07	0.101041846
34	0x3e3e9f4d	0.18615456
35	0x3d9cbfc1	0.07653762
36	0x3da88da9	0.082301445
37	0x3dad6ae8	0.084676564
38	0x3d770ad5	0.060313065
39	0x3da1a060	0.07891917
40	0x3dcef77f	0.101058
41	0x3e2317ad	0.15927
42	0x3e1a683c	0.15078825
43	0x3d8aef1f	0.0678389
44	0x3e21efeb	0.15814178
45	0x3e182f4f	0.14861797
46	0x3e08de04	0.13365942
47	0x3d7fdf40	0.062468767
48	0x3db1af07	0.08675962
49	0x3db0b419	0.08628101
50	0x3e0caa44	0.13736826
51	0x3e2a93d7	0.16657959
52	0x3e2b2c2e	0.16716072
53	0x3d94b972	0.072619334
54	0x3e2d3c02	0.16917422
55	0x3d925594	0.07145229
56	0x3e0275e1	0.1274028
57	0x3deff21f	0.11716103
58	0x3df365e7	0.11884671
59	0x3da60543	0.08106472
60	0x3da2440e	0.07923137
61	0x3da5a2e3	0.08087709
62	0x3dbd3566	0.092387006
63	0x3ddc7a79	0.10765547
64	0x3e2acebf	0.1668043
65	0x3dc63e0c	0.09679803
66	0x3d99ac9e	0.07503627
67	0x3d895d60	0.06707263
68	0x3d550c6c	0.0520138
69	0x3e25cfb5	0.16192515
70	0x3da178b7	0.07884353
71	0x3db0eca7	0.08638888
72	0x3e2a3e95	0.16625436
73	0x3de198fe	0.11015509
74	0x3e19d359	0.15022029
75	0x3df752f4	0.12076369
76	0x3e531080	0.20611763
77	0x3e01dbd9	0.12681521
78	0x3e4ba61d	0.19887586
79	0x3d3d3bc9	0.046199594
80	0x3d60c7f9	0.05487821
81	0x3d8a697e	0.06758402
82	0x3e01d80b	0.1268007
83	0x3e2fda39	0.17173089
84	0x3e1bb6d3	0.1520646
85	0x3dfdf4d4	0.12400213
86	0x3dc5da41	0.09660769
87	0x3e36de67	0.17858277
88	0x3e4d2364	0.20033032
89	0x3da56f14	0.08077827
90	0x3e08754c	0.13325995
91	0x3dd44b8a	0.103659704
92	0x3e0af2ff	0.13569258
93	0x3dc9d1c8	0.09854466
94	0x3dcea07f	0.10089206
95	0x3dd2ccea	0.102929905
96	0x3e47dcd3	0.19517832
97	0x3e31469e	0.17312095
98	0x3e0106eb	0.12600295
99	0x3e2ce78a	0.168852
100	0x3d88b608	0.06675345
101	0x3d9a2eb6	0.07528441
102	0x3da09f5f	0.078428976
103	0x3d85d875	0.065354265
104	0x3e1b7045	0.15179546
105	0x3e483e09	0.19554915
106	0x3e4d568d	0.20052548
107	0x3df6083d	0.1201329
108	0x3dbc8ad8	0.0920617
109	0x3e28d705	0.16488273
110	0x3e456d2a	0.19279924
111	0x3daa3872	0.08311547
112	0x3debd7aa	0.11515744
113	0x3db0fb16	0.08641641
114	0x3da8c71b	0.08241101
115	0x3dbefe01	0.09325791
116	0x3df5ae34	0.11996117
117	0x3dfdc5b3	0.12391224
118	0x3dbdccf1	0.09267605
119	0x3e113276	0.14179406
120	0x3e33f837	0.17575155
121	0x3e11f07d	0.14251895
122	0x3da1646d	0.07880483
123	0x3de38a71	0.1111039
124	0x3ddc433b	0.10755011
125	0x3dc54baf	0.09633576
126	0x3e03804d	0.12841912
127	0x3d72fb17	0.05932149
128	0x3d57f7d7	0.052726593
129	0x3df8d32e	0.12149654
130	0x3e34e9b4	0.17667276
131	0x3de41253	0.111363076
132	0x3d9b0159	0.075686164
133	0x3e4d0080	0.20019722
134	0x3dcd8a3a	0.1003613
135	0x3d714347	0.05890205
136	0x3e2c6c71	0.16838242
137	0x3dfedfba	0.12445016
138	0x3e5f3d6f	0.21800779
139	0x3e3c0583	0.18361478
140	0x3de0d77e	0.10978602
141	0x3e46424b	0.19361226
142	0x3d728aa0	0.059214234
143	0x3d970437	0.07373851
144	0x3db9de77	0.09075635
145	0x3e2ec69a	0.17067948
146	0x3d65273c	0.05594562
147	0x3d82586b	0.06364521
148	0x3dd1501e	0.10220359
149	0x3df95ac9	0.12175519
150	0x3e26e5a4	0.16298538
151	0x3e22a24d	0.15882225
152	0x3d8676f9	0.06565661
153	0x3d89add0	0.06722605
154	0x3e47c3e3	0.19508319
155	0x3e127ec6	0.14306173
156	0x3d800b81	0.06252194
157	0x3e30f0ad	0.1727931
158	0x3e34a9bc	0.17642874
159	0x3e11c47e	0.14235112
160	0x3e2b141f	0.16706894
161	0x3e47ed30	0.19524074
162	0x3e1a219d	0.15051885
163	0x3dd08b0b	0.1018277
164	0x3dfa6eda	0.122281745
165	0x3e31a648	0.17348588
166	0x3dd3bcdb	0.10338756
167	0x3db8b616	0.09019105
168	0x3e3ce7fc	0.1844787
169	0x3e094c6a	0.13408056
170	0x3de80df4	0.11330786
171	0x3db9f9a0	0.09080815
172	0x3e427368	0.18989336
173	0x3e03a70b	0.1285669
174	0x3da446f4	0.08021346
175	0x3e102922	0.14078191
176	0x3df08af5	0.11745254
177	0x3d24de7c	0.04025124
178	0x3d8da434	0.06916085
179	0x3d46ae52	0.04850609
180	0x3e0e2897	0.13882671
181	0x3e347bda	0.1762537
182	0x3dc1ab05	0.094564475
183	0x3e411337	0.18854986
184	0x3d734be0	0.059398532
185	0x3e0e69c7	0.13907538
186	0x3e3ecf99	0.1863388
187	0x3e3ba227	0.18323575
188	0x3dd5022c	0.10400805
189	0x3dac6af8	0.0841884
190	0x3e199496	0.14998087
191	0x3e4157fa	0.18881217
192	0x3dd82f33	0.105558775
193	0x3dfc51a2	0.12320258
194	0x3e028a8a	0.12748161
195	0x3e079790	0.1324141
196	0x3dd94075	0.10607997
197	0x3e01802e	0.12646553
198	0x3e1f5d39	0.15562905
199	0x3e1b6e42	0.15178779
200	0x3e2b7f8b	0.16747873
201	0x3e1e3540	0.15450001
202	0x3e3b253f	0.18275927
203	0x3dd417c0	0.103560925
204	0x3d96a7f6	0.07356255
205	0x3e2622f5	0.16224273
206	0x3e019631	0.1265495
207	0x3e213d2b	0.1574599
208	0x3db24aea	0.08705695
209	0x3daee816	0.08540361
210	0x3d8cdeca	0.06878431
211	0x3e15d62b	0.1463248
212	0x3e09fb09	0.13474669
213	0x3d73165f	0.059347507
214	0x3d5bb1b5	0.05363627
215	0x3e0942a7	0.13404332
216	0x3daee797	0.08540266
217	0x3d77473d	0.060370672
218	0x3d9b7791	0.07591165
219	0x3e1099c3	0.14121155
220	0x3da09555	0.07840983
221	0x3d8a6264	0.06757048
222	0x3deadff2	0.114684954
223	0x3dc4e75c	0.09614441
224	0x3dc31d9c	0.09527132
225	0x3e116ddb	0.14202063
226	0x3d96f203	0.07370379
227	0x3d63f1c4	0.055650488
228	0x3e26985e	0.16269061
229	0x3e0f8832	0.14016798
230	0x3dbb69e7	0.09151059
231	0x3dbe9d8f	0.09307396
232	0x3e33e88b	0.17569177
233	0x3dc8fdbd	0.09814022
234	0x3db786a5	0.08961228
235	0x3dbfc7a9	0.09364254
236	0x3e0dbb3c	0.13840955
237	0x3d4524ad	0.04813068
238	0x3dc04c11	0.093895085
239	0x3da98156	0.08276622
240	0x3dca49ee	0.09877382
241	0x3d8c5010	0.06851208
242	0x3e023436	0.1271523
243	0x3da2c5a5	0.07947854
244	0x3e4969bb	0.19669239
245	0x3e5bfdeb	0.21483581
246	0x3e147f3d	0.14501663
247	0x3e244f4c	0.16045874
248	0x3d8255f4	0.063640505
249	0x3de0fef2	0.10986127
250	0x3e09ea1c	0.13468212
251	0x3d76ae53	0.060224842
252	0x3dd71d7f	0.10503673
253	0x3dbbc70f	0.09168827
254	0x3e3bfb50	0.18357587
255	0x3e115ad9	0.14194812

layer2.weight f4 [60, 256]
0	0xbc26cb35	-0.010180284
1	0x3d6deb03	0.058085453
2	0x3d87beab	0.06628164
3	0xba10ac91	-0.00055188785
4	0x3a2cc88d	0.00065911637
5	0x3d04892a	0.032357372
6	0xbd467166	-0.04844799
7	0x3d42fe6e	0.047605924
8	0xbc342a4f	-0.010996415
9	0xbd26621c	-0.04062091
10	0xbd86f72d	-0.06590114
11	0x3d017be5	0.031612296
12	0xbb33fbba	-0.0027463273
13	0x3ce70083	0.028198486
14	0xbcd50be6	-0.02600665
15	0x3d30a689	0.04312757
16	0xbd55e664	-0.05222167
17	0xbd3afaf7	-0.045649495
18	0x3d2230a2	0.03959716
19	0xbcc692a7	-0.024239851
20	0x3bf5335b	0.0074829287
21	0xbd52f02c	-0.051498577
22	0xbbef6ee8	-0.007306922
23	0xbd54689e	-0.051857583
24	0xbc165f93	-0.00917806
25	0x3cc6d902	0.0242734
26	0xbd8a2ace	-0.067464456
27	0x3cecef4e	0.028922703
28	0x3c9b0aa0	0.018925965
29	0xbd5af81d	-0.053459276
30	0xbd800b01	-0.06252099
31	0x3c500a69	0.0126977945
32	0xbc1af95c	-0.009458866
33	0xbc9bd125	-0.019020626
34	0x3c770539	0.015076929
35	0xbca41055	-0.020027319
36	0xbc80d74f	-0.015727667
37	0xbd604f2c	-0.054763004
38	0x3d7895ca	0.060689725
39	0x3d0f9bf7	0.03506085
40	0x3c07e5c9	0.008294531
41	0xbd9b67f2	-0.07588185
42	0x3bc05b6c	0.0058702733
43	0x3d20e2c8	0.039278775
44	0xbd23ee98	-0.040022463
45	0x3d327839	0.043571685
46	0xbc985c62	-0.018598739
47	0x3d5ba95a	0.053628303
48	0x3d50648b	0.050877135
49	0x3cf644e6	0.03006215
50	0xbd43fb26	-0.047846936
51	0xbd00ddc3	-0.03146149
52	0x3d3a32ad	0.045458484
53	0xbc853295	-0.016259471
54	0x3d4538d3	0.048149895
55	0xbca63f35	-0.020293811
56	0x3cd16665	0.02556152
57	0x3d3de4d5	0.04636081
58	0xbc442a1d	-0.011972931
59	0x3d60d838	0.054893702
60	0x3c23fd1c	0.010009076
61	0x3c11c068	0.008895971
62	0xbd0ebade	-0.03484618
63	0xbc17a125	-0.009254728
64	0xbd0b855e	-0.034062736
65	0xbd867217	-0.0656473
66	0x3ccb3422	0.024805132
67	0xbd1bb6c3	-0.038016092
68	0xbc0fabc6	-0.008768981
69	0xbd8d53af	-0.06900727
70	0xbc464cc7	-0.012103266
71	0x3cdf10e2	0.02722973
72	0xbdb31a73	-0.08745279
73	0xbd82e1c2	-0.06390716
74	0x3a9df02f	0.001204973
75	0x3d6dc641	0.058050398
76	0xbb088a9f	-0.0020834578
77	0xbbf9236e	-0.0076031005
78	0x3d326809	0.043556247
79	0xbc992042	-0.01869214
80	0xbcff8ec5	-0.031196008
81	0xbd08a92f	-0.03336447
82	0x3c6e20ff	0.014534234
83	0x3b1867d5	0.0023255248
84	0x3d2518b0	0.040306747
85	0xbc39a186	-0.011330014
86	0xbc756e77	-0.01497995
87	0x3d8369ff	0.064167015
88	0xbc9e1671	-0.01929781
89	0x3c627e4b	0.013824056
90	0x39d117a3	0.00039881197
91	0xbd680212	-0.0566426
92	0xbd69d5b6	-0.057088576
93	0x3c367940	0.011137307
94	0xbcc9b3e9	-0.02462192
95	0x3ca1caa8	0.019749954
96	0x3c8418eb	0.016125163
97	0x3d12380e	0.03569799
98	0x3d637083	0.05552722
99	0xbd4a0df6	-0.04932972
100	0xbcc84b85	-0.024450073
101	0x3d2b6173	0.04184098
102	0xbcd276fb	-0.0256915
103	0xbc960430	-0.018312544
104	0xbcf6edcb	-0.030142685
105	0xbc42853a	-0.011872584
106	0x3d1ed611	0.03877837
107	0x3d81ba5f	0.063343756
108	0x3d04420c	0.03228955
109	0xbd27359e	-0.040822618
110	0xbd531593	-0.051534247
111	0x3ce2672a	0.027637083
112	0xbcc3b89f	-0.023891745
113	0x3d315732	0.043296047
114	0xbd94dfd1	-0.07269252
115	0xbc729988	-0.0148071125
116	0x3bd8ca48	0.0066159107
117	0x3d0162d0	0.031588376
118	0xbc9a3bb7	-0.018827302
119	0x3cf2a216	0.029618304
120	0x3cedd397	0.029031558
121	0x3cb77546	0.022394788
122	0xbd908e02	-0.07058336
123	0xbc70fb68	-0.014708377
124	0x3d25269e	0.04032003
125	0xbd1e0f2a	-0.03858868
126	0x3d324726	0.043524884
127	0xbd435b88	-0.047694713
128	0xbc4dbeb5	-0.012557675
129	0x3d38a561	0.045079593
130	0xbd617bdb	-0.05504976
131	0xbc199c99	-0.009375715
132	0x3be840c0	0.007087797
133	0xbd8e38a0	-0.06944394
134	0xbc2a3772	-0.010389196
135	0xbc51cf45	-0.012805765
136	0xbd55d9ab	-0.052209537
137	0x3c62d425	0.0138445245
138	0xbbc6371e	-0.006049051
139	0xbc8b2d64	-0.016989417
140	0xbd01dd65	-0.03170528
141	0x3d0c49a8	0.03424993
142	0x3cd50b64	0.026006408
143	0xbd5da09e	-0.054108255
144	0xbc469331	-0.012120054
145	0xbbefb1b4	-0.007314885
146	0x3c76dfa1	0.015067966
147	0x3c9b9675	0.018992642
148	0x3d227493	0.039661955
149	0xbc8d9624	-0.017283507
150	0xba046a74	-0.0005051263
151	0x3c7f00cb	0.015564154
152	0x3d8be7a3	0.068312906
153	0xbbabd6ab	-0.0052440963
154	0x3d059703	0.03261472
155	0x3d1f9ca5	0.038967747
156	0xbb793d76	-0.0038031018
157	0xbc78de63	-0.01518974
158	0xbca781d1	-0.020447643
159	0x3c7f993a	0.015600497
160	0x3cc29db2	0.023756836
161	0x3cc3d203	0.023903852
162	0xbb801d4c	-0.0039097425
163	0xbda27a28	-0.07933456
164	0xbbba11fc	-0.0056784134
165	0xbd17b705	-0.037039775
166	0x3d2c4588	0.042058498
167	0xbba84361	-0.0051349853
168	0x3d509bb9	0.05092976
169	0x3c270c0c	0.010195743
170	0xbca17d4e	-0.01971307
171	0x3c75056b	0.014954905
172	0x3c20e97e	0.009821294
173	0xbcda85e7	-0.026675178
174	0xbd73f78e	-0.05956226
175	0xbcf65a0c	-0.030072235
176	0x3d10c29d	0.035341848
177	0xbc2467ed	-0.010034543
178	0xbd1a0e6b	-0.037611406
179	0x3bb522df	0.0055278386
180	0x3d9e91fb	0.07742687
181	0x3da44bd6	0.08022277
182	0x3c2929ed	0.010324937
183	0x3cac66a7	0.021045042
184	0x3bda86d5	0.0066689053
185	0x3b813b9d	0.003943874
186	0x3cfd6666	0.030932616
187	0x3cc94a17	0.024571462
188	0x3cb51905	0.022106657
189	0x3cc080a5	0.023498842
190	0xbd690b3d	-0.056895483
191	0x3cc6049b	0.024172118
192	0x3d57632a	0.052584805
193	0x3c3653b8	0.011128359
194	0x3d1519be	0.036401503
195	0x3d1dc47d	0.038517464
196	0x3cf9bd57	0.030485792
197	0xbc66f692	-0.014096873
198	0x3d148cd1	0.036267105
199	0xbce64b8f	-0.028112201
200	0xbcc248ec	-0.023716412
201	0x3d39d340	0.04536748
202	0x3ba9b509	0.005179052
203	0xbb76d6ed	-0.0037664727
204	0xbc654ebb	-0.013995822
205	0xbd1dd2cb	-0.038531106
206	0x3ab681d7	0.0013924193
207	0x3d08ce33	0.033399772
208	0xbcbbbc33	-0.022916889
209	0xbc79cf58	-0.0152471885
210	0x389a522b	7.358597e-05
211	0xbda5a722	-0.08088519
212	0x3c841ab3	0.016126012
213	0x3ccdce25	0.025122711
214	0xbcd360b7	-0.025802953
215	0x3d0af694	0.03392656
216	0x3c7d93cf	0.015477135
217	0x3cd1c107	0.025604738
218	0x3cd77afa	0.026303757
219	0x3d41b603	0.04729272
220	0x3d2611a3	0.040544163
221	0xbc98213c	-0.018570535
222	0x3d5a6e08	0.05332759
223	0xbd6bdb9b	-0.05758248
224	0x3d9fa3b3	0.07794895
225	0x3d49aa33	0.04923458
226	0x3d08457e	0.033269398
227	0x3bfb4fe0	0.007669434
228	0x3cd43069	0.02590199
229	0xbd03825a	-0.032106735
230	0xbd578223	-0.052614342
231	0x3cb5bfec	0.022186242
232	0x3d830dfe	0.06399153
233	0x3d6035f1	0.054738943
234	0x3d830ca3	0.06398895
235	0x3d4f79e7	0.050653365
236	0x3dbb4d8d	0.09145651
237	0xbb8dfc19	-0.004333031
238	0xbc1d47a7	-0.009599603
239	0xbcae2050	-0.021255642
240	0x3bf334e4	0.0074220765
241	0xba07f72b	-0.0005186672
242	0x3d8bd57b	0.068278275
243	0x3d3605c8	0.044439107
244	0xbd8eca48	-0.06972176
245	0x3cac16b8	0.021006927
246	0xbbf43fa1	-0.007453874
247	0xbbeab32c	-0.0071624722
248	0xbc9f817f	-0.019470928
249	0xbd1f0a29	-0.03882805
250	0xba82077a	-0.0009920441
251	0x3d6b3e56	0.057432495
252	0x3d2094ea	0.039204516
253	0x3d12e9f6	0.035867654
254	0x3cfc1b6e	0.030774798
255	0xbce9db00	-0.02854681

layer2.bias f4 [60]
0	0xbcfbd9a9	-0.030743437
1	0x3c3d5701	0.011556388
2	0x3c9de720	0.019275248
3	0xbd137796	-0.036002718
4	0x3abf3bd1	0.001458997
5	0xbcc9d51f	-0.024637757
6	0x3c4c3cf4	0.012465704
7	0x3d50eadb	0.051005226
8	0xbce345b7	-0.027743204
9	0xbbb2fd5c	-0.0054623317
10	0xbd6f3b44	-0.05840613
11	0x3cf6625c	0.030076198
12	0x3bfe9570	0.007769279
13	0x3cd3d78f	0.025859622
14	0x3cd39141	0.025826098
15	0xbd5a46e7	-0.053290274
16	0x3caa69e3	0.020802444
17	0x3d036016	0.032074057
18	0x3d0b4ed1	0.034010712
19	0xbbd51a18	-0.0065033548
20	0xbd01d2e1	-0.03169525
21	0xbd74d6cf	-0.05977517
22	0xbbe08dfb	-0.006852863
23	0x3d43d962	0.047814734
24	0x3ce614a0	0.028086007
25	0xbc84186e	-0.01612493
26	0xbc8b8e11	-0.017035516
27	0xbc93227d	-0.017960781
28	0x3cbd21a9	0.02308734
29	0xbc3d0559	-0.0115369195
30	0xbd5773a9	-0.052600536
31	0x3b678e84	0.0035332749
32	0xbcf9b475	-0.030481556
33	0xbc102b6e	-0.008799417
34	0xbc8dcf3a	-0.017310727
35	0x3d130233	0.03589077
36	0x3c8dfd6f	0.01733276
37	0x3d2158d8	0.03939137
38	0x3d646a19	0.055765245
39	0x3b605cf1	0.0034235085
40	0xbc3ccedc	-0.0115239285
41	0x3d066143	0.0328076
42	0xbbf18e60	-0.0073717088
43	0x3cdc7c21	0.026914658
44	0x3ab9caa9	0.0014174777
45	0x3c9c6260	0.019089878
46	0xbcba45d3	-0.022738373
47	0x3c8cb484	0.01717592
48	0x3d645786	0.05574753
49	0x3ce928fc	0.028461926
50	0x3d2af596	0.041738115
51	0xbcd2ef59	-0.025748895
52	0xbcb53d83	-0.022124058
53	0xbd685a9d	-0.05672704
54	0xbb28dff5	-0.0025768254
55	0xbca52778	-0.020160422
56	0xbd309dd8	-0.04311928
57	0x3d2a36fd	0.041556347
58	0xbd1dac75	-0.038494546
59	0x3b6e52f0	0.0036365353

exp_avg f4 [256, 210]
0	0xb8b01f31	-8.398144e-05
1	0xb97abcd7	-0.00023912206
2	0xb9cd62f1	-0.00039174364
3	0xb9359b25	-0.00017319301
4	0xb9796452	-0.00023783863
5	0xb8525e3e	-5.015567e-05
6	0xb9a1628a	-0.0003078173
7	0x39763607	0.00023480515
8	0x3825ba76	3.951272e-05
9	0x381c1f8f	3.722269e-05
10	0xb9901e0d	-0.0002748821
11	0xb89211aa	-6.965113e-05
12	0x3912c3aa	0.00013996536
13	0xb900664b	-0.00012245138
14	0xb796f502	-1.7995484e-05
15	0x39dea33e	0.00042464765
16	0x393221e0	0.00016988022
17	0x3727e0e9	1.0006342e-05
18	0x398ac2d8	0.0002646658
19	0x389237ed	6.9722395e-05
20	0xb88b85f4	-6.652987e-05
21	0x37b4b645	2.1542548e-05
22	0x35d27b04	1.5682022e-06
23	0x38d79252	0.00010279253
24	0xb8a0bb03	-7.664228e-05
25	0xb91ee52f	-0.00015153432
26	0xb882049b	-6.199741e-05
27	0x389061e7	6.884691e-05
28	0x3900706c	0.00012248912
29	0xb7aef9e0	-2.0858773e-05
30	0x39e961e7	0.00044514166
31	0xb87ac44e	-5.9787468e-05
32	0x37f2891e	2.8912498e-05
33	0x3793633f	1.756998e-05
34	0x390844ae	0.00012995556
35	0xb84770c3	-4.7550315e-05
36	0xb90682d3	-0.00012827972
37	0xb832a45e	-4.2591586e-05
38	0x39233152	0.00015563265
39	0x38ff2a9f	0.00012167286
40	0x395d1a4d	0.00021086
41	0x37895d82	1.6375216e-05
42	0x39314e82	0.00016909282
43	0xb92f9978	-0.00016746472
44	0x37f35f3e	2.9012208e-05
45	0x38e4208f	0.00010877952
46	0xb7bd001f	-2.2530612e-05
47	0x3894aa01	7.088856e-05
48	0x38c4d32e	9.3853436e-05
49	0xb8899f0d	-6.5622946e-05
50	0x3888b2f8	6.518321e-05
51	0x38dcf093	0.00010535228
52	0x38948c6e	7.083347e-05
53	0x3877fdfa	5.9125923e-05
54	0x38c42f0e	9.354773e-05
55	0x39047dce	0.00012635367
56	0xb7b3313f	-2.1361395e-05
57	0xb91386b3	-0.00014069192
58	0xb812bdc6	-3.4985853e-05
59	0xb696762b	-4.484105e-06
60	0xb8a579de	-7.890513e-05
61	0x383f0fa3	4.555251e-05
62	0xb9053afb	-0.0001270584
63	0x370e4782	8.480509e-06
64	0x395503f8	0.00020314741
65	0xb8cab3f0	-9.6656266e-05
66	0xb8ded89f	-0.00010626134
67	0x3943d620	0.00018676417
68	0xb852b14d	-5.0233026e-05
69	0x3382b279	6.086061e-08
70	0xb946cd0e	-0.0001895914
71	0xb9499801	-0.0001922548
72	0xb90f2b5f	-0.000136537
73	0xb73e6d91	-1.1350393e-05
74	0x384fe728	4.9567927e-05
75	0xb8abdb88	-8.194806e-05
76	0xb8be2c5f	-9.068171e-05
77	0xb9304478	-0.00016810175
78	0x38831df5	6.252147e-05
79	0xb7b727e0	-2.1833868e-05
80	0x37775f25	1.47445e-05
81	0xb8d500a9	-0.000101567544
82	0xb922c46d	-0.00015522698
83	0xb859ea5c	-5.1955096e-05
84	0x385d1433	5.2709318e-05
85	0xb8e696dc	-0.000109953544
86	0xb7c24166	-2.3157056e-05
87	0x38569432	5.1159594e-05
88	0x38ffb612	0.00012193261
89	0xb6cb7a3e	-6.0641023e-06
90	0xb7704f6e	-1.4323608e-05
91	0xb91767b2	-0.00014439112
92	0xb8c8dd45	-9.577958e-05
93	0xb929ad70	-0.00016181706
94	0xb8f22d3a	-0.00011547883
95	0xb95a3553	-0.00020809965
96	0xb8a68238	-7.939752e-05
97	0xb8e102a5	-0.00010729329
98	0x39215d23	0.00015388853
99	0x392a7cbf	0.00016258935
100	0x386cdc91	5.6472203e-05
101	0x38ecd724	0.0001129343
102	0x385d5df0	5.2777992e-05
103	0x3952f6c4	0.00020119088
104	0x3842dd43	4.645927e-05
105	0xb80497ee	-3.1612748e-05
106	0xb723afe7	-9.756513e-06
107	0x381c848e	3.731675e-05
108	0xb7c4df51	-2.346901e-05
109	0xb78cde02	-1.6792681e-05
110	0x37b1f7fa	2.1215517e-05
111	0x384591c8	4.710423e-05
112	0xb87e926a	-6.0694678e-05
113	0xb9006180	-0.00012243353
114	0xb8b09913	-8.420846e-05
115	0xb899c6ec	-7.3326606e-05
116	0xb90763be	-0.0001291176
117	0xb8a5bbc5	-7.902788e-05
118	0xb832b664	-4.260837e-05
119	0xb761bde4	-1.3455257e-05
120	0x386f636a	5.7074627e-05
121	0x37cebd21	2.4645184e-05
122	0x368f4c24	4.270596e-06
123	0x3838427e	4.3930944e-05
124	0xb62bbbf8	-2.5590398e-06
125	0x37a1ae27	1.9273792e-05
126	0xb84b8aab	-4.8528116e-05
127	0xb83100b7	-4.2200754e-05
128	0xb7c088ba	-2.2951852e-05
129	0xb8cc56ec	-9.7436685e-05
130	0xb89b93b5	-7.4184885e-05
131	0xb6c9833b	-6.005544e-06
132	0xb8497c12	-4.8037684e-05
133	0x37141dd8	8.828436e-06
134	0xb7000889	-7.631382e-06
135	0xb69492b5	-4.4278227e-06
136	0x377d4909	1.509698e-05
137	0x37fae436	2.9908591e-05
138	0x37d6043e	2.5512763e-05
139	0x3734d237	1.07777805e-05
140	0x3819ac2b	3.6638387e-05
141	0x37aa3be0	2.029346e-05
142	0x368d249a	4.2063884e-06
143	0x36a35ad6	4.8683532e-06
144	0x3799b4b9	1.8323177e-05
145	0x381f51e8	3.7984835e-05
146	0x37af7b11	2.0918933e-05
147	0xb9063df4	-0.00012802315
148	0xb90ade86	-0.00013243602
149	0xb8f819ac	-0.00011830343
150	0xb8d4060b	-0.00010110073
151	0xb8cdf132	-9.820088e-05
152	0xb8e8c629	-0.00011099532
153	0xb8f1530b	-0.000115072435
154	0xb802e9af	-3.121205e-05
155	0xb810132d	-3.4350134e-05
156	0xb7da5096	-2.602515e-05
157	0xb74b48ec	-1.2116721e-05
158	0xb749db69	-1.2031619e-05
159	0xb78fdf59	-1.7150933e-05
160	0xb7b69f90	-2.1770393e-05
161	0xb8569663	-5.1161634e-05
162	0xb82ce388	-4.12199e-05
163	0xb801e66c	-3.0970594e-05
164	0xb81c1429	-3.7212074e-05
165	0xb842b359	-4.6420235e-05
166	0xb8741eb0	-5.8202713e-05
167	0xb839f0dd	-4.433176e-05
168	0x38388489	4.399245e-05
169	0x3838536b	4.3946708e-05
170	0x383aaa5b	4.450451e-05
171	0x38396bad	4.4207718e-05
172	0x38478e00	4.7577545e-05
173	0x3835a393	4.3306103e-05
174	0x383ae2dd	4.455714e-05
175	0x36a0347c	4.7744816e-06
176	0x36a2eaea	4.855324e-06
177	0x36ae3f92	5.1930047e-06
178	0x36768f21	3.6740169e-06
179	0x36eedf32	7.118936e-06
180	0x365e5d34	3.313483e-06
181	0x3677f2d1	3.6947206e-06
182	0xb896f930	-7.198972e-05
183	0xb8955edf	-7.122545e-05
184	0xb89803b0	-7.248612e-05
185	0xb896477f	-7.1658746e-05
186	0xb895c992	-7.142419e-05
187	0xb8963668	-7.162691e-05
188	0xb896af1d	-7.185175e-05
189	0x373c46f3	1.1222192e-05
190	0x3714db30	8.872521e-06
191	0x3717b33a	9.042031e-06
192	0x36edc4f3	7.0860783e-06
193	0x36ac062a	5.126717e-06
194	0x3705db81	7.978525e-06
195	0x3718403a	9.07486e-06
196	0xb85478d4	-5.065727e-05
197	0xb852a445	-5.022089e-05
198	0xb850bf72	-4.976936e-05
199	0xb8516ddb	-4.9931794e-05
200	0xb843a59a	-4.664585e-05
201	0xb84ca26e	-4.8788665e-05
202	0xb8532504	-5.0340794e-05
203	0x36c4b64b	5.862477e-06
204	0x367c42be	3.7589775e-06
205	0x36ae1911	5.188522e-06
206	0x3707cc37	8.0941745e-06
207	0x36e15085	6.7148962e-06
208	0x3687c189	4.045844e-06
209	0x36ab7add	5.1105003e-06
210	0x38cd432f	9.787676e-05
211	0x3845cfec	4.7162102e-05
212	0x390ea68d	0.0001360422
213	0x39a0f707	0.00030701628
214	0x397d8524	0.00024177559
215	0x3952dfe6	0.0002011057
216	0x38b35e4f	8.5529515e-05
217	0x3907f708	0.0001296663
218	0x382837bf	4.010624e-05
219	0xb8c3b00e	-9.331117e-05
220	0xb887f747	-6.4833606e-05
221	0xb8dd6de5	-0.00010558571
222	0x38db25bf	0.000104497645
223	0xb9680f58	-0.0002213096
224	0xb90273eb	-0.00012440949
225	0x38ae9b6c	8.325916e-05
226	0xb91ae9c5	-0.0001477367
227	0xb8c24364	-9.263193e-05
228	0x38b5ac4e	8.662847e-05
229	0xb926baf9	-0.00015900646
230	0xb907b74d	-0.00012942888
231	0x392e91b7	0.00016648216
232	0x38073840	3.2238895e-05
233	0x391407b3	0.00014117248
234	0xb92dc963	-0.00016573588
235	0x3840f1d8	4.60016e-05
236	0x38309c1e	4.2107065e-05
237	0x372ddee8	1.0363503e-05
238	0xb9247446	-0.00015683574
239	0xb8df1226	-0.00010636849
240	0x38270dc5	3.9828727e-05
241	0xb96b5fe9	-0.00022447076
242	0xb9827643	-0.00024883644
243	0xb9900871	-0.0002747211
244	0xb8f194a3	-0.00011519461
245	0x37000829	7.6312945e-06
246	0x38b24f67	8.502491e-05
247	0x34a469fe	3.06245e-07
248	0x391950e9	0.00014621358
249	0x37d643a0	2.5542278e-05
250	0x3954de56	0.00020300722
251	0x3981c91e	0.0002475464
252	0x388c6e0c	6.696218e-05
253	0xb900ef64	-0.00012296211
254	0x3903b3c8	0.00012560107
255	0x38be1b4c	9.0649904e-05

exp_avg_sq f4 [256, 210]
0	0x357301b0	9.052701e-07
1	0x3562faac	8.4556336e-07
2	0x3532dc3a	6.663064e-07
3	0x351839ac	5.6708336e-07
4	0x3510db2d	5.3963123e-07
5	0x35561044	7.974488e-07
6	0x3531aff9	6.619371e-07
7	0x352332bf	6.0796077e-07
8	0x3513e1b2	5.50902e-07
9	0x356d50dd	8.840705e-07
10	0x3522c5d7	6.06376e-07
11	0x354f9b0e	7.7339143e-07
12	0x352d4ff1	6.456385e-07
13	0x35a09212	1.1963441e-06
14	0x3500781b	4.785849e-07
15	0x350e5fb7	5.3038406e-07
16	0x35d708a7	1.6021266e-06
17	0x34d9902a	4.0524293e-07
18	0x35300954	6.5578683e-07
19	0x358055e9	9.561746e-07
20	0x34fdda16	4.72836e-07
21	0x354babe5	7.587353e-07
22	0x34fa05ca	4.657034e-07
23	0x34fdbab1	4.7260758e-07
24	0x3506931d	5.013297e-07
25	0x350dcd0d	5.282498e-07
26	0x35074ada	5.040034e-07
27	0x35242208	6.1144283e-07
28	0x34cfba4e	3.869231e-07
29	0x35963d89	1.119378e-06
30	0x35251178	6.149271e-07
31	0x3507388b	5.03737e-07
32	0x3507d48a	5.0600704e-07
33	0x35114ebd	5.413129e-07
34	0x34e3ee9b	4.2455653e-07
35	0x350bfece	5.2152325e-07
36	0x354c69fb	7.6150144e-07
37	0x35706ebc	8.9568107e-07
38	0x351ef9e7	5.922324e-07
39	0x34d32b1b	3.9333176e-07
40	0x350bde92	5.210542e-07
41	0x34f4d498	4.5603224e-07
42	0x3478c33f	2.316783e-07
43	0x34a3bb22	3.0497273e-07
44	0x350626ee	4.997554e-07
45	0x349678f3	2.802768e-07
46	0x34af7abd	3.2685594e-07
47	0x3508989c	5.0886024e-07
48	0x350296f6	4.864845e-07
49	0x34bdee65	3.5377448e-07
50	0x3492ad48	2.7320698e-07
51	0x34ab207e	3.1874873e-07
52	0x34d312f4	3.9315603e-07
53	0x34abbc3f	3.19882e-07
54	0x349af811	2.8865227e-07
55	0x34d9808d	4.0512933e-07
56	0x3515350c	5.558402e-07
57	0x349b231e	2.889655e-07
58	0x34eeb7e0	4.446474e-07
59	0x350eb0ba	5.3156293e-07
60	0x3499636c	2.857081e-07
61	0x34d72d95	4.0080036e-07
62	0x34e3ee1b	4.245529e-07
63	0x346e1774	2.217401e-07
64	0x3481b338	2.415852e-07
65	0x34a78a15	3.1206642e-07
66	0x34a3d08f	3.0512862e-07
67	0x348fa06d	2.675255e-07
68	0x34b83ae9	3.4315534e-07
69	0x343296d7	1.6632417e-07
70	0x34414877	1.8000888e-07
71	0x34644d1e	2.126221e-07
72	0x34875352	2.5206333e-07
73	0x34692feb	2.1717248e-07
74	0x34518094	1.9511418e-07
75	0x34387c1f	1.718149e-07
76	0x3409e7f8	1.2843509e-07
77	0x34730fa5	2.263683e-07
78	0x345926b0	2.0223774e-07
79	0x3472010f	2.2538391e-07
80	0x347cfc08	2.3561017e-07
81	0x3444d7e3	1.8332462e-07
82	0x344dce11	1.916708e-07
83	0x3419ffa2	1.4342234e-07
84	0x3445f45d	1.8435954e-07
85	0x347c8dc4	2.3520903e-07
86	0x347d336e	2.3581171e-07
87	0x34580f6b	2.0122177e-07
88	0x3484cfa1	2.4737986e-07
89	0x3488826f	2.5426877e-07
90	0x342c9394	1.6072437e-07
91	0x348a1888	2.5722352e-07
92	0x3451f604	1.9554142e-07
93	0x347973a3	2.3232e-07
94	0x34c03494	3.5801042e-07
95	0x349705b8	2.8130103e-07
96	0x3489858a	2.56154e-07
97	0x3467cdc8	2.1588414e-07
98	0x34543e48	1.9766696e-07
99	0x34733743	2.2651243e-07
100	0x344f8384	1.9326222e-07
101	0x348ee097	2.6612972e-07
102	0x34473d2d	1.8555575e-07
103	0x34541607	1.9752052e-07
104	0x34225127	1.5116949e-07
105	0x34383485	1.7155442e-07
106	0x3421bc5a	1.5062815e-07
107	0x340e7152	1.3266006e-07
108	0x343163a7	1.6520663e-07
109	0x3421d7af	1.5072759e-07
110	0x34188bb5	1.4206928e-07
111	0x341659d3	1.4002516e-07
112	0x34349846	1.6819203e-07
113	0x3468ea18	2.1691847e-07
114	0x3455cd3f	1.9911839e-07
115	0x343920cc	1.7241399e-07
116	0x348e888c	2.6548912e-07
117	0x3485e656	2.4940772e-07
118	0x342ed541	1.6282594e-07
119	0x341b4444	1.4460335e-07
120	0x3428d232	1.5722688e-07
121	0x3411f140	1.3591944e-07
122	0x341fb36d	1.4873304e-07
123	0x342dd9a5	1.6191059e-07
124	0x34181cd4	1.4166591e-07
125	0x340efb3c	1.3316179e-07
126	0x345289c1	1.9607889e-07
127	0x3428f20c	1.5734275e-07
128	0x342189c0	1.5044407e-07
129	0x344680e1	1.8487073e-07
130	0x34231408	1.5187845e-07
131	0x3429e499	1.5822515e-07
132	0x3422372f	1.5107501e-07
133	0x34203cad	1.4923235e-07
134	0x34252fe5	1.5384246e-07
135	0x34272783	1.5567461e-07
136	0x34224e3e	1.511589e-07
137	0x341e57b6	1.4746806e-07
138	0x341d2917	1.4636713e-07
139	0x341be794	1.4519748e-07
140	0x345cb6a1	2.0555537e-07
141	0x344ea355	1.9244665e-07
142	0x34538db0	1.9702452e-07
143	0x346be75b	2.1970247e-07
144	0x347deaa8	2.3647829e-07
145	0x347258c9	2.2570306e-07
146	0x345bfb07	2.0487288e-07
147	0x3410efbe	1.3498263e-07
148	0x34142a31	1.3798923e-07
149	0x3412296a	1.3612376e-07
150	0x340e4b88	1.3252259e-07
151	0x340d3f90	1.3154772e-07
152	0x340d631d	1.3167706e-07
153	0x340c7e19	1.308439e-07
154	0x3412d931	1.3676323e-07
155	0x3413e60a	1.377413e-07
156	0x34184203	1.4180118e-07
157	0x341b3280	1.4453872e-07
158	0x34186f3a	1.4196567e-07
159	0x34151007	1.3882537e-07
160	0x34153efc	1.389962e-07
161	0x345d9691	2.0637005e-07
162	0x3464722f	2.1275694e-07
163	0x346a3c5f	2.1814911e-07
164	0x346932cb	2.1718294e-07
165	0x34617d80	2.1000415e-07
166	0x34582b5a	2.0132339e-07
167	0x34610e70	2.096001e-07
168	0x341a2c8f	1.4358578e-07
169	0x3419f3ea	1.4337971e-07
170	0x341a1e86	1.4353472e-07
171	0x3419f8f6	1.4339807e-07
172	0x341bb4fe	1.4501344e-07
173	0x3419f232	1.4337346e-07
174	0x341a0922	1.434569e-07
175	0x340ba3e5	1.3005008e-07
176	0x340bcac8	1.3019155e-07
177	0x340bb464	1.301101e-07
178	0x340bb65a	1.3011723e-07
179	0x340b9ab8	1.300167e-07
180	0x340bfbb7	1.3036957e-07
181	0x340bcbe2	1.3019556e-07
182	0x34118e00	1.3555837e-07
183	0x34117454	1.3546497e-07
184	0x34117d35	1.3549727e-07
185	0x341167e6	1.3541975e-07
186	0x3411a117	1.3562781e-07
187	0x34117a96	1.3548774e-07
188	0x34119d29	1.3561352e-07
189	0x341c09c2	1.4532182e-07
190	0x341c3532	1.4547985e-07
191	0x341bfc11	1.4527201e-07
192	0x341b5b26	1.446866e-07
193	0x341c84a7	1.4576891e-07
194	0x341c0fd0	1.4534385e-07
195	0x341c41e3	1.4552602e-07
196	0x340d16c5	1.3139932e-07
197	0x340d08c1	1.3134833e-07
198	0x340d7c8d	1.317696e-07
199	0x340d1257	1.313832e-07
200	0x340eb7f4	1.3291702e-07
201	0x340d0a56	1.3135408e-07
202	0x340d2c3b	1.3147739e-07
203	0x341169db	1.3542687e-07
204	0x3411d7ee	1.3582732e-07
205	0x34115529	1.3535158e-07
206	0x3412bb00	1.366534e-07
207	0x34112a89	1.3519652e-07
208	0x341190ff	1.3556927e-07
209	0x341150d3	1.3533581e-07
210	0x355af97c	8.1574376e-07
211	0x359a1908	1.1481179e-06
212	0x359bac74	1.159859e-06
213	0x359281a3	1.0915577e-06
214	0x358cbdca	1.0486049e-06
215	0x3574d4b0	9.1206584e-07
216	0x35d78fc9	1.6060595e-06
217	0x354b3bc7	7.571038e-07
218	0x353482a2	6.724532e-07
219	0x35853e9b	9.927493e-07
220	0x35db01c5	1.6317287e-06
221	0x354a4721	7.535437e-07
222	0x35505acb	7.761816e-07
223	0x3552d10b	7.8535294e-07
224	0x3524a1b0	6.133005e-07
225	0x35619e5c	8.4049475e-07
226	0x35340f33	6.7077343e-07
227	0x35201ade	5.964374e-07
228	0x360fceee	2.142911e-06
229	0x3591038a	1.0804372e-06
230	0x35276db2	6.2371976e-07
231	0x351aa057	5.7602796e-07
232	0x351ca1ce	5.8349985e-07
233	0x351af851	5.773082e-07
234	0x35c893f4	1.4944221e-06
235	0x35490cc7	7.489693e-07
236	0x3518690b	5.677727e-07
237	0x3583183e	9.767316e-07
238	0x35500c82	7.750424e-07
239	0x35129e94	5.462e-07
240	0x35080256	5.066735e-07
241	0x351cab83	5.836411e-07
242	0x3562480c	8.42964e-07
243	0x35546e8f	7.913704e-07
244	0x35102168	5.369279e-07
245	0x351cbf41	5.839284e-07
246	0x3573e76a	9.0861306e-07
247	0x35b871f4	1.3742233e-06
248	0x35189007	5.6834e-07
249	0x3583ea7d	9.828506e-07
250	0x351ca64d	5.835653e-07
251	0x3518a037	5.6857556e-07
252	0x34996d12	2.857783e-07
253	0x34f8b987	4.632859e-07
254	0x350bff8a	5.2153393e-07
255	0x34a7f9e1	3.1287985e-07

exp_avg f4 [256]
0	0xb9bdd3eb	-0.0003620678
1	0xb9495e26	-0.00019203927
2	0xb993b14c	-0.0002817012
3	0xb9b4719d	-0.00034416924
4	0xb93d4450	-0.00018049893
5	0xb9a863c6	-0.00032117794
6	0xb9e6bdca	-0.00044010422
7	0xb99b931f	-0.00029673518
8	0xb9d2caa1	-0.00040205292
9	0xb98d8500	-0.00026992708
10	0xb9264fb2	-0.00015860682
11	0xb90448d0	-0.00012615626
12	0xb97cc45b	-0.00024105741
13	0xb9c4f2b9	-0.00037564876
14	0xb9d3fc63	-0.000404331
15	0xb9a07688	-0.0003060589
16	0xb98a6871	-0.00026399226
17	0xb8e36be0	-0.00010844297
18	0xb9685500	-0.00022156909
19	0xb95bae76	-0.0002095046
20	0xb980ab4c	-0.0002454169
21	0xb99edbaa	-0.0003029977
22	0xb971dab3	-0.00023065023
23	0xb935edcd	-0.00017350093
24	0xb9ba12fb	-0.00035490826
25	0xb9b5fe35	-0.0003471241
26	0xb98cebbf	-0.00026878525
27	0xb985d965	-0.00025529708
28	0xb94f2f27	-0.00019758624
29	0xb92105cf	-0.0001535632
30	0xb8785e50	-5.9215643e-05
31	0xb9b11d91	-0.000337821
32	0xb9d36d09	-0.00040326294
33	0xb9c3fe53	-0.00037382785
34	0xb979627c	-0.00023783179
35	0xb967d52e	-0.00022109292
36	0xb98f529a	-0.00027336628
37	0xb98d50e2	-0.00026953878
38	0xb9a7a798	-0.0003197759
39	0xb9863ae9	-0.00025602363
40	0xb930f2d9	-0.00016875136
41	0xb9aadeb5	-0.00032590856
42	0xb988f7df	-0.0002612462
43	0xb9a1a37b	-0.00030830115
44	0xb98d3988	-0.0002693648
45	0xb9af92b3	-0.000334879
46	0xb96eecf8	-0.00022785726
47	0xb97e09bb	-0.00024226953
48	0xb99c3dde	-0.00029800733
49	0xb9a70ea9	-0.00031863645
50	0xb98ce9d6	-0.00026877102
51	0xb942ab60	-0.00018565124
52	0xb98b2003	-0.00026535997
53	0xb9b01785	-0.0003358686
54	0xb9b70078	-0.0003490483
55	0xb96686ca	-0.00021984722
56	0xb9920eaa	-0.00027858216
57	0xb9920ea7	-0.00027858207
58	0xb9cb33aa	-0.0003875767
59	0xb9103ae4	-0.00013754849
60	0xb937410d	-0.00017476473
61	0xb9833b0e	-0.00025030266
62	0xb9b1e753	-0.0003393242
63	0xb99643bf	-0.00028660704
64	0xb9224100	-0.00015473738
65	0xb9589651	-0.00020655362
66	0xb978e215	-0.00023735345
67	0xb95b1fae	-0.00020897269
68	0xb95c11b7	-0.00020987434
69	0xb998b140	-0.0002912376
70	0xb9b39615	-0.0003425336
71	0xb99737ca	-0.0002884253
72	0xb978c6f0	-0.00023725233
73	0xb95c3937	-0.00021002149
74	0xb98173c4	-0.0002469105
75	0xb9076959	-0.00012913848
76	0xb9b09427	-0.00033679718
77	0xb9b056cd	-0.00033634008
78	0xb9c3bde7	-0.00037334787
79	0xb9b06b49	-0.0003364927
80	0xb9868af1	-0.0002566199
81	0xb93a49d2	-0.00017765842
82	0xb9b7f108	-0.00035084062
83	0xb96bab8f	-0.00022475257
84	0xb99ef28a	-0.00030316814
85	0xb946622b	-0.00018919322
86	0xb9b13fef	-0.00033807705
87	0xb94ce807	-0.00019541393
88	0xb9bd7beb	-0.00036141215
89	0xb9034c53	-0.00012521567
90	0xb9852835	-0.00025397693
91	0xb9e542b3	-0.00043727978
92	0xb9bf454f	-0.00036481998
93	0xb9a973e2	-0.0003232053
94	0xb955cb48	-0.00020388991
95	0xb98e9e48	-0.0002720228
96	0xb9a085e8	-0.00030617346
97	0xb9df3999	-0.00042576788
98	0xb9679a88	-0.00022087444
99	0xb9841a7f	-0.00025196743
100	0xb989e582	-0.00026301673
101	0xb9da3963	-0.00041622957
102	0xb9640d3f	-0.00021748709
103	0xb96226e8	-0.00021567533
104	0xb9c62760	-0.0003779484
105	0xb9a4b520	-0.00031415466
106	0xb9685519	-0.00022156945
107	0xb99097f6	-0.0002757904
108	0xb9525489	-0.00020058652
109	0xb9863588	-0.00025598356
110	0xb98ccf7e	-0.00026857475
111	0xb993719a	-0.00028122665
112	0xb92bab7b	-0.00016371712
113	0xb9849f6d	-0.00025295783
114	0xb99e7cef	-0.0003022919
115	0xb91a1f4a	-0.0001469824
116	0xb998346d	-0.0002903076
117	0xb9987ca0	-0.00029084552
118	0xb9740cce	-0.00023274423
119	0xb97c7811	-0.00024077321
120	0xb965cada	-0.0002191471
121	0xb9f07caf	-0.00045869264
122	0xb993bff6	-0.00028181047
123	0xb96051b9	-0.00021392749
124	0xb9afc928	-0.00033528474
125	0xb90af3bc	-0.00013251504
126	0xb98445a7	-0.00025228897
127	0xb9ccd538	-0.00039068772
128	0xb97e055d	-0.00024225326
129	0xb9b74028	-0.0003495228
130	0xb982537e	-0.0002485774
131	0xb968b887	-0.00022193986
132	0xb9a2d761	-0.00031059518
133	0xb9a24abd	-0.00030954732
134	0xb95d87d8	-0.00021126808
135	0xb985c85c	-0.00025517016
136	0xb984d9f4	-0.0002533939
137	0xb92c0078	-0.00016403373
138	0xb9b66a73	-0.00034793056
139	0xb979abf3	-0.00023810547
140	0xb99de519	-0.00030116065
141	0xba005452	-0.0004895377
142	0xb9687c25	-0.00022171492
143	0xb8fafc1f	-0.0001196789
144	0xb997d232	-0.00028957572
145	0xb9973cde	-0.00028846314
146	0xb98fddd0	-0.0002744035
147	0xb9a32031	-0.00031113767
148	0xb9e6cb81	-0.0004402064
149	0xb9010083	-0.0001230259
150	0xb98e72c5	-0.0002716986
151	0xb99cbf4a	-0.0002989716
152	0xb98a4b78	-0.0002637764
153	0xb9655525	-0.0002187086
154	0xb98ba77c	-0.00026636932
155	0xb9753e43	-0.00023388215
156	0xb9b2eccd	-0.00034127236
157	0xb9657d05	-0.00021885715
158	0xb9a9e08d	-0.00032401495
159	0xb9f5ef5b	-0.00046908375
160	0xb92b424f	-0.00016332533
161	0xb9d8f89a	-0.00041383953
162	0xb9bfa1e7	-0.00036550986
163	0xb96c013f	-0.00022507178
164	0xb92a2ed5	-0.0001622991
165	0xb97800cb	-0.00023651418
166	0xb97ec5ed	-0.00024297061
167	0xb95f3f01	-0.00021290408
168	0xb9569ab4	-0.00020466262
169	0xb9963726	-0.00028651318
170	0xb97dfa45	-0.00024221193
171	0xba042273	-0.0005040534
172	0xb9524d44	-0.00020055944
173	0xb9992a1e	-0.00029213814
174	0xb99186aa	-0.00027756888
175	0xb989941c	-0.00026241026
176	0xb9a3fb91	-0.00031277214
177	0xb8f922bf	-0.00011879717
178	0xb98f4c99	-0.00027332155
179	0xb9959839	-0.0002853291
180	0xb9ce6566	-0.0003936693
181	0xb9d30ec0	-0.00040256046
182	0xb97c5740	-0.00024065096
183	0xb9dd2a3d	-0.00042183875
184	0xb99ac713	-0.0002952149
185	0xb9aa4924	-0.0003247942
186	0xba01cda2	-0.0004951601
187	0xb95276d1	-0.00020071423
188	0xb9a7612e	-0.00031925127
189	0xb99d5f0f	-0.00030016198
190	0xb9891124	-0.00026143447
191	0xb9cba595	-0.00038842545
192	0xb9d3adfe	-0.0004037469
193	0xb97e70bb	-0.00024265323
194	0xb975b228	-0.00023431389
195	0xb92414dc	-0.0001564803
196	0xb931069d	-0.00016882499
197	0xb95e187f	-0.00021180695
198	0xb98d023e	-0.00026895286
199	0xb966cc7c	-0.00022010686
200	0xb91115d0	-0.00013836403
201	0xb95a2aef	-0.00020806094
202	0xb947fc33	-0.0001907207
203	0xb9622865	-0.00021568088
204	0xb988e212	-0.00026108377
205	0xb9a6670b	-0.0003173876
206	0xb992e6b1	-0.00028019169
207	0xb98b6be1	-0.00026592522
208	0xb9604cbb	-0.00021390889
209	0xb9b85d7b	-0.00035164863
210	0xb9866d7f	-0.00025640053
211	0xb9ad67ea	-0.00033074553
212	0xb9a43ded	-0.00031326656
213	0xb90be346	-0.00013340739
214	0xb964eaae	-0.000218312
215	0xb9ab001f	-0.00032615752
216	0xb9c877ac	-0.00038236135
217	0xb98fe656	-0.000274467
218	0xb926fa2c	-0.0001592419
219	0xb9bc9812	-0.00035971456
220	0xb9a89fde	-0.00032162567
221	0xb9289474	-0.00016077032
222	0xb997d1cc	-0.00028957275
223	0xb9cda627	-0.0003922444
224	0xb964b396	-0.00021810675
225	0xb9a062a6	-0.00030591077
226	0xb9866226	-0.00025631598
227	0xb97b1aee	-0.00023947257
228	0xb98c2e59	-0.00026737413
229	0xb96368e0	-0.00021687476
230	0xb9869ed2	-0.00025676802
231	0xb97fb6d8	-0.0002438681
232	0xb977dd79	-0.0002363826
233	0xb9893344	-0.00026168872
234	0xb96a046e	-0.00022317629
235	0xb99ab837	-0.0002951042
236	0xb97e75c4	-0.00024267199
237	0xb9607e4c	-0.00021409354
238	0xb942e7c8	-0.00018587627
239	0xb99fe2a5	-0.00030495707
240	0xb95094fd	-0.00019891928
241	0xb9445b29	-0.00018725976
242	0xb9a0573a	-0.00030582567
243	0xb965c3d3	-0.00021912092
244	0xb9c7afa1	-0.00038087092
245	0xb9af291a	-0.00033409224
246	0xb97017b3	-0.00022897012
247	0xb92abe27	-0.000162833
248	0xb9a5a048	-0.0003159067
249	0xb99873ca	-0.0002907797
250	0xb9a19825	-0.0003082167
251	0xb9bcf006	-0.00036036986
252	0xb937c9b2	-0.00017527377
253	0xb9b71934	-0.00034923258
254	0xb9a7d220	-0.00032009277
255	0xb93d9901	-0.00018081443
