metapupil/matrices/transformationMatrices_a3399c08-1554-400a-b731-bc3d70ec4e11.npz (npz, 670946 bytes, 4 tensors)

arr_5 f8 []
00000000: 0000 0000 0000 1040
4.0

arr_1 f8 [31]
00000000: 0000 0000 0000 0000 0000 0000 0040 8f40
00000010: 0000 0000 0040 9f40 0000 0000 0070 a740
00000020: 0000 0000 0040 af40 0000 0000 0088 b340
00000030: 0000 0000 0070 b740 0000 0000 0058 bb40
00000040: 0000 0000 0040 bf40 0000 0000 0094 c140
00000050: 0000 0000 0088 c340 0000 0000 007c c540
00000060: 0000 0000 0070 c740 0000 0000 0064 c940
00000070: 0000 0000 0058 cb40 0000 0000 004c cd40
00000080: 0000 0000 0040 cf40 0000 0000 009a d040
00000090: 0000 0000 0094 d140 0000 0000 008e d240
000000a0: 0000 0000 0088 d340 0000 0000 0082 d440
000000b0: 0000 0000 007c d540 0000 0000 0076 d640
000000c0: 0000 0000 0070 d740 0000 0000 006a d840
000000d0: 0000 0000 0064 d940 0000 0000 005e da40
000000e0: 0000 0000 0058 db40 0000 0000 0052 dc40
000000f0: 0000 0000 004c dd40
0.0 1000.0 2000.0 3000.0 4000.0 5000.0 6000.0 7000.0
8000.0 9000.0 10000.0 11000.0 12000.0 13000.0 14000.0 15000.0
16000.0 17000.0 18000.0 19000.0 20000.0 21000.0 22000.0 23000.0
24000.0 25000.0 26000.0 27000.0 28000.0 29000.0 30000.0

arr_0 f8 [30, 30, 31, 3]
00000000: 0000 0000 0000 f03f 0000 0000 0000 f03f
00000010: 0000 0000 0000 f03f 2b8f 88cd 6a81 ed3f
00000020: 519f 5859 e578 ed3f b625 52cc f078 ed3f
00000030: db12 dcd4 05ad eb3f 5921 4c78 b464 eb3f
00000040: 6ed5 a266 645d eb3f fb0d ce80 d9f4 e93f
00000050: 8b26 f143 2af8 e93f e2ea e7f5 9802 ea3f
00000060: f185 cb85 f189 e83f f3b1 05a5 6972 e83f
00000070: c37f 07ae 6a83 e83f 1032 91c7 a038 e73f
00000080: 606f 57d1 94c9 e63f 4df6 9a27 6fca e63f
00000090: 65a3 aa91 d715 e63f 27cd be8a edfa e53f
000000a0: 6e92 6ec1 0fff e53f 7f2e b330 c2fa e43f
000000b0: 3f62 8fad 29cc e43f e2fe d767 efc8 e43f
000000c0: fc88 ecfa 44fe e33f 2e3f fc23 7fba e33f
000000d0: 320b 030a 12c5 e33f 4f45 126b 1931 e33f
000000e0: 0003 ba00 dada e23f 75a8 dd4c eee4 e23f
000000f0: 85a8 2820 bb71 e23f 64ad 7a49 2756 e23f
00000100: 2315 42a2 7668 e23f eacc 1e04 18ba e13f
00000110: 474c 594e ec71 e13f a70a f395 926a e13f
00000120: 7e9a 066c 6b01 e13f 58ca 89d4 b7d3 e03f
00000130: c00a 4ea5 16e2 e03f 61b9 9c12 8f42 e03f
00000140: f82c b223 ca47 df3f 046f 4e26 374f df3f
00000150: c845 63d0 3593 df3f 2462 ecd8 1d91 de3f
00000160: 31f7 3b93 fda7 de3f 4c3f 10b9 31ab de3f
00000170: 4f4a 5110 25a7 dd3f 99b2 3cbb 77ba dd3f
00000180: f606 85d9 d9b7 dd3f 616e 2381 4ed4 dc3f
00000190: d48d f4ca ffdb dc3f 93fe 949b fac9 dc3f
000001a0: 4f60 34d8 b2bc db3f 0bf5 4830 a0b0 db3f
000001b0: 56ec f36a 3fad db3f 4d1a 94bc f882 da3f
000001c0: 0ded b34b f18e da3f d0c3 e987 a69e da3f
000001d0: 411d 809a d14b d93f 34e0 dbb3 8747 d93f
000001e0: a86a 6ad1 b884 da3f 12a4 c6cf d49f d93f
000001f0: bd1c fd2e 7bc1 d93f b535 4897 582e d93f
00000200: a8f9 ec1d 3e58 d83f ce20 a83c 5090 d83f
00000210: 3558 5e53 ca01 d93f 037b a884 6ca1 d73f
00000220: 6ea9 a2df c790 d73f cd44 792a 7785 d73f
00000230: 9d88 79c0 fe01 d63f 11fa e148 0cfc d53f
00000240: ff42 0e91 f835 d73f 1ee5 a104 6285 d63f
00000250: 5bf5 7f6b e281 d63f 83d8 7253 3503 d73f
00000260: 7008 29dd 0a52 d53f fbd5 a9e0 c851 d53f
00000270: c802 575b dbb7 d63f c06e ec2e edaf d53f
00000280: 9b09 1025 83af d53f fd7b ac63 1643 d63f
00000290: 30d9 9dc7 71a1 d43f 2fb1 a498 d59d d43f
000002a0: 0e95 be58 e2db d53f e4d7 5f8a b8cc d43f
000002b0: 75c1 f30e b3af d43f d029 0f85 7855 d53f
000002c0: 29f0 e3a6 11b2 d33f ad3b 1318 7c8c d33f
000002d0: 2c08 6c90 d80b d53f 4258 bbd7 6bc3 d33f
000002e0: 3b42 b83a 8175 d33f 1f8a b644 b8b6 1ebc
000002f0: 1f8a b644 b8b6 1ebc 1f8a b644 b8b6 1ebc
00000300: 905b 0791 9597 17bc 67e3 4110 e3b3 60bf
00000310: 3d01 1c3d 43a1 69bf 9629 9333 f226 41bc
00000320: 916e 0260 d80f 4f3f e0bc c81b 1525 77bf
00000330: f045 9471 8c92 40bc 703f 0d01 4fd1 5cbf
00000340: e113 7d44 fc12 64bf 0771 3b25 bb99 49bc
00000350: c3f3 bf5c 5a19 53bf fca8 1634 509b 5fbf
00000360: fcdf e378 1101 2dbc 96e1 75a7 8556 513f
00000370: ce37 da26 abd2 7bbf 2629 494f ab23 15bc
00000380: 542c 1ab3 c498 f0be 97fe 5238 28a5 73bf
00000390: 86fb 41ad 95ba 173c 2a9a a446 676c 363f
000003a0: b27f 2649 dcda 72bf de49 cbd8 9c28 41bc
000003b0: 3e0d f5dc 26c1 323f ae84 7cc7 6158 72bf
000003c0: 7e51 6056 ef37 1cbc 4a48 b473 4c7a 603f
000003d0: c248 681f f131 79bf d78a 06ff 0885 3e3c
000003e0: b474 9e7b b5de dcbe dbef fc39 e508 50bf
000003f0: ab47 f97e 31c2 44bc f42f a159 c94f 6e3f
00000400: 230d 6363 ced4 80bf 259d 9280 2428 2b3c
00000410: 950d c224 479a 443f 69d4 487b 89ac 61bf
00000420: e038 857a 4e0d 20bc 741d 3bc1 9bc1 7c3f
00000430: b921 45c7 6e33 89bf e91f 5763 9015 15bc
00000440: 2621 3ba9 db64 743f 9b11 3275 dd86 82bf
00000450: 5082 c378 6877 26bc 03ca 059f 48fd 733f
00000460: 0847 efc1 f2ca 82bf 74f5 fa36 9614 383c
00000470: 78fb cd49 03f5 713f ad2e 52d6 ff9a 82bf
00000480: cd7e f109 a3c8 39bc 6e88 654e 2d4a 7c3f
00000490: cad5 9875 c4c1 87bf a7db 5d52 e2bf 1bbc
000004a0: 6026 b240 9161 7e3f bbe1 7e02 112b 89bf
000004b0: 8ee8 2814 39d3 0dbc 7076 7868 011a 893f
000004c0: cd52 feaa 9fe1 91bf b139 bc2b 99db 1e3c
000004d0: 9a65 0f26 1822 2d3f 06dd eacc 4fb5 64bf
000004e0: 4494 f531 bdd3 323c abb3 aff6 baac 6c3f
000004f0: f327 2f0d c2d1 76bf 3ddf fa02 0e78 31bc
00000500: 7830 af4d ef16 853f 9f7f 6b80 b6b9 8ebf
00000510: b3a6 0b11 3380 2cbc 2948 d1fe da4b 923f
00000520: fbc0 af22 f458 98bf e6b7 c4bf b2cb 2dbc
00000530: dfa8 9def 347e 713f 2be2 ac41 ba3c 7ebf
00000540: 0000 0000 0000 0000 07ef b3ef d498 8b3f
00000550: 94d1 663e 63c6 93bf 48df 7460 b699 253c
00000560: 3f21 4a32 3374 583f 6885 902b 9ba2 69bf
00000570: 0000 0000 0000 0000 7595 075e ad6b 843f
00000580: ed4f de38 3bbe 8ebf 884e 6e3e fccf 17bc
00000590: 58f9 8786 594f 533f 2b6a 5751 e496 5ebf
000005a0: 004f 1afa 0b07 193c c3c1 c925 767f 853f
000005b0: 5f7d db1f a29f 90bf 342e 1092 c61c 2abc
000005c0: 935f d7ea ceae 6c3f de9e 3ea1 bf85 68bf
000005d0: 778e f888 a8ab 11bf 778e f888 a8ab 11bf
000005e0: 778e f888 a8ab 11bf d6cc 998d 2563 ca3f
000005f0: fb8f 61f4 3767 bebf db0e c2c2 6223 bebf
00000600: 3ee7 41eb 0e11 d83f d5c8 6c1a 14f0 c9bf
00000610: 35b3 c3ca 0daa c9bf 93a8 2af1 a22d df3f
00000620: 3120 56e9 66c9 d0bf 1293 e2aa d4a9 d0bf
00000630: b5fc bd3b e8a1 e23f 0c0b 37b3 c1d8 d3bf
00000640: 2308 4611 f2c5 d3bf 0568 8146 8b5c e53f
00000650: 4323 9080 4b40 d6bf 7a3c 6b32 f4f5 d5bf
00000660: 6aea 0d1b 399b e63f 614f 6f72 daec d7bf
00000670: 302f e673 bea9 d7bf d776 cb8a 8e64 e83f
00000680: 46fa beaf 65eb d8bf ff1a 3ac6 cd9f d8bf
00000690: 29b8 489d 6b6a e93f ac74 0793 9edd d9bf
000006a0: 31e4 6ff6 66a5 d9bf a745 b199 dabc e93f
000006b0: 69aa 4320 c2ea dabf 529e e022 d1a2 dabf
000006c0: 49f1 6de6 2805 ea3f 491c 5a1c 26d5 dabf
000006d0: bd70 d047 d9e0 dabf 44ff 29fa 3561 ea3f
000006e0: af10 182f 43aa dbbf d146 0d31 a33a dbbf
000006f0: a85c eb87 7bc1 ea3f bf13 2553 c174 dbbf
00000700: 1481 e723 bd62 dbbf e8b3 76fe 8416 eb3f
00000710: f3a9 a1ae c3df dbbf 700d b2fa 4f71 dbbf
00000720: 2040 0a50 67ec ea3f 66a0 dd40 adec dbbf
00000730: 519e dd7e f59e dbbf 4ff1 0736 dfb1 ea3f
00000740: cc71 f002 2be2 dbbf 4e16 cd0f 1888 dbbf
00000750: 075c 59fb 7c92 ea3f 17df 4415 ead8 dbbf
00000760: 0d31 1215 6a5b dbbf 53a5 fe45 9d65 ea3f
00000770: 907d 114d 0b84 dbbf 68e6 e0b7 d1f8 dabf
00000780: 3e04 2756 376f ea3f 3109 0604 de54 dbbf
00000790: a257 2905 06dc dabf 07be ace5 7850 ea3f
000007a0: dfa5 a047 f0cd dabf 7510 24d7 fb2a dabf
000007b0: 567d 619b 81a6 e93f 945d 6923 dc62 dabf
000007c0: a25c 7b10 8479 dabf 4a41 eca0 75d1 e93f
000007d0: 009e 85fe ac1b dabf b45f f6a2 8d1f dabf
000007e0: 8e09 0e91 cf43 e93f 0fb0 ef76 7f1d dabf
000007f0: b2e5 c49d 1d81 d9bf c316 857a c065 e93f
1.0 1.0 1.0 0.9220479978871244 0.9210077996294591 0.9210132589952795 0.8648709447303092 0.856043086009815
0.8551504139528967 0.8111388698311538 0.8115435912124708 0.8128170779085304 0.766838799780258 0.7639663909044984 0.7660420798310884 0.7256626031681339
0.712107094640924 0.7122112058202191 0.6901662678766171 0.6868808469647875 0.687385442539904 0.6556101752443765 0.6499222173543514 0.649528220004836
0.6247887516840644 0.616515703472009 0.6178064532799452 0.5997435656774232 0.5892152799789017 0.5904456616674582 0.5763831737615567 0.5730167803898607
0.5752518815139961 0.5539665298914802 0.5451566248178857 0.5442593506525853 0.5314232931021505 0.52584449302078 0.5275986889467603 0.5081248630065539
0.4887566898912179 0.4892099260411984 0.49335999822968946 0.4776072138206777 0.4790033281168347 0.47919886658290944 0.4633267077780702 0.4645060852515513
0.46434637300636383 0.4504581700436799 0.4509276849732633 0.44982781594806304 0.4333922492382997 0.4326553794415566 0.4324492020093137 0.41424387374755584
0.4149745215688235 0.41593325875061016 0.3952526100915357 0.39499085010857304 0.4143507046771142 0.40038032808894386 0.40243415440313496 0.3934537389148674
0.3803859035723698 0.3838081924773292 0.3907342733522257 0.36922753291030136 0.36821171607393566 0.3675210871488844 0.34387177273141295 0.3435087882752735
0.3626691261825243 0.3518910451162628 0.35167751787215246 0.3595708193710225 0.33313247296985704 0.3331167406061863 0.3549717323294712 0.33886270124797235
0.33883741969489173 0.34784469350591946 0.3223537873631299 0.32213344484877643 0.3415456644673477 0.32499516976474596 0.32322384319470326 0.3333417224318085
0.3077434663571262 0.30544950820052 0.3288480196353045 0.30880256717262367 0.3040469239649927 -4.1624892027121503e-19 -4.1624892027121503e-19 -4.1624892027121503e-19
-3.197329276603965e-19 -0.0020389017900552145 -0.0031286538368250614 -1.8596380079343426e-18 0.0009479338186965826 -0.0056505989601156326 -1.796789225686212e-18 -0.0017588874363418626
-0.002450459203745301 -2.7756130578352205e-18 -0.0011657125896811095 -0.0019291194188136287 -7.861596805141533e-19 0.0010582261291728116 -0.006792706071463385 -2.864913808672967e-19
-1.5827895544034555e-05 -0.004796177968443913 3.2158583503572255e-19 0.00034215470681645216 -0.00460325287932044 -1.860343833520568e-18 0.00028617094809054225 -0.004478818845911876
-3.8243192994188707e-19 0.002011441536191182 -0.006151143918503079 1.6544745457013768e-18 -6.883134057303668e-06 -0.0009786833324616415 -2.2506484251033324e-18 0.003700154554314489
-0.008218395622299262 7.360867281354295e-19 0.0006287429219046676 -0.002157467383109114 -4.3508975551976e-19 0.0070205768749426085 -0.012305131393660728 -2.8574465976924814e-19
0.004978998232850784 -0.009046297205949119 -6.089540184535794e-19 0.0048802220120358645 -0.009176155608574557 1.3054020264617156e-18 0.0043840530823889765 -0.009084700325068107
-1.3977392255381095e-18 0.00690667817829836 -0.011600050772453314 -3.7607649126155137e-19 0.007417266267233907 -0.012289173973713532 -2.0210266906329793e-19 0.012256632805527107
-0.017462248622524257 4.1820125313509543e-19 0.00022226853164290518 -0.0025278624155721267 1.0206194417675748e-18 0.003500332988088014 -0.005571134580302217 -9.469944251876822e-19
0.010297650869596206 -0.015002656740250418 -7.725151685400525e-19 0.017867490580393195 -0.023776831261728564 -8.076139649816957e-19 0.004270750790832361 -0.007382133068681666
0.0 0.01347509724154562 -0.019311476405805175 5.854810749408027e-19 0.0014925479855794758 -0.0031292944591007517 0.0 0.009971002990776448
-0.015011274979578071 -3.227187761545438e-19 0.0011785864136296311 -0.001867030111830768 3.3918623259423543e-19 0.010497019794656453 -0.016233952707691453 -7.077781542894454e-19
0.0035013238291234454 -0.0029934637804734784 -6.74077621103888e-05 -6.74077621103888e-05 -6.74077621103888e-05 0.20615071691609071 -0.1187624904283097 -0.1177274442180151
0.37604115461691723 -0.20263911524086234 -0.20050213242157047 0.48716043044499563 -0.2622926024128019 -0.2603656452941304 0.5822640578116053 -0.3101047754427533
-0.3089566391646505 0.6675468804417056 -0.3476742511270922 -0.34313683437080267 0.7064481285481865 -0.37383137870096134 -0.3697353488757811 0.7622750006518925
-0.3893675056714624 -0.384753650265722 0.7942407676653193 -0.4041515765982904 -0.40072034898873016 0.8043034555250202 -0.42057850981533434 -0.4161875572776569
0.8131298542571496 -0.419259574592108 -0.41997367871386954 0.8243665586487414 -0.4322669944670094 -0.4254539469739998 0.8361184744525376 -0.4290011703454261
-0.4279015398624477 0.846498963355427 -0.4355324941049325 -0.42879104120239386 0.841357857063489 -0.43632060370010206 -0.4315770853922674 0.8342128806394075
-0.4356792000487786 -0.4301815180118397 0.8303818616067254 -0.4351144035058367 -0.4274544912120895 0.8249040953716452 -0.42993433500483835 -0.4214367194832449
0.8260761912025669 -0.42705488579680934 -0.41967916969348995 0.8223232732615892 -0.41881949419857095 -0.40887351999140914 0.8015754732877365 -0.41228393037951006
-0.4136667405086404 0.8068187850022153 -0.4079391942563859 -0.4081758586339632 0.7895276864149297 -0.4080504094588386 -0.3985055962289962 0.7936708825079325

arr_4 f8 []
00000000: c490 602b 4a10 333f
0.00029088793542287835
